final_project/Performance/FeedForwardClassifier/model.pt (torch, 729573 bytes, 10 tensors)

net.0.weight f4 [512, 16]
00000000: 1ff4 713e 6ec8 83be eefd dabd 44f3 0f3b
00000010: d4b8 983d 48d0 2fbe 9bb6 b83c cbeb 52be
00000020: 1c19 103d 2e04 02be a934 7bbe 13c7 4cbe
00000030: 92b2 033d a51a 043e 5194 48be 24c1 183d
00000040: 516c 4fbe 0f50 c4bc 7f2a 01bc be13 133c
00000050: e40c 29be edf8 fa3c f037 623e 3d3b 47be
00000060: d01d 723d 0a3e 653c 210f 72bd 5242 05be
00000070: 2ad7 693e c0d7 70bd 1211 87be 6308 673c
00000080: c5e6 8bbd 7c14 8f3e b8ac 7d3c 97ad bbbd
00000090: 4a7e 87bd c638 47bd f6d1 883d e343 5c3e
000000a0: ba1f 233e 8b26 8f3c 71b8 32bc eba4 a7bc
000000b0: 7a7d e6bd c048 e5bc fd7b 303e d15d c83b
000000c0: 1f5d 5e3e 895b 2cbe f897 ef3d 3c2c 21be
000000d0: c815 983b 606a 843e 49aa 99bd c6ff ac3d
000000e0: b582 d63c e47e 003e dcfc f43d 003f 313e
000000f0: 16a2 cabc 8da0 e7bc 4e4b 24be 86e0 423d
00000100: e630 613c 2bec b33d 7af7 a1bb 3160 883d
00000110: 3f07 04be cec7 8b3d d711 46be 00f7 963d
00000120: bc4f 6d3e a0c9 7bbe 5905 a33d 6e33 3fbe
00000130: 0216 713d 599d 46be 8670 2ebd 1e60 e5bb
00000140: ab94 45bd a5e9 313e 6a23 80be ac3e 64bd
00000150: a84e 1fbe 6d47 6cbe 50b9 cb3d ff97 f03c
00000160: 68a3 5bbd de05 153e 2799 7fbb 3c83 b73d
00000170: 2cac 6e3e cf0a b23d f3bb 323e d326 ebbd
00000180: bf26 c9bc ecc8 a6bd 1270 1abe 025a 8c3c
00000190: 5ad8 a0bd da3a b4bc bf3c d03d 5b71 113e
000001a0: ce48 2dbe a811 66be b368 80be a366 63bb
000001b0: ef1a 7c3b 1dca 7abc 4112 debd bdee 853c
000001c0: bcf4 7b3d 954b a3bc 2c6c 3f3d b5c0 07be
000001d0: bfc5 cf3d 4c03 7f3e 3893 41be 5dd3 803d
000001e0: 3292 593c 860d 033d af46 623e ba42 243e
000001f0: 08ee 163e 5d19 4bbc a7bf 73bd 657d 8bbd
00000200: dcf9 ebbd 5fc3 31be d451 243d fcc7 6d3c
00000210: 62dc 3c3e c482 453e bfe1 08be 02a6 4d3c
00000220: 7420 2bbe 8641 2abc 8d7c 183e 6437 07be
00000230: 9cf5 92bb 9925 a93d 7985 fbbd db72 ff3d
00000240: 9489 33be 4212 5ebd e493 8dbe 8e12 283e
00000250: cc09 6fbe c64d fcbd 5387 403b 4e2d 833e
00000260: 23f5 b13c 4255 573e 9e6a 64be 7eff 263e
00000270: 4415 333d b7fc 9bbd 09d0 c4bd bce2 87bb
00000280: 2526 163e efaf 9dbd ec15 8c3e 0d89 413e
00000290: 19df 463e 9fcc 683e d282 0cbe ebbc d3bd
000002a0: fad0 213e b491 833e 6268 1bbe efd5 bdbd
000002b0: ef34 2cbd 54a2 d93c 4bce e1bd 517f 363d
000002c0: bb04 ae3c 8b34 8c3e a2a7 cdbd 4eb2 30be
000002d0: 2ca8 1cbe 7c08 853c ee50 513e 9592 21be
000002e0: 2360 d1bd 3add 5f3e 16d3 e53d c615 1cbe
000002f0: 5dc7 283e 694a 083e 890e 183e 2204 c73c
00000300: 544a 853e fa97 b93d 307f 953d d49f 8fba
00000310: cca4 fcbd 7064 83be 69d0 dcbd 09d7 b83d
00000320: 68d8 5fbb 2469 dabd 62f9 123d 6234 18bb
00000330: 40d8 01be 5c52 d93d 14bb cd3c 84a6 183d
00000340: ffed e33d 45fc 85be 64f2 6c3d c8d1 02be
00000350: caf9 26be 8933 283d d245 053e 016c 9fbd
00000360: fd91 4f3e 76af 4b3e 8c45 303e a2f9 bb3d
00000370: eb14 793e a186 633e 7d3d 84be 057c 9ebb
00000380: 7f21 5d3d a9eb 193e 6b80 003e 4730 28be
00000390: 4893 4d3e eb9d 823b 7b13 66bd 5766 3cbe
000003a0: 2e05 713e afba 723d 1c13 723e 76a1 9b3d
000003b0: e8f5 653d 0d26 99bd 98d2 a13d 17ed 6ebe
000003c0: 31d8 523e bf80 02be fe55 b0bd 1dfb 74be
000003d0: 48aa 56bd ca97 97be 9f71 483e 6371 583b
000003e0: cd69 033d 782b 2fbe 602e 2d3e 0317 563d
000003f0: d80c efbd c76f a2bd 9a35 273d 6337 b4bd
0.23628281 -0.25738853 -0.106929645 0.0021965066 0.07457128 -0.17169297 0.02254801 -0.2059776
0.035180196 -0.12696907 -0.24531807 -0.19997816 0.03215272 0.12900789 -0.19587828 0.03729357
-0.20256163 -0.023963956 -0.007883667 0.008976875 -0.16508824 0.030636275 0.22091651 -0.19456191
0.059110463 0.013991842 -0.05909646 -0.1301358 0.22835985 -0.058799505 -0.2638021 0.014101121
-0.06831125 0.27945316 0.015483074 -0.09163969 -0.066158846 -0.048638128 0.06680672 0.21510272
0.15930071 0.017474433 -0.010908232 -0.020464381 -0.112544015 -0.027988791 0.17234798 0.0061146994
0.2171521 -0.16831793 0.116989076 -0.1573953 0.0046412684 0.25862408 -0.075031824 0.084472224
0.026185373 0.12548405 0.119622916 0.17309189 -0.024735492 -0.028274799 -0.16044351 0.047577403
0.013744568 0.0878528 -0.0049428316 0.06658972 -0.12893389 0.06825219 -0.19342743 0.0737133
0.23174948 -0.24588633 0.07960004 -0.18671963 0.05885888 -0.19395961 -0.04258778 -0.0069999835
-0.048237484 0.17374285 -0.2502702 -0.05572383 -0.15557349 -0.23074122 0.09947455 0.029369352
-0.053622633 0.1455302 -0.0039001198 0.08960578 0.23307866 0.08693468 0.1745451 -0.114820145
-0.024554608 -0.081437916 -0.15081814 0.017132763 -0.07853766 -0.022000719 0.101678364 0.14203398
-0.16922304 -0.22467673 -0.2507988 -0.0034698627 0.0038468202 -0.015306977 -0.108433254 0.01634919
0.061512694 -0.019933501 0.04673402 -0.13257106 0.10145139 0.24903601 -0.18903816 0.06290314
0.013279485 0.03199532 0.22097276 0.16041079 0.14739239 -0.012396184 -0.059508946 -0.068110265
-0.11522266 -0.17359684 0.0401171 0.014513012 0.18443444 0.19288164 -0.13367365 0.012551786
-0.16711599 -0.010391599 0.14891262 -0.13204724 -0.0044848453 0.08259124 -0.12281317 0.12473079
-0.1753295 -0.05421663 -0.27651894 0.16413328 -0.23343581 -0.123195216 0.0029377535 0.25620502
0.021723336 0.21028617 -0.22306296 0.163084 0.043721452 -0.07616561 -0.09609992 -0.004146902
0.14662988 -0.07699572 0.27360475 0.18899937 0.19421043 0.22734307 -0.13721779 -0.103387676
0.15802374 0.256971 -0.15176538 -0.0926932 -0.04204267 0.026566662 -0.110256754 0.044555012
0.02124249 0.27383837 -0.10041739 -0.17255518 -0.15298527 0.016239397 0.20441028 -0.15778573
-0.10223415 0.21861735 0.11221902 -0.15242681 0.16482301 0.13309635 0.14849295 0.024293963
0.2603327 0.0906219 0.0729965 -0.0010957667 -0.1233612 -0.25662565 -0.107819386 0.0902539
-0.0034156088 -0.10664585 0.03588236 -0.0023224582 -0.12680149 0.10611412 0.02511362 0.037268177
0.111293785 -0.2616903 0.05784835 -0.12775338 -0.16306224 0.041064773 0.13014916 -0.07784272
0.20270534 0.19891152 0.1721403 0.09178473 0.24324386 0.22219326 -0.25828162 -0.0048365616
0.053987022 0.15031303 0.12548988 -0.16424666 0.20075715 0.0039861104 -0.05617092 -0.18398415
0.23537132 0.059260067 0.23640102 0.075991556 0.056142718 -0.07477961 0.07901496 -0.2333263
0.20590283 -0.12744425 -0.08610152 -0.23923917 -0.052408487 -0.29607993 0.19574593 0.0033026568
0.03208332 -0.17106426 0.16912222 0.05226804 -0.116723716 -0.07931476 0.040822603 -0.08799627

net.0.bias f4 [512]
00000000: 4cc2 f33d 696f 36be 72e2 253e 869b 23bd
00000010: 725a e5bd 29ae e53d 7041 ce3d c86f b9bd
00000020: fc4b 843e 0b0b f03d dd7a 57be cef7 f13d
00000030: 5ff4 26bd 4d09 493c 6876 4abd ed28 48be
00000040: 003a 743d bcda f8bd 78ff 2abe 2b4c 743e
00000050: db20 8dbc 816d 2dbb 62f5 313e fd41 363e
00000060: a7a0 353e e8fe b3bc c278 8dbd d5ed 313d
00000070: 27c5 13be 9097 33be 5328 203e 458b 803e
00000080: 3875 7bbe 3949 71be cf29 bc3c e400 243e
00000090: 316a 45be d3b1 493d b567 70bd 9605 4a3d
000000a0: c150 30be aba6 123e 64f8 2d3e defb 3f3e
000000b0: 820c 2fbe ad7c 4ebe 0f06 50be c2c0 30be
000000c0: fd8b 083e 266c e53d c522 c6bd 9d8e 1fbe
000000d0: 857b 3fbe 224b 8c3e ec50 313e f9f8 c8bd
000000e0: 8835 173e a766 b7bd 799a 60be 9e7a 3fbe
000000f0: 58d5 813d 95db 72be b78b 1fbe a236 f6bb
00000100: b635 7dbe 1336 083d 3d12 6d3d 3818 4f3e
00000110: 969f f9bd 55ca 07bd 6dcd e43d f83d f73d
00000120: aea4 67be 4803 bb3d dda8 68bd a0fa 2abe
00000130: fc59 2a3d 4886 363d cf52 f0bc 2f87 843e
00000140: 8de8 22be 082a e4bc bcc3 87bc b2cd 7b3e
00000150: 5310 873d 191a e5bd ecc6 67bd 68cf c4bd
00000160: fd5a 753e f84f 813e e02f b23c 5971 2a3e
00000170: 6f64 663d 9f7b e23d 5f80 2d3e cc9f 13bd
00000180: 5216 63be 3c72 41bc f010 50bd 884a 773e
00000190: b8ca 6fbc fdf4 263e bfa3 203e 39e0 713e
000001a0: 06d4 ccbd 6bbe 643e 5dfd bdbd 4de0 453e
000001b0: d069 fc3d 2f06 6dbe e38f 70be 5918 8cbd
000001c0: ac4c 813e 999f f4bd 1d2e 383e c029 7d3e
000001d0: d909 c53d f3fe 4a3d 4f04 1dbd 8d92 33be
000001e0: 4882 d53d e9f7 0dbe 2b63 403e 89ae 0fbd
000001f0: 5680 c13b d530 4d3e 159b 2e3e 78ef 56be
00000200: 6dbd c63c ce6d 3bbe f3c0 37be 7306 bcbd
00000210: fc56 783e fa0c 3b3d 7832 6cbc c1a7 82bd
00000220: f7bb 6c3d 3b8b 6dbe ce19 393d f723 6cbe
00000230: e6bd 81bd aff1 23be 3567 f43d 1752 2a3d
00000240: 94ef 183e a613 7d3e b75a 66bd bff2 5cbe
00000250: 0cc7 44bd 46a7 423e 6062 ca3d 0137 64bd
00000260: f36c 76be 81bf 1f3d e995 34bd 648d d43d
00000270: 2c56 0f3d a96b 3cbe a4c7 353e 2fdc 5dbd
00000280: b222 96bd d3c1 92bd bedf 193e 37ec ca3c
00000290: 1680 b1bc d7ec 193c 97dd ce3d f232 613e
000002a0: ef9e 49be f827 b0bc ee31 bb3c 7c66 c43d
000002b0: 5919 103e 864f ccbd 9a7f 123e 99e1 8d3d
000002c0: 4b4b 743e d514 59bc 6660 db3d 9c0c 4c3e
000002d0: b7ff bcbd 014c 64be acda 83bd 6e92 9abd
000002e0: 6305 363e 0017 9abd 32a2 fd39 2a56 613e
000002f0: 2658 ac3d 390a 8bbd 1fe1 0c3e a4d7 363e
00000300: 14b1 843d baa5 ba3d 9ce1 4d3e 1237 cc3c
00000310: 0ead 65be bd0d cd3d 717e 803e ff32 eb3d
00000320: 3394 82be 1c3d 44be fbbf c53b 9879 f03d
00000330: 3447 363e 0dcc 4bbe b836 32be c17d dbbc
00000340: e7e4 abbc c9d3 5b3e b4de 2b3e b5c4 bebd
00000350: 53fe 643e 7935 f5bb f6d1 4bbe 7a53 9f3d
00000360: 6416 77be df2d 76be 0abc 8bbc b3f5 fb3c
00000370: 1e03 6fbe da5d 25be ff24 a8bc 7fea 833e
00000380: d659 1a3e 869e efbd 0b19 213e 233d e3bd
00000390: a2aa 203e ce50 033c c13d 5d3e ebc8 4fbe
000003a0: 8ab4 a1bc d9ba 04be ce4b 3f3e 28d0 52be
000003b0: 1732 263e 5cac 3b3d 2fac 0bbd 918b 893d
000003c0: 5b02 833e ea77 44be 7d40 713e db61 0b3e
000003d0: dda2 f2bd 98ac f93d 5fbf b9bd 56d3 cd3c
000003e0: 3885 69be 8977 37be 3a2b 6c3e cd4e 3abd
000003f0: 7d4b b03d dca5 6fbe cafb 733e 2cf5 35be
0.119022936 -0.17815937 0.16199663 -0.03994324 -0.11198892 0.11214859 0.10071075 -0.09054524
0.2583922 0.11720856 -0.21042962 0.11814843 -0.040760394 0.012270284 -0.049429327 -0.19546862
0.059625626 -0.12151095 -0.16699016 0.23857181 -0.01722758 -0.0026462974 0.17378762 0.1779861
0.17737065 -0.021972135 -0.06907798 0.043439705 -0.14430676 -0.17538285 0.15640382 0.25106254
-0.24556434 -0.23563088 0.022969155 0.16015965 -0.1927879 0.049241852 -0.058692653 0.049321733
-0.17218305 0.14321391 0.16989285 0.18748423 -0.17094615 -0.20164748 -0.20314811 -0.17261031
0.13334651 0.11202268 -0.096746005 -0.15581746 -0.18699463 0.27401072 0.17316025 -0.09813113
0.14766514 -0.08955126 -0.21933927 -0.18699118 0.0633952 -0.23716576 -0.1558064 -0.007513837
-0.2472752 0.033254694 0.05787872 0.20224082 -0.12188642 -0.033151943 0.11171994 0.120723665
-0.22621414 0.09131485 -0.056801666 -0.16697168 0.041589722 0.044561654 -0.029336361 0.25884387
-0.15909024 -0.027852073 -0.016572826 0.24590185 0.065949105 -0.11186618 -0.05658619 -0.09609872
0.2396049 0.25256324 0.021751344 0.16644801 0.056248125 0.11058735 0.16943501 -0.036041066
-0.22176483 -0.011807021 -0.050797403 0.24149525 -0.014635734 0.16304393 0.15687464 0.2362069
-0.10001378 0.22338264 -0.09276841 0.19323845 0.1232487 -0.2314689 -0.23492388 -0.068405814
0.25253808 -0.11944503 0.17986341 0.24722958 0.09621019 0.049559545 -0.038334187 -0.17536373
0.1042524 -0.13864101 0.1878783 -0.03507856 0.0059051914 0.20038159 0.17051347 -0.20989788
0.024260247 -0.18303606 -0.17944698 -0.091809176 0.24251932 0.045666672 -0.01441633 -0.06379653
0.057796445 -0.23197643 0.045190625 -0.23060594 -0.063350484 -0.16010164 0.11933748 0.041582193
0.14935142 0.24714527 -0.056238856 -0.21576975 -0.04804139 0.19009122 0.09882045 -0.05571652
-0.24064998 0.03900099 -0.044088278 0.103785306 0.03499429 -0.18400444 0.17751938 -0.05416506
-0.07330836 -0.07165875 0.15026757 0.02477084 -0.021667521 0.009394846 0.10100859 0.2199209
-0.19689535 -0.021503434 0.022850957 0.0958986 0.1407217 -0.099761054 0.14306489 0.06927795
0.23856847 -0.013249596 0.10711746 0.19926685 -0.09228461 -0.22294618 -0.06438193 -0.075474605
0.17775492 -0.07523918 0.00048376765 0.22005525 0.084152505 -0.06789059 0.13757752 0.17855698
0.064790875 0.09113641 0.20105594 0.024928603 -0.22429296 0.10012386 0.25096467 0.11484336
-0.25503692 -0.19163936 0.0060348487 0.11741942 0.178006 -0.19902058 -0.17403686 -0.026793363
-0.020983173 0.21467508 0.16784173 -0.09314863 0.22362642 -0.007483181 -0.19904312 0.07779594
-0.24129635 -0.24040936 -0.017057437 0.030756807 -0.23341033 -0.16149083 -0.020525454 0.25764844
0.15073332 -0.11700158 0.1573221 -0.11095645 0.15690091 0.008014871 0.21605588 -0.20291488
-0.019739408 -0.12961902 0.18681261 -0.20587218 0.16230045 0.04581867 -0.034099754 0.06716073
0.25587735 -0.19186369 0.23559757 0.13611548 -0.1184747 0.12191123 -0.09069704 0.025125187
-0.22804725 -0.17916693 0.23063365 -0.045485307 0.08608148 -0.23403114 0.23826519 -0.17769307

net.2.weight f4 [256, 512]
00000000: dc52 27bd eebe ee3c 02cb 053d 0c13 d6bc
00000010: 6304 1fbd 7995 7a3c 0b93 313d 6814 fc3c
00000020: bbaa 523c 2ad8 ec3c e7d1 d63c 8924 c83c
00000030: 6edd f23c 90ee 33bd 50a1 05bd e190 b43b
00000040: 82ae 8a3c f02f cabc bfa1 243c fa6a 1c3d
00000050: 6408 7bb9 e80a 12bd 9a54 d2bb 997d d13c
00000060: 858d a4bc 26da 083d 9d6a 423c 647b 093d
00000070: 4b32 0cbd 0d28 853c fc6e 523c d3fe 1a3d
00000080: e5e0 0abd 42bc efbc 4895 e03c d38a 07bc
00000090: 7ea1 b83c 04e5 87bc 9406 78bb 8048 e33a
000000a0: 70b0 09bb e97f 66bc fb0e 58bc 8ff9 0abd
000000b0: 145b 383c 4aec c7bc 6ac1 98bb e680 a53c
000000c0: 2fed 24bd 1ced 5ebc b458 8b3b 75b0 b6bc
000000d0: 043a 033d fe48 b43c c8a1 73bb 7b10 1f3d
000000e0: 198a 363c d80e 1d3d 45e1 0c3d 7830 453b
000000f0: 27ca cd3c d92e 39bd 7f21 0d3d 616b a1bc
00000100: 4b60 e23c cf91 b13c 7201 013d 6d69 753c
00000110: 8656 1c3d b762 fabc 00c9 a4bc b1e4 b8bc
00000120: aa46 47bc 82b4 003c 5db7 ca3c 471e 16bd
00000130: 7950 1a3d a046 00bd 9ce3 d73c a133 2ebb
00000140: c679 1f3d 97b4 513b 8cdc 543c f09c 833a
00000150: 5b67 fcbc 8818 c23c 349f 363a 39b2 b6bc
00000160: e6bb 46bd fdf3 963c 9fd6 93bb 523d c43b
00000170: ad58 bf3c 5a54 22bc 7748 32bd ab30 6d3c
00000180: a56f 98bc f287 a8bc 3cb4 df38 4fb3 063d
00000190: a0d4 11bd 8541 8bbc c8d4 71bb be9d a9bc
000001a0: b1a8 1abd 1c56 24bb d36f 22bb 58f0 17bd
000001b0: f67f 38bd bc59 233c 5d62 ddbc d93d 0d3d
000001c0: f948 4d3b fe05 523c 8a4c 553b 0f8c 363b
000001d0: 28ae 0ebd 250a 67bc 3f7a 9bbc c0b4 5dbc
000001e0: 3a48 b9bc 770f 56bd 46ba 933c d5cf c63c
000001f0: 4879 bcbc 22cf 1d3d 3b64 bcbc 832f 20bc
00000200: bb6e b2bb 3110 633c 28a8 14bd bc81 3abd
00000210: e417 6bbc a400 0f3d 22ec 9c3c d16f d5bc
00000220: a713 50bd a938 923c 2ac0 4a3c 6318 b5bc
00000230: 04ee 9fba 6220 a8bc 6797 6f3b 8aaf 92bb
00000240: 5061 2fbd d82a 42bd 306c 5ebd 296e f93c
00000250: 57af 58bd f474 39bd a650 00bc e168 08bd
00000260: 4a73 3bbb 0173 bbbc fdd0 eebc 792a 873c
00000270: 8dd5 e6bb da46 ed3b 9697 14bd ae74 03bd
00000280: b96e 563b 709e 46bc be40 843b 548d 083d
00000290: c32b 01bc 3ff3 2fbd 35bc 1f3c 3184 d83c
000002a0: c393 aebc c988 573c 1a6d 1ebd e3d1 103d
000002b0: 4316 003c 9876 dcbc 91dc 93bc 837d 39bd
000002c0: 02d4 14bd d92e 31bd 2ff3 40bc 7bc8 f3bc
000002d0: 9330 8339 5c14 57bd 91f6 02bd a835 dabc
000002e0: 7241 0d3c 1c5f aabc 5c1d 993c a6eb 3fbb
000002f0: 56c0 8d3b 8872 cb3c c1e1 063c 7458 cd3c
00000300: d989 13bd 570e 9c3c 9c68 bc3c 39c4 77bc
00000310: b1af db3c a162 65bc de75 3e3b f231 61bc
00000320: 480c 913c ae4e 33bd 7263 15bd 52ee cd3c
00000330: 2638 2e3b f250 45bd 7718 ab3c 6559 33bd
00000340: 792b f0bb 6086 01bd 0b38 20bd c7ca 0c3d
00000350: ff11 7bbc 6c85 df3a 4683 073d 136f 9f3c
00000360: 3714 7c3c 955c e93c 9ccd 1a3c 3086 37bc
00000370: 194c 4abc 4768 23bd 6a2b 853b 3a20 2a3c
00000380: 9fa2 07bd ac28 00bd aa98 2bbd 3e2a 07bd
00000390: 24cb 173d 3d8a 903b 68bb f8bc eebb 043d
000003a0: 9974 6cbc d656 22bd d03e 95bc 6b67 953c
000003b0: 3514 47bd cdbc d9bc cc16 893b 743e 46bd
000003c0: ff5f 3fbd 0f46 25bd 5694 37bc fa6f 71bc
000003d0: 8570 7b3c 439d 24bd bdcd 32bc c699 b1bc
000003e0: adc5 9a3c 560e c43b 02fb 83bb fc8f 243d
000003f0: d61e b0bb 3519 9e3b fd75 9d3c d5c7 11bd
-0.040850505 0.029143777 0.032664306 -0.02613213 -0.038822543 0.015294426 0.04335312 0.03077145
0.012858088 0.028911669 0.026223136 0.024431484 0.029646602 -0.043928683 -0.032624543 0.005510435
0.016928915 -0.024681062 0.010048329 0.03818796 -0.00023940351 -0.035654932 -0.0064187767 0.025572585
-0.020087013 0.033411168 0.011866239 0.03356494 -0.03422765 0.01625445 0.012843844 0.037840676
-0.033905882 -0.029264573 0.027414933 -0.008272844 0.022537943 -0.016588695 -0.0037845718 0.0017340332
-0.0021009706 -0.014068582 -0.013187165 -0.033929404 0.0112521835 -0.024404664 -0.0046617286 0.020203065
-0.04026526 -0.013606336 0.0042525176 -0.022300938 0.03203775 0.022007462 -0.0037175287 0.038834076
0.0111413235 0.038344234 0.03439452 0.0030088704 0.025120808 -0.045210693 0.034455772 -0.019704523
0.027633807 0.021675972 0.03149552 0.014978749 0.038168453 -0.030564649 -0.020115376 -0.022569986
-0.012162844 0.007855536 0.024745638 -0.03664997 0.0376744 -0.031317353 0.02635365 -0.0026581066
0.03893449 0.003199851 0.012992036 0.0010041278 -0.030811002 0.023693338 0.0006966472 -0.02230178
-0.048519038 0.01842689 -0.004511669 0.0059887553 0.023357714 -0.009907806 -0.04352614 0.014476935
-0.018607924 -0.020572636 0.0001066704 0.032885846 -0.035603166 -0.016999016 -0.003690051 -0.0207051
-0.037758533 -0.002507574 -0.002478589 -0.037094444 -0.045043908 0.009970125 -0.027024442 0.03448281
0.0031324013 0.012818811 0.0032546842 0.0027854478 -0.034834057 -0.01410154 -0.01897919 -0.013531864
-0.022617448 -0.052260842 0.018033158 0.024269024 -0.02300705 0.038527615 -0.022997012 -0.009776953
-0.005445329 0.013858841 -0.03629318 -0.04553388 -0.014348958 0.03491272 0.019155566 -0.026054295
-0.050799992 0.017849283 0.012374917 -0.022106355 -0.0012201671 -0.020523254 0.0036558749 -0.0044764923
-0.042817414 -0.04740414 -0.054302394 0.030448036 -0.052901592 -0.04527755 -0.007831728 -0.033303145
-0.0028602653 -0.022881987 -0.029152388 0.016499745 -0.0070445 0.007241112 -0.036277376 -0.032093696
0.0032719804 -0.012122735 0.004036038 0.033337906 -0.007883969 -0.042956587 0.009749462 0.026430221
-0.021310693 0.013155171 -0.038678266 0.035356414 0.007817808 -0.026912019 -0.01804951 -0.045285713
-0.036335 -0.043257568 -0.0117767295 -0.029758682 0.00025022458 -0.05250965 -0.031973425 -0.026636913
0.00862156 -0.020797305 0.018690757 -0.0029284745 0.0043259067 0.024834886 0.008232535 0.025066592
-0.036020134 0.019049807 0.0229991 -0.015122467 0.026817175 -0.014000566 0.0029061954 -0.013744818
0.017706051 -0.043776207 -0.03647179 0.025138054 0.002658376 -0.0481729 0.02088569 -0.043786425
-0.007329401 -0.03162229 -0.039115947 0.03437307 -0.015324115 0.0017053313 0.033084176 0.019462144
0.015385679 0.02848653 0.009448435 -0.011201426 -0.012347245 -0.03989437 0.0040640133 0.01038366
-0.033114072 -0.031288788 -0.04189364 -0.03299927 0.037058964 0.0044110105 -0.0303628 0.032405786
-0.014432096 -0.039633594 -0.018218428 0.01823779 -0.048603255 -0.026579285 0.004183626 -0.048399404
-0.04672241 -0.040350016 -0.0112048 -0.01473617 0.015346651 -0.04018904 -0.01091331 -0.02167977
0.018893087 0.0059831543 -0.004027725 0.040176377 -0.0053747697 0.0048247823 0.0192213 -0.035590965

net.2.bias f4 [256]
00000000: 09c8 f0bc ec08 ac3b 0227 393d fe92 fc3b
00000010: b613 fb3c c081 093d 0a65 12bd 46e0 c93c
00000020: 54ae d8bb 41ab 853c ec58 8c3c 4e14 48bd
00000030: 5c15 a9bb 3963 9fbc 45fd df3c 9837 313d
00000040: bf4a c13c 8e25 0abd a0bc 35bc ec04 7f3a
00000050: 36b2 463c 1cde c6bc ee64 0ebd d68a 983a
00000060: 49cf df3c 25dd e7bb 7816 543d fd83 0e3c
00000070: e018 f03c 1f95 d93c d7eb 7fbc 374e a03c
00000080: 0002 113d f425 1dbd b7e1 e33c 3a4e 163d
00000090: c204 ecbc e4f8 bdbc bb15 2bbb 8183 1abd
000000a0: 1729 173d 55d5 743d 340d 46bb b9df 09bc
000000b0: 7cfc 56bb d4c7 7638 9bfc ff3c 554d f33c
000000c0: 28e2 c53c 9ca6 92bb 5c13 9dbb 4194 623c
000000d0: 0201 1fbd 34cb 883c 94c4 c8bc 1ea4 5b3d
000000e0: 1296 983a 5c27 1ebd f5f5 273d bfa0 0e3d
000000f0: 6cd1 9a3c 391b ff3c 1c60 99bc 957b a7bc
00000100: eb1b 2dbb 9add 293d bf97 df3b c2f2 ff3b
00000110: 413f a63d d4db e13c 0e1a 073c 4098 9dbb
00000120: 1945 babc da95 033d d013 acbc 45eb 27bc
00000130: 8881 efbc 9806 15bd db0f dc3c 2e84 04bd
00000140: 9efd a1bc b995 5e3d b5a2 a3bc 5fec 4cbc
00000150: 24a6 373d f6df d1bc f53b 80bc 3315 f8bc
00000160: 2efa 613c 04ae 1cbd 8f39 dcbb f1e5 df3c
00000170: b9b7 393d c17e f3bc 306c dbbc 7524 bfbc
00000180: e86c fcbc e068 e43c b5e8 233c c923 e73c
00000190: 6905 d43c 3d98 3abd 2f54 253d 9709 463d
000001a0: 8df5 ef3c 74c3 603d 1f46 df3a 6fa5 a53c
000001b0: 2c69 11bd 25c3 b13d c819 693d fe25 7e3c
000001c0: e35b 8fbc 389c ad3a 58b0 43bc e0dc f2bc
000001d0: b5ea 19bd 68ba 81bb 085d 233d 5417 48bc
000001e0: 4038 a53d e0d4 5c3c e12e 9a3c a142 babc
000001f0: a17e 5e3c ff2a aebb 0b9e 3f3d ef9b 68bc
00000200: 106a 89bc 4b42 51bc 6773 fa3c 80b1 fa3a
00000210: 1272 12bc 7137 163c 8670 bdbc 938f 2a3d
00000220: 19c5 16bc 5621 363d 572c 393d bd0a 6ebc
00000230: 5f22 ea3b 9f6f 1d3c 5f20 6f3c 7d7b 51bd
00000240: f91d 473d 78b8 8a3c 4aeb 96bc 0cce 593d
00000250: 1cbe 15bc 6da4 1d3d 898a 4b3d 2872 3a3c
00000260: 5ea6 073d 5feb 35bd 41c2 123d a657 44bc
00000270: 88f3 c43c 875b eabc 68e5 e9bc 614b ad3c
00000280: acd9 2a3d 9a01 b8bc d57c 7a3c 12fb 8b3c
00000290: 465c baba 59bf 8c3d a179 013d 3518 eebb
000002a0: a5a9 233d 4eaf 24bd 2802 97bc 007d da3b
000002b0: 0cfc b43c 4072 f9ba 187f e6bc 8012 923c
000002c0: 2e9c 7fbc b16b e93b a623 02bc d1ce 893c
000002d0: 9613 f239 0738 523c ce6b 603d 5bf3 6fbc
000002e0: 534b 203c b39b b6bc cc55 5cbd 9c10 d6ba
000002f0: 0869 1e3b 3f44 9cbb 5cec a3bc c6fc afbb
00000300: 05ce 0b3d 9845 3e3d 96ae 503c 05e2 0c3c
00000310: 9259 ac3a bd31 1b3c 88d7 803d cf8d 5d3d
00000320: 2400 543d 12f5 143d eb35 14bd b41f 343d
00000330: fe93 e13c 73a1 7b3c 66ce 393b 50a4 8bb7
00000340: 41e7 733c 664e d6bc 0f63 483d b6f1 f13c
00000350: cc18 ba3c 214b 8a3c 3ca9 393d 4c57 01bd
00000360: 6bfc 40bc c153 253d 2beb 373d 0b2e f8bb
00000370: e80b 9c3b 1e23 f2bc ef28 34bb 207c 59bc
00000380: c531 8bbc 6b23 e3bc cdd6 4abc 9b98 6f3c
00000390: 2931 803c d099 dc3c 5870 8bbc 25f8 d2bc
000003a0: 3aa6 f5b8 f440 9a3c d33e a7bc 8ac6 b43c
000003b0: 832d 093d 7c95 e6bc ed97 183d 86fd 083d
000003c0: 6b76 8abb 117a 353d acc6 ffbc 6b31 3abd
000003d0: db21 0abd 5270 783c a4c5 1d3d a6d2 933c
000003e0: 0d11 673d 713c c73c 979b 893c 444a bcbc
000003f0: e54b e9bc 0f95 9a3a 4597 80bc 22d8 1ebb
-0.02939226 0.005250087 0.045203216 0.0077079525 0.030649047 0.033571005 -0.03574089 0.024643075
-0.0066125784 0.016317012 0.017132245 -0.04884749 -0.005160017 -0.019456493 0.027342448 0.04326591
0.023595212 -0.03372722 -0.011092335 0.00097282114 0.01212745 -0.024275832 -0.034764223 0.0011638056
0.027320521 -0.007075923 0.05177924 0.008698461 0.029308736 0.026560364 -0.015620193 0.019568546
0.035402298 -0.038366273 0.02781759 0.036695696 -0.028810862 -0.02318997 -0.0026105482 -0.03772307
0.03690442 0.05977376 -0.0030220272 -0.008415156 -0.00328043 5.8837075e-05 0.031248381 0.02969996
0.024155691 -0.004475428 -0.0047935676 0.013829292 -0.03881932 0.016698457 -0.024507798 0.05362331
0.0011641404 -0.038611755 0.041006047 0.03482127 0.018898688 0.03114091 -0.018722586 -0.02044467
-0.0026414345 0.0414711 0.0068235095 0.0078109214 0.081175335 0.027570643 0.008245958 -0.0048094094
-0.022738026 0.03212533 -0.021005541 -0.010248964 -0.02923657 -0.03638324 0.02686303 -0.03235262
-0.019774254 0.054342005 -0.019975046 -0.012507527 0.04483618 -0.025619488 -0.01565359 -0.030283546
0.013792558 -0.03825189 -0.0067207287 0.027331324 0.045341227 -0.029723527 -0.026784986 -0.023332814
-0.03081365 0.02788204 0.010004212 0.028215306 0.025881486 -0.045555342 0.040363487 0.04834899
0.029291892 0.0548739 0.0017034448 0.020220486 -0.03550069 0.08679799 0.056909353 0.015511988
-0.01749987 0.0013245409 -0.011943899 -0.029646337 -0.03757735 -0.003958989 0.039883643 -0.012212593
0.080673695 0.013478488 0.018821182 -0.02273685 0.013579995 -0.005315184 0.04678158 -0.014197334
-0.016774207 -0.012772153 0.030572606 0.0019126385 -0.008938329 0.009168492 -0.023124944 0.04164083
-0.009202265 0.044465385 0.0452083 -0.014528927 0.0071452106 0.009609132 0.01459512 -0.05114316
0.04861257 0.016933665 -0.018422741 0.053175017 -0.009139564 0.038486887 0.049692664 0.011379756
0.033117644 -0.04441392 0.035829786 -0.011983788 0.024041906 -0.028608097 -0.028551772 0.021154108
0.041711494 -0.022461701 0.015288551 0.017087493 -0.0014218173 0.06872434 0.031610135 -0.0072660693
0.039956708 -0.040206246 -0.018433645 0.006667733 0.022092842 -0.0019031242 -0.028136775 0.017831087
-0.015601201 0.0071234335 -0.00794307 0.01682225 0.0004617243 0.012830741 0.05479031 -0.014645423
0.009783584 -0.02229104 -0.05379276 -0.0016331854 0.002417149 -0.0047688778 -0.020010166 -0.005370709
0.034132022 0.04645309 0.012736937 0.008598809 0.0013149253 0.009472308 0.06291109 0.054090317
0.051757947 0.03636653 -0.036184233 0.043975547 0.027536388 0.015358317 0.0028351783 -1.6646605e-05
0.014886678 -0.02616043 0.048922595 0.029534202 0.022716902 0.016881527 0.04532741 -0.031577393
-0.011778931 0.040363077 0.044902008 -0.007573848 0.0047621615 -0.02955776 -0.0027490219 -0.013274223
-0.016991505 -0.02772685 -0.012380314 0.014623786 0.015648441 0.026928812 -0.017021343 -0.02575309
-0.000117134725 0.0188298 -0.0204157 0.022067327 0.03349067 -0.028147452 0.037254263 0.033444904
-0.0042255423 0.044305865 -0.031222664 -0.045457285 -0.033723693 0.015163498 0.038518563 0.018044781
0.056412745 0.024320813 0.016797824 -0.022984631 -0.028478572 0.001179369 -0.015697131 -0.0024237712

net.4.weight f4 [128, 256]
00000000: c9fa 6cbd 342f e03c e004 ce3c 489c 963c
00000010: 885f a9bb 76e3 373d 83c9 343d 7c4e 3fbd
00000020: 52b1 4c3d 4f78 b63b 6f56 85bc ac4a 913c
00000030: 2040 6ebd 14f5 c83c 45f8 843c 5c5b 2e3d
00000040: b749 16bd e453 593d 90b7 2cbc 36cb aabb
00000050: 6f72 79bb 5cc3 adbc c83a 6abd 9424 f13c
00000060: 3a31 3ebd 8023 a13c be80 85bd 2978 70bd
00000070: cd33 373d c5bb 8abb b047 98bb e16b a43c
00000080: ba25 b13c 040a 893c 6b9a 4fbd a208 343c
00000090: 00fe d53c 72c3 2fbd 1643 01bd 9873 b73c
000000a0: fd88 34bd 98fc 52bd 3e64 2cbd e251 21bd
000000b0: 58fe 613d 4d99 413c 513c b23c 5d19 3bbd
000000c0: b63f 68bd 0053 573d f829 323c fa26 1fbd
000000d0: 7363 543d 6864 333d 80ab 1bbd 6655 77bd
000000e0: b8de 35bd 2c51 de3c ca23 093c 848d b4bb
000000f0: 664f 08bd 924b 62bd 886e bfbc 6864 86bc
00000100: f239 8bbc 40bb 973b 2243 df3c 5b2d 27bd
00000110: 8bca e63c c6e1 4c3d dce3 81bc 50ad dbbb
00000120: c875 5dbd c1e8 12bd 7512 333d e0dd 523c
00000130: 1dbf ba3c 10aa ce3c 3893 8abc c46f 5bbd
00000140: 8418 c53c 631c 2b3d e655 663d 7ac3 443d
00000150: b8aa 05bd 5004 cf3b 9c36 2cbd 0a14 b9bc
00000160: 7407 5c3d dbb9 d33c 4f11 483d c32c f7bc
00000170: a68f ac3c 34b3 39bc aaab ccbc be71 5bbd
00000180: 0e92 423d 8ea1 323a 00d0 1cba 2c49 48bd
00000190: 1523 723d c6ea 69bd 7834 653d 3f31 343d
000001a0: 186a 09bd dbe3 e63c 25ae 0bbd 2765 6dbc
000001b0: 3d2f 613c 8fa9 47bd d88f 833c 0b40 cb3c
000001c0: b05f cabb 407c bdbb 1670 353d 9e1e 5dbd
000001d0: 6b3c 18bd 60f4 b3bb 21fe 7abc bc9d c83c
000001e0: 631e a93c 6cfa 38bd 9282 463d 2cbb 4b3d
000001f0: c45a 033d f021 c13c 9ccf 8e3c e83f 023d
00000200: 6a8b 1d3d de2b 7b3d d0e1 da3c 6892 12bc
00000210: 406f 06bd fc72 5bbd bc69 9cbc 18ce 673c
00000220: ad68 4fbd 7469 72bd 6efc 193d f421 9dbc
00000230: 3009 1bbd d4fb 883c aaef 733d 5201 04bd
00000240: 6819 973c 2eed 6ebd c54b 293d 3fe1 6c3d
00000250: 5071 663c 54ed 153d ecea a83c 27bb 2bbd
00000260: 1fa0 05b8 d704 b93c 2008 b53b 563f 12bd
00000270: c0f1 91ba 224d fc3c 2445 6cbd 0e4e 42bb
00000280: 4a6f 5ebc a0fe e3bc 3013 40bd 0da7 65bb
00000290: a061 f9bc 95a0 593d d9a1 49bd da65 ca3c
000002a0: f89b e3bc e832 593c 1bd4 5f3d b28f 4ebd
000002b0: 215d 0bbd 2784 fdbc 66fb 40bd d216 163d
000002c0: e0d4 493d 2b88 863d a6e8 f9bc 1f97 b9bb
000002d0: aca5 dabc 870e 9d3c 903e 92bc e769 293d
000002e0: ff75 d239 c8fd b53c 00f5 5a3d 588e 343c
000002f0: 4c97 523d bffa aa3c 3411 45bd f88e 21bd
00000300: 70e7 613d 6873 133d e96f be3c 74ad 753d
00000310: cca8 bebc b4ec 1f3c e4ab 3a3c b2c9 303d
00000320: 672e a3bc e412 42bd ecc2 283d 55d5 643d
00000330: 5d83 e5bc 1b55 96bc a604 e3bc 7e8e 113c
00000340: 0032 e0ba 801a 56bd bc9f 10bd a28e 81bd
00000350: cf39 383d cc5b 40bd b6f0 e2bc 60ce 8cbc
00000360: f295 113d c999 d73b b7ce 67bd 01db 5ebd
00000370: 1cf4 02bd 1223 5d3d 1da1 413d 96fa 1b3c
00000380: 64b8 b53c 29d0 e83b d9e6 083c 8bba ee3b
00000390: e64e 00bd 2a57 bebb 4ce5 15bd 6218 2dbc
000003a0: 2f8a 403d 90bc cb3c 64c4 6e3d 3871 983c
000003b0: 981b d53c 5773 65ba 3424 08bd 4fac 0c3c
000003c0: f9e7 33bb de3e 14bc 4aac c23a d8d1 f9bc
000003d0: ceac 063d 4e43 ca3c 4948 97bc d304 20bd
000003e0: dbd2 a4bc 2b26 95bc fd80 bb3c 4e4c 7fbd
000003f0: 598d 68bd 72ef c5bc 6829 38bd 0a39 5b3d
-0.057856355 0.027366258 0.025148809 0.018385068 -0.005168859 0.044894658 0.04413749 -0.046705708
0.049973793 0.005568541 -0.016276566 0.017735802 -0.058166623 0.024530925 0.016231665 0.042567596
-0.036691394 0.05305852 -0.010541812 -0.005212213 -0.0038062593 -0.021211319 -0.057184964 0.029436387
-0.046433665 0.019670248 -0.06518696 -0.058708344 0.044727135 -0.0042338097 -0.0046472177 0.020070972
0.021624435 0.016728409 -0.050684374 0.010988386 0.026122093 -0.042911 -0.03155812 0.022393987
-0.044075955 -0.051510423 -0.042087786 -0.03938473 0.0551742 0.011816335 0.021757277 -0.045678485
-0.056701384 0.05256939 0.010874264 -0.03885553 0.051852655 0.043796927 -0.038005352 -0.060384177
-0.044401854 0.027138315 0.008370349 -0.005510034 -0.033278845 -0.05524785 -0.023368135 -0.0164053
-0.016995404 0.0046304762 0.027253691 -0.04081474 0.028172752 0.05002 -0.015855722 -0.00670401
-0.054067403 -0.035866503 0.043718774 0.012870282 0.022796208 0.025227576 -0.016915902 -0.053573385
0.024059542 0.04177512 0.056234263 0.048037983 -0.032633513 0.0063176528 -0.042044267 -0.022592563
0.053718045 0.025845459 0.04884463 -0.030172711 0.02106459 -0.011334229 -0.0249842 -0.05357527
0.04750257 0.00068142347 -0.0005981922 -0.048897907 0.059115488 -0.057108663 0.05595824 0.043992277
-0.033548445 0.028184822 -0.034101624 -0.014489449 0.013744173 -0.048745688 0.016059801 0.024810812
-0.0061759576 -0.005782634 0.044296347 -0.053984277 -0.037166994 -0.0054917783 -0.015319378 0.024489276
0.020644372 -0.045160696 0.048464365 0.049739048 0.032068983 0.023575753 0.01743298 0.031799227
0.038463034 0.061321132 0.026719004 -0.008946039 -0.03282094 -0.053576455 -0.019093387 0.014148258
-0.050636936 -0.0591826 0.03759425 -0.01918123 -0.03785056 0.016721644 0.059554733 -0.03222782
0.018444732 -0.05833166 0.041332025 0.057832 0.014065102 0.036603287 0.020619832 -0.04192653
-3.1858795e-05 0.022585316 0.00552465 -0.035704933 -0.0011134669 0.030798499 -0.057683125 -0.0029648575
-0.013576338 -0.027831376 -0.0468933 -0.0035042197 -0.030442059 0.05313166 -0.049226616 0.02470677
-0.027784333 0.013256766 0.05464564 -0.050430007 -0.03402436 -0.030946804 -0.047114752 0.036642857
0.04927528 0.06568941 -0.030506443 -0.005663767 -0.026690327 0.019171966 -0.017852098 0.041360762
0.00040142235 0.022215739 0.053456306 0.0110202655 0.05141382 0.020871518 -0.04811211 -0.039442986
0.055152357 0.03599873 0.023246722 0.05997987 -0.023273848 0.009761024 0.011393521 0.0431611
-0.019919587 -0.047381297 0.041201517 0.05586751 -0.02801674 -0.018351128 -0.027712177 0.00888407
-0.0017104745 -0.052271366 -0.035308585 -0.06326033 0.044977006 -0.046962544 -0.02770267 -0.017188251
0.03554339 0.006579612 -0.056593623 -0.054408077 -0.031971082 0.053988524 0.04727279 0.009520194
0.02218265 0.0071048927 0.00835582 0.0072854212 -0.031325243 -0.0058087306 -0.036595628 -0.010564895
0.047006782 0.024870187 0.05829276 0.018608674 0.026014134 -0.0008752844 -0.03323765 0.008586003
-0.00274515 -0.009048192 0.0014852372 -0.03049557 0.032879643 0.024690297 -0.018467085 -0.0390671
-0.020120075 -0.018206676 0.022888655 -0.06232863 -0.056775425 -0.024162028 -0.044961363 0.053521194

net.4.bias f4 [128]
00000000: 42f2 80bd 89de 2c3d 9567 9e3c 9b7e a1bd
00000010: 270e 3cbc 7025 4b3c 6222 05bc 33e3 5abd
00000020: 83cf 65bb f71a 4c3d d5fc 253d 3b06 8dbc
00000030: 8d97 5ebd bd15 07bd 4fd6 023c a3f8 973d
00000040: d819 3b3b 38ba 013d e72a 52bd 9bc7 db3c
00000050: ae94 803c 742c 13bd fb75 82bd f992 2c3d
00000060: 16e4 86b9 947d 5dbc 407c 94bb c433 313c
00000070: 9182 0e3d 6c46 fcbb 2d51 4ebd 9ab3 c83b
00000080: 5248 bfbc 6ae4 0abd 013d 1a3b 5250 923d
00000090: bfb7 083d 7dbe 273d 41b9 69ba a5b4 8dbd
000000a0: ecea 73b9 b738 5ebc e10b 9a3d 433a 8e3b
000000b0: 570d 8a3d 91e1 1dbd c8cb cc3b 5f12 123d
000000c0: 9f5d 363d 21c1 3b3d 5760 f03c 28fd a33d
000000d0: bc71 11b9 f130 1ebd 535a afbc 4468 5f3d
000000e0: e220 67bc 4082 073d 0cf1 043d e3a9 7c3d
000000f0: fc33 8ebc d611 983d 1a02 87bc b766 9ebb
00000100: f4e1 913d 3538 0fbd 21ec 1a3d f849 40bd
00000110: f8af 0e3c 9aa3 6a3d 7a28 49bc 35c5 3d3d
00000120: 171b 43bd f54d 433d eb87 2cbd 3a7b b33c
00000130: 10be b5bc 3718 bf38 4592 133d eb9b 903d
00000140: cc33 213c bfb0 a83b deac 65bd b01d 6a3d
00000150: a7ab c53b a332 5b3d 0509 273d f33a ccbb
00000160: cedd b13b 82ae 4cbc 0bd4 9cbc d4dc acbb
00000170: 64be 783d c59c fd3b 0f8c 80bd ee05 9a3d
00000180: f277 f03c df96 4d3d 69b4 313d 7eba 1cbd
00000190: e253 663d 62d8 0d3d a185 4bbd 61fc b6bc
000001a0: 417e a93d 8f8d b23d 409c 50bd 3b20 453d
000001b0: 62b0 143d 46ef a73c 57e9 0d3d 8632 2e3d
000001c0: b938 3abd 35d8 953d 463b 293c 0d49 0cbd
000001d0: f58e 43bd bde5 2fbd 9bc3 023d efa1 f8bc
000001e0: 2361 ab3c 0f21 743d 3da1 6b3d c55f 7cbc
000001f0: b565 3c3d 72b1 14bc fada 173d 34af 3e3d
-0.06296207 0.042204414 0.019336501 -0.07885476 -0.011477984 0.0123990625 -0.008125873 -0.05343933
-0.0035066314 0.049830403 0.040524323 -0.017214885 -0.05434375 -0.032979716 0.007985665 0.074204706
0.002854934 0.031671733 -0.051310446 0.026828578 0.015695896 -0.035931066 -0.06370159 0.04213235
-0.0002572841 -0.01351871 -0.0045314133 0.010815565 0.034792487 -0.0076988246 -0.050370384 0.006124926
-0.023349915 -0.03390924 0.0023534896 0.07144226 0.03337836 0.04095315 -0.00089158496 -0.06919221
-0.00023261801 -0.013563327 0.07521797 0.0043404414 0.067408256 -0.038545195 0.0062498786 0.03566205
0.044522878 0.04583848 0.029342813 0.0800727 -0.00013870647 -0.038620893 -0.021405375 0.054542795
-0.014106961 0.0330832 0.032456443 0.061685454 -0.017358772 0.07425277 -0.016480494 -0.004834022
0.07123175 -0.034965713 0.037822846 -0.046945542 0.008708946 0.05728493 -0.012277717 0.04633065
-0.047633257 0.047681767 -0.04212181 0.021909345 -0.022185355 9.1121e-05 0.036028165 0.07060989
0.0098390095 0.005148023 -0.056073062 0.05715722 0.0060324254 0.053515088 0.040780086 -0.006232613
0.0054280525 -0.012492778 -0.019144079 -0.005275348 0.060728446 0.0077396357 -0.06276714 0.07520662
0.02935407 0.05019271 0.043384943 -0.03826379 0.05623234 0.034630187 -0.049687985 -0.02233714
0.08276034 0.087184064 -0.05093026 0.04812644 0.036301024 0.020499837 0.03464636 0.04252865
-0.04546425 0.07316629 0.010329073 -0.034249354 -0.047743756 -0.042943705 0.031924825 -0.030350653
0.020920342 0.05960184 0.057526816 -0.015403693 0.045995433 -0.009075509 0.037074067 0.046553805

net.6.weight f4 [64, 128]
00000000: 0081 0e3c 7199 9cbd 3296 0e3b 4ff7 f63c
00000010: 89e4 98bd 7d22 b23d ecf4 a03b 4b90 f9bc
00000020: 76c4 4f3d 83f9 41bd 005f 6bbd 7e93 5e3d
00000030: 50c2 89bd fa2d 6d3d f1b7 313d b317 8cbc
00000040: 9689 2dbd 469f acbd ba3b 6b3d a802 443d
00000050: 82ab 37bd 9e2e 52bd b480 7dbd 82fb 2bbd
00000060: 90e9 9dbd cb64 0b3d 14d8 56bd c41f d33c
00000070: 918f 90bd 5d4b 20bd 4e08 a8bd db19 423d
00000080: e660 2fbd bdcb 813d 9caf 4e3d 4afd 4dbc
00000090: 1a2c 703d b824 28bc e6ed 2fbd 7f60 1abd
000000a0: 9d07 893d f267 e9bc 70d8 123c ec00 be3c
000000b0: 030d 893d ff8d 74bd bdb6 9b3d 9d39 5fb8
000000c0: 48d4 6b3c 0282 663d 4e25 f3bc 02b6 bfbd
000000d0: 056e 7cbc 38bc 73bd 776b 93bd 79ba 3cbd
000000e0: bb01 963d 9f49 923d 7ead 75bd d182 63bd
000000f0: e618 73bd e96c 50bd 672e 523d 8923 1a3c
00000100: beae 7abc 9fb9 033d 477b 2d3d 0c97 0b3d
00000110: ed27 23bd dcee 8bbd 0f1c 373c a299 aebd
00000120: e85c 6cbd 208f 39bc fd0b 10bd 60b3 c8bc
00000130: e0fe 4a3b 848f a53d 6388 e5bc e722 333c
00000140: f61c 3e3d 04b7 a7bd 5dbe 84bd 38cb a8bd
00000150: 4e57 c3bd cd9d c5bb 9e2a a9bd ecac c0bd
00000160: d620 8f3d f4ae de3c d2a8 15bd fe4f b8bd
00000170: abde 97bd 78cd 8d3d 80c7 3ebd 45dc 9a3d
00000180: f00b f3bb 6669 1ebd 9c7a 05bd 6455 81bc
00000190: 10e4 5dbc 4d45 8ebd 04e8 d83c 8f4e a73d
000001a0: 6992 a4bd 7b79 a7bd 87d1 47bd 53d7 8b3d
000001b0: 2004 c3bd 8213 623d 8fce 8a3d 39d0 34bd
000001c0: c8c2 bebc 4273 5fbd d74a c3bd 9c4c 24bd
000001d0: 94bf 7dbd 8a45 6d3d 8976 80bd f26b a3bc
000001e0: d0f7 3e3d 1847 da3c 3416 b53c 5ad7 913c
000001f0: 34fb c43c bb3d acbd fdc6 2e3d 2975 88bd
00000200: 26d2 18bd 98c6 af3d 4df3 0e3c b402 0e3e
00000210: d7d9 303d 3a88 393d b206 13bd 2c1e f0bd
00000220: 05ec 843c a74d 01bd 8ca7 21bd 34d8 823c
00000230: 34d4 963d d79c 0fbd bf30 79bd 6d02 a8bc
00000240: 9adc 003d 7915 03be a159 113d 023c c23d
00000250: 73b3 a3bd 9579 c23c 1f1b 02bd 34a1 813d
00000260: 3654 77bd c36d dcbd a4d1 a3bd b960 88bd
00000270: f957 203d 191e b5bd fd77 abbc 2df2 c83c
00000280: 5ee5 9e3d 4753 633c db3e 81bd 1b72 0f3d
00000290: 3a1b 17be b314 73bd beb2 98bc deeb 29bd
000002a0: d386 343b f404 c63d 7a00 09be 75ee 93bc
000002b0: c682 92bd 4feb 5cbb 0abb eebd 645d eabc
000002c0: 8c0e 8bbb 6de6 b63c 32c4 e7bc e018 99bd
000002d0: 0b58 c73c e1d9 213c cd96 87bd da2a fbbd
000002e0: 1c03 32bd 4f72 9f3d 69bd c4bc 860a 0dbd
000002f0: beb5 493c 9e4b 0abc b476 8f3c 260b bb3b
00000300: 7896 dc3d 4273 4ebd d15c 873d bc74 483d
00000310: 6727 073d 7fdc 833b 0936 7d3d 3af4 d0bd
00000320: 4b51 88bd e7a3 8c3d 2374 e63c 6ff1 16bd
00000330: 3d10 163d 6208 593d db32 c63d 2638 19bd
00000340: 64c3 943d 7f64 e63b fe1e 9dbc 23b9 79bd
00000350: d0e8 a5bd e254 c33d c49b 713d 1859 8bbd
00000360: ef7e 843d 9a45 a53c af62 993d e40c a13d
00000370: 6c38 c6bd 7ba2 d03c 7c23 68bd 4594 cd3c
00000380: 991d 4abd b198 043c 05ad c3bd 6fe8 b43d
00000390: e302 dbbd b940 0fbd a9f4 973c 39a9 87bd
000003a0: eb7f adbd 34f8 75bd 5098 3ebd 4fb5 50bd
000003b0: a3c7 a63d f70e efbb cd8d d93c 2523 45bd
000003c0: f880 c6bc 57be 49bd 0260 22bd d6a4 77bd
000003d0: 0091 d1bd 0d86 7c3c 4810 483b 615a 9fbd
000003e0: d10f ecbd fd17 3dbd bbe2 1abd 1b7b b2bb
000003f0: 8d7b 89bd 4d3d 85bc 08ec cf3d 049a 94bd
0.008697748 -0.07646454 0.0021757004 0.030147223 -0.074654646 0.08697984 0.0049120095 -0.030464312
0.05072447 -0.047357094 -0.057463646 0.05433988 -0.06726515 0.057905175 0.04338831 -0.017101144
-0.04236754 -0.084288165 0.057430007 0.047854096 -0.044841297 -0.05131399 -0.06189032 -0.041987903
-0.07710564 0.03403167 -0.052452162 0.025771983 -0.07058633 -0.039134372 -0.08204709 0.04738794
-0.04281702 0.06337688 0.050460443 -0.012572596 0.05863581 -0.010262661 -0.042951487 -0.037689682
0.06690905 -0.028491948 0.0089627355 0.023193799 0.06691935 -0.05970573 0.07603214 -5.3221e-05
0.0143938735 0.05627633 -0.029680874 -0.09360887 -0.01540709 -0.05950567 -0.07198232 -0.04607627
0.07324549 0.07142948 -0.05997991 -0.055544678 -0.059349917 -0.050885115 0.051313784 0.009407886
-0.015300451 0.032159444 0.042353895 0.034079596 -0.039832998 -0.06832668 0.011176123 -0.08525397
-0.05770579 -0.011325628 -0.035167683 -0.024499595 0.0030974671 0.08084014 -0.028019136 0.010933614
0.046414338 -0.08189204 -0.064816214 -0.08241886 -0.095381364 -0.006030774 -0.08260082 -0.09407982
0.06988685 0.027183034 -0.036537953 -0.08999632 -0.074155174 0.06923956 -0.046576977 0.07561544
-0.0074171945 -0.038674735 -0.032587633 -0.015787788 -0.013543144 -0.06946812 0.026477821 0.08169281
-0.08035738 -0.081774674 -0.048783805 0.06828179 -0.09522271 0.055194385 0.06777679 -0.04414389
-0.023286238 -0.054553278 -0.09535759 -0.040112123 -0.06195028 0.057927646 -0.06272609 -0.019948933
0.04662305 0.026645228 0.022105314 0.017802883 0.024045564 -0.08410212 0.04267024 -0.066629715
-0.03730979 0.085828006 0.008725 0.13868219 0.0431765 0.04529593 -0.035895057 -0.11724505
0.016225824 -0.031568196 -0.039466426 0.015972234 0.07364693 -0.035061684 -0.060837504 -0.02050897
0.031460382 -0.1280116 0.035485867 0.09484102 -0.079932116 0.023739615 -0.031764146 0.06329575
-0.060383044 -0.10763123 -0.0799897 -0.066590734 0.039146397 -0.08843631 -0.020931238 0.02452954
0.07758592 0.013874835 -0.06310817 0.03502093 -0.1475648 -0.059345912 -0.018639918 -0.041484706
0.0027546182 0.096689135 -0.13379088 -0.018058041 -0.07153849 -0.003370959 -0.116567686 -0.028608985
-0.0042436775 0.022326672 -0.028291795 -0.07475448 0.024333974 0.009878607 -0.0662056 -0.12264033
-0.043459997 0.077854745 -0.024016099 -0.034433864 0.012311397 -0.00844088 0.017512657 0.005708116
0.10770887 -0.050402887 0.066095 0.04893945 0.03299656 0.004024088 0.06181911 -0.102028325
-0.066561304 0.068671994 0.02813155 -0.036851343 0.03663658 0.05298651 0.09677669 -0.037407063
0.0726383 0.007031023 -0.019179817 -0.060967576 -0.08101046 0.095376745 0.05898644 -0.06804103
0.06469523 0.02017479 0.074895255 0.07863787 -0.0967873 0.025468102 -0.056674466 0.025095114
-0.049344633 0.008093045 -0.09554485 0.08833396 -0.1069391 -0.034973834 0.01854928 -0.066240735
-0.08471664 -0.060051158 -0.046531975 -0.05095416 0.081435464 -0.007295485 0.026556874 -0.04812922
-0.024231419 -0.049253788 -0.03964234 -0.060459934 -0.10232735 0.01541282 0.0030527283 -0.0778091
-0.11526454 -0.046165455 -0.037813883 -0.005446804 -0.067130186 -0.016264582 0.10152441 -0.07255939

net.6.bias f4 [64]
00000000: baeb f5bc de8f 443d 70ff 213d 8761 80bd
00000010: 91a8 c13d 8d48 ad3d 3485 6e3d 4034 6fbd
00000020: c041 e83b 2809 04bb fc1a aa3d 429f ddbb
00000030: 521b a8bd 9977 c23d 62ed b73d ca08 873d
00000040: cd71 76bd 8448 8e3c 1a7c 7e3d eec7 c5bd
00000050: 8232 d1bc 8ce6 a53c 7f9e 833d 1be7 973c
00000060: 4e86 1e3c 4e9c 8bbd 805a 7fbd 341c 883d
00000070: b939 7bbd 34e0 74bd 30d8 bc3d f5ee d53d
00000080: 3bca 093d d57e 783b d405 043d 90c1 1cbd
00000090: faa6 613d 27da 7fbd fa72 fdbb c0b0 34bd
000000a0: aeb1 89bc f7b9 f83c c277 b03d c415 703d
000000b0: f17d a0bc f61f ae3d faf1 e53b 9a48 1f3c
000000c0: 4331 4ebd b71a a6bd e79e d73d 47c6 44bd
000000d0: 7f5a 53bd 5f3a b3bc dddf cb3d 8202 a93d
000000e0: f1dd e23d e608 b5bd b3cd 053d 424e e3bc
000000f0: 0ed9 36bd a6e2 6b3d 490a e33c 4a77 b0bd
-0.03001963 0.047988765 0.039550245 -0.06268602 0.094559796 0.084611036 0.0582325 -0.05839944
0.007087916 -0.002014706 0.08305928 -0.00676337 -0.08208336 0.09495468 0.08980824 0.06593473
-0.060167123 0.017368563 0.06213007 -0.09657274 -0.02553678 0.020251535 0.06426715 0.018542817
0.009675575 -0.06816922 -0.062342167 0.06646004 -0.061334345 -0.05978413 0.09220922 0.10445968
0.033640128 0.0037917395 0.03223212 -0.038270533 0.055090882 -0.062463906 -0.0077346535 -0.044113874
-0.016808357 0.030362112 0.08616592 0.058614507 -0.019591304 0.0850219 0.0070173712 0.009721899
-0.05033995 -0.08110564 0.10528355 -0.048040655 -0.051599976 -0.02187842 0.09954808 0.082524315
0.11077488 -0.08839588 0.032666873 -0.027747277 -0.044640593 0.057589196 0.027714865 -0.086165026

net.8.weight f4 [5, 64]
00000000: b2f0 cfbd 9e49 4f3e 3879 2bbe bae7 1c3e
00000010: 3f8b 9bbd 467d 5cbd b527 60bd 8c61 13bd
00000020: c2da ca3d 1952 72bd 3812 38be 2b3b 7ebd
00000030: 6000 563c d1d1 11be 6d70 eebc 965c 773d
00000040: a4e2 3d3d 3097 1abe 2db5 1e3e 61f5 8cbd
00000050: 15bb 4fbe 22da e4bd fa9e 40bd 5cd4 733d
00000060: 99f2 393d ae1d dbbc 9e6d ac3d 4144 233e
00000070: 3967 e53c d502 82bd b1a6 563d 65ae a43d
00000080: 500f 24bd ad8f a83d d8ee 0abe c79c 8b3d
00000090: 3c3b 94bd e15f 493d 61f0 d0bd f123 e8bd
000000a0: 2635 3cbd 04be 77bd 3fe7 c6bd a4df 373d
000000b0: 1f9f 39bd 21e8 d53d 1c29 debd e5ff 14be
000000c0: 957c 1a3e fefb 96bc 65e0 6e3d 84f5 883d
000000d0: 8abe a23d 7707 1cbd 66ad f83a 8157 bd3d
000000e0: fb3e 0b3e 259d 4fbc 13eb dd3d 7464 47be
000000f0: 7937 c5bc 5345 55bc 01e9 90bd 107d e6bc
00000100: 1f39 2e3d e61b a0bd c15f 623c c14f 763c
00000110: 8035 d23c 1551 23be c4b3 71bc 5c31 163d
00000120: bf03 05be ed78 d43d b647 8f3d dce2 21be
00000130: 3abb 8b3d 3db6 a33d 4eed 38be 144f be3d
00000140: dc3c babd 4d4e 4ebc 736d bfbd 3633 c1bc
00000150: 128b 803c bf84 bbbd 24dc 213d bc3e fdbc
00000160: fca2 21bd a0ec e6bd 1dcf 6dbd 2417 a43d
00000170: 515f dd3d 694a 5ebd 649f 453d 55ea 833c
00000180: f6ed 4ebd ecc9 b73c 048b f6bd 6a5b 4d3c
00000190: 9556 a2bc 5447 493c bfcc 94bc 1c50 003e
000001a0: aa10 eb3d 9859 f2bd ddd9 41be 420f cd3d
000001b0: 4509 a13c 4aff 093e 1988 19bd 9fce c63d
000001c0: 0ad0 7fbd 65c8 55bc 9632 d23d 03b9 ab3d
000001d0: ecfd b3bd 63ff 32bc 99ad 023e d055 eb3d
000001e0: cd3c 233d e0fe e13c 7aa2 b03d 60ef c0b9
000001f0: 384b ecbc 5b29 073e 7818 1cbe 98ce 4bbd
00000200: 8cf9 5b3d a1ae 2bbe 2b65 b2bc 6f3a f6bd
00000210: a7d5 8a3d 6cfd 5e3d 7746 913d b07f 673c
00000220: 3a36 d1bd 41fa 93bd 7e74 aabd a914 b7bd
00000230: 884e 9c3d 7a64 3f3d fd6e 9abd 692d 0cbe
00000240: 6ea2 dbbd 2316 3d3c 1f92 083c 2176 10be
00000250: c6f0 ae3d 45e4 043e 3734 803c da92 f9bd
00000260: 2566 97bd 064f 34be d3d7 39bd 2be0 5b3d
00000270: a346 043d f548 933d 6b23 5bbd 61d3 b03d
00000280: cf18 a13d cec1 f4bd 5bc2 a73d 10a1 0cbd
00000290: e049 11be 285a f138 942e 85bc 3006 a9bd
000002a0: a864 a0bd 1099 7fbd 6623 80bd cbed fd3d
000002b0: 75f1 d3bd 77ab 5dbc 6897 f93d aae7 813d
000002c0: 6f95 df3c 1cd3 33be ba14 223d 659f d6bd
000002d0: eccf df3c 6299 14be 4bcf 0c3e 5367 f9bd
000002e0: 5420 883d 54d9 21bd 0b1b c93d 9552 7cbd
000002f0: c954 b5bd ab84 62bd ce93 573d 1480 e93d
00000300: 3158 873d 9c9e 333d 237f 30bc cf15 023d
00000310: 9884 b13d 4616 d83d 37cb cebd 0023 d93d
00000320: 9844 773c 4329 f9bd d493 98bd ffa4 833d
00000330: 88d5 d8bd d63f ea3b ecd7 013e e9bb 09be
00000340: 0822 82bd e2b0 cabd 7b8d 163d 9183 ad3c
00000350: 54f1 13bd f45e b5ba 51ea 003e 10dc 99bc
00000360: 61ba 3dbc 2af9 c1bc 7d07 353d eaae a5bd
00000370: a07a c83d 2a9b 4abc 1e7c 35be 98f0 04be
00000380: bc54 743d 6d71 dabd f384 f53d 56f9 da3b
00000390: 6b12 07be 21a6 053e 6db8 c53d 1f0d 83bc
000003a0: b1ce 153d c6a2 db3d b8ee 533d 8612 033d
000003b0: 8001 a4bd 5223 83bd d5cd 0f3d 050c b63d
000003c0: 8fbe fa3b a3d4 ab3a 1e97 c1bd 49d0 923d
000003d0: aad9 b0bd ee98 e93d 8df2 e33d 1e9a 38be
000003e0: 4888 af3d fffe d5bd d655 2e3c dad4 3d39
000003f0: f1bc f13c b94f 02bc bffb 973d 3417 de3d
-0.10153331 0.20242926 -0.1674546 0.15322772 -0.075949185 -0.053830408 -0.054725368 -0.0359817
0.09905006 -0.059160326 -0.179757 -0.062068146 0.013061613 -0.14240195 -0.029106343 0.06039103
0.04635872 -0.15096736 0.154988 -0.0688274 -0.2028621 -0.11174418 -0.047026612 0.059528694
0.045397375 -0.02674755 0.08419345 0.15944006 0.028003322 -0.063481964 0.052405063 0.080410756
-0.040053666 0.08230529 -0.13567674 0.06817012 -0.072378606 0.049163703 -0.10202099 -0.1133498
-0.045949124 -0.060483947 -0.097120754 0.044891015 -0.045317765 0.10444666 -0.10847685 -0.14550741
0.15086587 -0.018430706 0.058319468 0.066874534 0.07946499 -0.038093057 0.0018972575 0.09245206
0.13598244 -0.0126717435 0.108358525 -0.19471914 -0.024074303 -0.013017016 -0.07075692 -0.028135806
0.042534944 -0.07817821 0.013816775 0.015033663 0.025660276 -0.15948899 -0.014752332 0.036668167
-0.1298971 0.10374627 0.069961 -0.15809196 0.0682282 0.079937436 -0.18059275 0.09292427
-0.09093639 -0.012591911 -0.09347048 -0.02358399 0.015691314 -0.09156179 0.039516583 -0.030913703
-0.039462075 -0.112756014 -0.058058847 0.08012226 0.10809196 -0.05427018 0.04824771 0.01610295
-0.050519906 0.022435151 -0.12038234 0.012534002 -0.019816676 0.012285072 -0.018164037 0.1253056
0.11477788 -0.11833495 -0.18930764 0.10012676 0.01965774 0.13476291 -0.03748331 0.097073786
-0.06245426 -0.013048266 0.10263555 0.083848976 -0.08788666 -0.010925147 0.12761535 0.11490977
0.039852906 0.027587354 0.0862474 -0.00036799442 -0.02884446 0.1319937 -0.15243709 -0.04975757
0.053704783 -0.16765834 -0.021776756 -0.12022864 0.06779032 0.0544409 0.07093518 0.014129564
-0.10215421 -0.072254665 -0.08323 -0.089394875 0.07632166 0.04672668 -0.075407006 -0.13689198
-0.107243404 0.011540922 0.008335619 -0.14107563 0.08542018 0.12977703 0.015649898 -0.12186213
-0.073925294 -0.1760827 -0.04537184 0.05368058 0.032293927 0.0719165 -0.053500574 0.08634067
0.0786606 -0.11951028 0.08191367 -0.03433329 -0.14188337 0.000115085684 -0.016257562 -0.08253133
-0.07831699 -0.06240183 -0.06256752 0.12398871 -0.10348789 -0.01352965 0.121870816 0.063430145
0.027292935 -0.17561 0.039570548 -0.10479621 0.027320825 -0.14511636 0.13750951 -0.12177911
0.06646791 -0.0395139 0.09819611 -0.061602194 -0.08854062 -0.055302303 0.052631192 0.11401382
0.06608618 0.043852434 -0.010772499 0.03175908 0.086678684 0.10551123 -0.10097354 0.10602379
0.015092038 -0.12166073 -0.07450071 0.06427955 -0.10587603 0.007148723 0.12680024 -0.13450588
-0.06354147 -0.09897019 0.03675602 0.0211809 -0.03611882 -0.0013837502 0.12589385 -0.018781692
-0.011580081 -0.023678381 0.044196595 -0.08090003 0.09789014 -0.012366096 -0.17723128 -0.12982404
0.05965112 -0.106661655 0.11988249 0.006682555 -0.1319062 0.13051654 0.09654317 -0.015997468
0.03657407 0.10724406 0.05174133 0.032000087 -0.080080986 -0.06403221 0.035108406 0.08889011
0.007652111 0.0013109635 -0.094526514 0.071686335 -0.08635266 0.11406122 0.11130247 -0.18027541
0.085709155 -0.10449027 0.010640582 0.00018103738 0.02950904 -0.007953578 0.07421064 0.108442694

net.8.bias f4 [5]
00000000: 4e8c 7dbd d9b6 36bd ae97 853d a9b4 ed3d
00000010: d65c dabd
-0.061901383 -0.04460797 0.06523071 0.11606724 -0.10662238
