final_project/WorkHours/WorkHoursRegressor/workhours.pt (torch, 750401 bytes, 25 tensors)

net.0.weight f4 [512, 17]
00000000: 7cde a5bd 241b b4bc 7a86 46be 87a6 2bbe
00000010: d6f1 08be 5408 843e 3b26 0a3e c507 3a3e
00000020: 867b 9cbe ae31 c03c 9389 4abe 55ce 093e
00000030: 2888 19be 52e4 ba3d 7d9e 1abe 88c8 8fbd
00000040: 5406 3c3e f58a 9c3d 4992 843d d651 f8bd
00000050: 53e4 a0bd 0490 53be 207c 853c c602 033d
00000060: 6325 293e 9beb 043e db7b 133d 30dc a83d
00000070: 2382 2f3e 10cd 5abd 1364 2ebd 62ca babe
00000080: 56d9 79bc f878 3eb9 1955 833d 265d 8f3e
00000090: 6a84 14be 03a3 c2bc d812 103d 3558 8bbd
000000a0: 4189 9d3e 73d1 523e 100e 89bd a336 babd
000000b0: a434 80bd f7e1 5a3e e0fc f7bd 767b babd
000000c0: 8157 6dbd deb2 96be d673 e6bd 7cad 7d3d
000000d0: 3ae2 4abd 1a46 ebbd 50a7 89bd 5d31 ffbd
000000e0: c415 92bd f1db 5a3d 735a c43d 8deb 90bd
000000f0: ff24 8e3d 2ead 033e eba7 9ebc 2f18 8fbd
00000100: 7c7a b6bb edf7 fd3e 3a81 073e 280c 0c3d
00000110: d60c f73c a6b8 87be e218 d83c f69b 153e
00000120: 07ed 07be 3a31 3c3e 991a 28be 8076 813e
00000130: 8b6d 5cbe c262 473c 0844 2abd 07ea 153e
00000140: e7bd 363e 491d b6bd a626 2abe 84fe 743d
00000150: 09d3 6f3c cc9e b8bd 2dc8 ee3d 7d16 aebc
00000160: 7c99 113e c74f 6dbe 379c 4fbe 9aa7 0abe
00000170: eb0c f9bb 1fc7 0dbe cba9 bdbc 1b2d a5bd
00000180: 5895 8bbe c4da 6e3d b58c cabc ce6b 523e
00000190: 47f0 a83e 0932 7c3d c1b1 983d f1d3 803e
000001a0: 52c9 c43d 041f 863e c60b 12be 9182 88bd
000001b0: acd3 83be 7601 973d 46fd 1abe b54d 5d3e
000001c0: 2418 67bd b945 96bd 8ffd 7bbe 8ed3 803c
000001d0: 3cbf 62be 4c1c 053e 1a99 dd3c 849c 093e
000001e0: 28e1 2a3e 267a 58be 22d7 53bd 92ff cabd
000001f0: 30be 88bd f51b fb3c 6c39 aebc c84c 1bbe
00000200: 879e 78be 650e 79be 5d60 29bc da0d 7e3e
00000210: 1f77 9fbd 4c9f 6a3e aec9 69be 00ba d63d
00000220: 239b e6bc fb26 9cbe d740 333e ffa3 b43d
00000230: afc0 8c3d 2c6d 2dbb 5340 86bd bb55 28be
00000240: e687 1fbc 5093 65bd 6069 4ebd c1c2 9dbe
00000250: 0da3 cfbd ee3c 733d f572 a1be 140c 19be
00000260: 6b2b 36be 1c9c d3bd 2d54 333e 98a7 d1bd
00000270: 7ae9 0e3e fdf0 2e3e 6b0c 1f3e e224 1dbe
00000280: 3ac6 ddbc 8ba8 393e 21e5 513e 463e e3bd
00000290: 623a f93d 692f 4b3e 62b9 f53d 0557 493e
000002a0: 0214 c33d 89dd 8ebe fb05 4b3b 20c1 8b3d
000002b0: 928d 103e 84ce 9e3e e969 66bd 4e7c 513d
000002c0: fb80 abbe b914 5d3e 5185 8cbe 99ff b23d
000002d0: dd2a d4bc b2b2 1f3e d039 9c3d 16ef b0bd
000002e0: 12c5 463d 1cda 423e 083e 2ebe fe63 01be
000002f0: 0e66 2cbc 0a76 373e e8c7 7a3e 7be0 2abd
00000300: fc86 c03d 30c1 93be 3f26 babd 9672 2c3e
00000310: c1ad 013e 20ce 483e 7df9 35be 267f f9bc
00000320: 85cd e5bd 53ef 1ebe fb8a 223d dbd9 a0bd
00000330: feba bbbd 13b0 633e 1151 453d 0847 5d3e
00000340: cbbc c53d 017f 7fbd 8a0b 2ebe 2736 e43d
00000350: cf0a fb3d 97a8 05be b229 0a3e 44af 973c
00000360: 0f20 bd3c aede 72bd 11bf 703d b721 babd
00000370: afd2 c6bd 0b16 113e 02d8 393e 0bfa fd3d
00000380: 6d16 57be 8403 73be dcf9 213e ee10 573e
00000390: c890 43be eb2e 5dbe e696 27be a9e4 653d
000003a0: ea3f 85be 34eb a23c 97d2 ac3c 2862 893e
000003b0: 5e65 29be 0e6b d1bd fd14 7e3e 8e95 993e
000003c0: a16e 99be 21bd 33bd 4e65 543c 1b3c 233e
000003d0: adc3 1abe 4b3f 343d 72ec ea3c 9db1 1e3e
000003e0: 0a38 09be 4dd9 69bd 2526 58be 5808 e53b
000003f0: 3429 37be 15e0 31be 54b8 073e 3303 4c3e
-0.08099076 -0.021985598 -0.19387236 -0.16762744 -0.13373503 0.25787604 0.13491146 0.18167026
-0.3056299 0.02346119 -0.19779043 0.13457616 -0.14993346 0.0912558 -0.15099521 -0.0702067
0.18361789 0.076436915 0.06473214 -0.12124984 -0.078560494 -0.20660406 0.016294539 0.031985067
0.16518168 0.12980501 0.03600679 0.082451224 0.17139487 -0.05341822 -0.042575907 -0.3648253
-0.015249571 -0.00018164876 0.064127155 0.28000754 -0.14503637 -0.02375937 0.03517422 -0.068039335
0.3076878 0.20587711 -0.06692135 -0.090924524 -0.062600404 0.21375261 -0.12108779 -0.091055796
-0.05794478 -0.2943334 -0.11252563 0.061933026 -0.049532153 -0.1148798 -0.067213655 -0.12460587
-0.07133058 0.05343241 0.09587564 -0.07076178 0.0694065 0.12859032 -0.019367179 -0.069870345
-0.0055688005 0.49603215 0.1323289 0.03419128 0.030157488 -0.26508063 0.026379053 0.14610276
-0.13274013 0.18378153 -0.16416396 0.2528572 -0.21526162 0.012169542 -0.041568786 0.14640056
0.1784588 -0.088923045 -0.16616306 0.059813038 0.014637717 -0.09014663 0.11659274 -0.021250958
0.14218706 -0.23174964 -0.20274435 -0.13540497 -0.007600417 -0.1384549 -0.023152253 -0.08065244
-0.27262378 0.0583141 -0.024725297 0.20548937 0.32995817 0.061571155 0.07455779 0.25161698
0.09608711 0.26195538 -0.14262304 -0.066655286 -0.2574743 0.073733255 -0.15135679 0.21611674
-0.056419507 -0.07337517 -0.24608444 0.015725877 -0.22143263 0.12999076 0.027050544 0.13438612
0.16687453 -0.21140346 -0.05171884 -0.099120274 -0.066769004 0.03065298 -0.021267615 -0.15166008
-0.24279223 -0.24321897 -0.010337916 0.24809971 -0.077863924 0.2291233 -0.22830841 0.104846954
-0.028150147 -0.3049849 0.17505203 0.08820342 0.06872689 -0.0026462777 -0.065552376 -0.16438954
-0.009736991 -0.05604869 -0.050393462 -0.30812648 -0.10138521 0.05938428 -0.31533018 -0.14946014
-0.1779 -0.1033251 0.1751258 -0.10237044 0.13956252 0.17084117 0.15532081 -0.15346101
-0.02707206 0.181307 0.20497562 -0.11095862 0.12169339 0.19842304 0.119982496 0.19662102
0.095253006 -0.27903393 0.0030978906 0.06823945 0.14116505 0.31016934 -0.056253348 0.051143937
-0.33496842 0.21589936 -0.27445462 0.08740158 -0.025899345 0.1559551 0.07628214 -0.08639352
0.048527785 0.19028515 -0.1701585 -0.126358 -0.010522379 0.17916122 0.2449032 -0.041717988
0.09400746 -0.28858328 -0.09089326 0.16840586 0.12663938 0.1960988 -0.17770953 -0.030456137
-0.1122084 -0.15520982 0.039683323 -0.07854053 -0.09166525 0.22235136 0.048173014 0.21609128
0.0965515 -0.06237698 -0.1699659 0.11143141 0.12257921 -0.13052593 0.13492468 0.01851619
0.023086576 -0.059294395 0.058775965 -0.09088462 -0.097081535 0.14168565 0.18148807 0.124012075
-0.21004649 -0.2373181 0.1581797 0.21002552 -0.19098198 -0.21599929 -0.16366157 0.05612627
-0.26025325 0.019887544 0.02109651 0.268327 -0.16542575 -0.10225497 0.24812694 0.29996914
-0.29967216 -0.04388154 0.012963606 0.15940897 -0.15113707 0.044005673 0.028677199 0.15497442
-0.13400283 -0.057092 -0.21108301 0.00698952 -0.17886811 -0.17370637 0.1325391 0.19923095

net.0.bias f4 [512]
00000000: eaf7 cebd fe82 01bd 486b 95be d1d0 4abe
00000010: 671a 35be 9953 ce3c 6639 533e fa16 4ebe
00000020: fcd0 f7bb 7e73 33be 59bd 26be 42ad 08bd
00000030: d5ff b4bc 5d7c 363e d294 58bc ee98 08be
00000040: 66f2 3dbd 93bd 20bd c4f3 c93c 7606 563e
00000050: 5c94 803b e30a 79be 9c77 9abd 38ca 483e
00000060: ce6a 023e db76 89bd a3ac 253e 9fcc 6bbe
00000070: 732b 0c3e 4139 253e 5c34 31be a000 903e
00000080: c2ec fb3d 10f7 90be ad2f 213e f857 91be
00000090: 5f12 22be c67e 1c3e bb61 ed3c 888e 273e
000000a0: 8f01 6e3b a0c3 e13d e88b 7f3e f39a 31be
000000b0: bf14 693e ed95 463d fa91 0c3e 0974 b4bd
000000c0: 082d 53be 7051 e3bd f9e9 cfbd aa15 2a3e
000000d0: c50f 0ebe 41c1 43bd cf05 fd3d 6073 433e
000000e0: df13 adbd 9ddc 533e 62fb 7c3e 0fef 443d
000000f0: ba87 293e e170 233e c3db 76bd 0eb6 213e
00000100: 9567 44bd aea0 e33c e0a5 d93d 85bc 34be
00000110: 6874 6d3e eb67 333e c48c 863e e530 12bc
00000120: 4ae3 393e c048 763e 1e92 55be 7f51 a8bd
00000130: 7dcf 7f3e 0b6d 9d3d 5219 bd3a a396 26bd
00000140: efeb 413e c2c7 03bd c5dd 113e e93c 723e
00000150: 2b99 6b3e 9464 8cbe fc8e 863d 3bba 7bbe
00000160: eb97 423e a0cb 2ebe f3ed 7ebd 75c0 69be
00000170: efef 01bc cefa 6b3c ed74 67be cfa8 97be
00000180: b68c 87be 7e07 803d 0838 863d 5f93 6d3e
00000190: 6c5a 10be 4dd1 15be cd57 7cbe 3a2e 323e
000001a0: 4ada 36be c6ba 0e3e 11f6 52be febb 30be
000001b0: c796 27be 6f6c 35bb 802f d03b 44cd 853e
000001c0: cdd0 12bd ce33 543e a15c 5a3e e421 b8bd
000001d0: cb6b 893d 770d 44bd 6817 6ebd e78c b03b
000001e0: df19 73be 06ca 603e d2dd bb3d fdd0 99bd
000001f0: 25f9 c9bd 9b49 70bc 78f3 243e 7600 0abe
00000200: 6734 1b3e c728 d13d 4b6e 36be 7006 29be
00000210: f393 34bd 23b5 023e df6d 74be ee6c e33a
00000220: 5fa1 653d 3aa7 213e 3fdf 043e ad60 e33d
00000230: c45e 16be 1159 933d 513b eb3d 47ee 32be
00000240: 2fdb 9c3c 92fb 14be 4cde 6dbb 6f55 933e
00000250: e449 36be 1462 e7bd 83e9 18bd fb6a 493e
00000260: 96b7 733c aa7a 4b3e edb1 0b3e 05c1 e73d
00000270: af92 413e e7b7 b73d a4db 27bd 62cb e0bd
00000280: 6173 d6bd 3bd6 61be 028b 393e d084 0a3e
00000290: e8b8 1b3e 56f3 f2bd fb49 74be bee7 ee3d
000002a0: cc84 e83c f0ee 41bd 09d0 10bd 249c 90bd
000002b0: f936 ec3d 97cf 35bd 76f2 12be 5db6 2bbe
000002c0: 4639 0fbd 1d77 a73d 4b69 efbd 2ee2 02be
000002d0: 9ec5 4d3e 62d5 d23c 9cbe d53d b693 f8bc
000002e0: 8029 193e f5a1 bd3c d2de 20bc ed2b 5e3e
000002f0: 3168 83bc 9911 e13d 4eba 68be de55 353e
00000300: cddd 463e d0d7 bdbd 0620 6ebe 2445 2abe
00000310: bbd2 36be 66d2 20bd d965 67be 7b1e 57be
00000320: 31b0 693d 6b73 e9bd bb6e 843e b8b0 973b
00000330: ebf3 f53d e217 e7bc 0277 77be 955f 673e
00000340: cee8 edbc bc44 1dbe b37e 433e 6a90 603d
00000350: 2ba3 93be dd0f 243e 0cda 363e 882b 5e3d
00000360: 1be9 943d daec 26bd 3cfb 45bc 55d1 5dbc
00000370: 6f60 213e ec73 f9bd c128 563e 0921 bbbd
00000380: 992e 033e 74bc 083e a9f3 85be 37d0 713d
00000390: ffb1 68be 9fc7 b2bd a185 833e 0a5e 6dba
000003a0: 7c8f 2bbe c2ed 9a3d 7d70 2dbd 2fb1 7a3e
000003b0: 5cd4 79be 5ed9 3abe 4dce 5ebd 5683 4cbe
000003c0: 5063 e23d 2b04 063e f6c6 e4bc 5b6e 69be
000003d0: 9e83 94bd 2b26 babd 7126 043e d38e 083e
000003e0: 911b 143e 7ff5 cdbb 9ed3 3dbe 3d3a 38be
000003f0: df69 163e 3d61 84bc bfe3 c6bd 6da8 49be
-0.101058796 -0.031619065 -0.29183412 -0.1980622 -0.17685853 0.025186347 0.20627365 -0.20125952
-0.0075627547 -0.17524526 -0.16283168 -0.033368357 -0.022094646 0.17820878 -0.013219075 -0.13339588
-0.046373747 -0.039243292 0.02465237 0.20900902 0.003923936 -0.24320559 -0.07542345 0.1960839
0.12736055 -0.06712123 0.16179137 -0.23027276 0.1368845 0.16135122 -0.1730513 0.28125477
0.12301017 -0.28313494 0.15740843 -0.28387427 -0.1582732 0.15282735 0.028977266 0.16362965
0.0036316847 0.11023641 0.24955714 -0.17344265 0.2276182 0.048482824 0.1372756 -0.088111944
-0.20622647 -0.11099517 -0.101520486 0.16609827 -0.13873203 -0.047791723 0.123546235 0.19086981
-0.08451056 0.20689626 0.2470527 0.048079547 0.16555682 0.15961029 -0.060268175 0.15792105
-0.047950346 0.027786579 0.10627341 -0.1765004 0.23188937 0.1752011 0.2627927 -0.00892279
0.1815311 0.2405119 -0.2085652 -0.08218669 0.24981494 0.07686814 0.0014427102 -0.040671002
0.18937658 -0.032172926 0.14244755 0.23656048 0.23007648 -0.27420485 0.06570241 -0.2458276
0.19003265 -0.17069864 -0.062238645 -0.22827323 -0.00793074 0.014403058 -0.22603197 -0.29620978
-0.2647454 0.06251429 0.06553656 0.23200749 -0.14096993 -0.14630623 -0.24642868 0.17400447
-0.17856708 0.13938436 -0.2060168 -0.17259213 -0.1636611 -0.002768304 0.0063533187 0.26133168
-0.03584366 0.20722887 0.21324398 -0.08990839 0.06710013 -0.047864404 -0.05812779 0.0053878906
-0.23740338 0.21952066 0.09173168 -0.075105645 -0.09861974 -0.014665986 0.16108501 -0.13476738
0.15156709 0.10212856 -0.17815511 -0.16506362 -0.044086408 0.1276441 -0.23870037 0.0017351189
0.0560621 0.15786448 0.12975787 0.11102424 -0.14684588 0.071947224 0.11485923 -0.17473708
0.019147484 -0.14549091 -0.003629583 0.28776118 -0.17801625 -0.11298004 -0.03733207 0.19669716
0.014875313 0.19871011 0.13642092 0.113161124 0.18903612 0.089706235 -0.04098095 -0.10976292
-0.104712255 -0.22054379 0.18119434 0.13527226 0.15207255 -0.11862819 -0.23856346 0.11665295
0.028383635 -0.04734701 -0.035354648 -0.070610315 0.11533923 -0.044387426 -0.14350304 -0.16768785
-0.03496673 0.08177016 -0.11690005 -0.12781593 0.20094916 0.025736514 0.104367465 -0.030343872
0.14957237 0.023148516 -0.0098187495 0.21696444 -0.016040893 0.109896846 -0.2272732 0.17708537
0.19420548 -0.092696786 -0.23254403 -0.16627938 -0.17853825 -0.03926315 -0.22597446 -0.21007721
0.057052795 -0.11398967 0.2586573 0.004629221 0.12009414 -0.02820963 -0.24166492 0.22595055
-0.029041674 -0.15358251 0.190913 0.054825224 -0.28835425 0.16021676 0.17856616 0.054240733
0.07271024 -0.040753223 -0.012083825 -0.013538678 0.15759443 -0.121803135 0.20913984 -0.0913716
0.12810744 0.13353139 -0.2616246 0.05903646 -0.2272415 -0.08729481 0.25687888 -0.00090548454
-0.16753954 0.0756488 -0.042343605 0.24481653 -0.24397415 -0.18246982 -0.054395963 -0.19971976
0.110540986 0.13087527 -0.027926903 -0.22796004 -0.072516665 -0.09089311 0.12905289 0.13335733
0.14463641 -0.006285369 -0.18537757 -0.17990966 0.14688824 -0.016159648 -0.09711408 -0.19693156

net.1.weight f4 [512]
00000000: 6951 843f 8e68 793f 8ef0 893f 2a55 883f
00000010: cad5 8a3f 3592 833f 267f 6f3f e41b 7e3f
00000020: ee75 783f 6d4e 7f3f 166c 8b3f 8b3c 7c3f
00000030: 2559 883f cadc 843f 9cb5 7f3f ac91 773f
00000040: 313f 6a3f d476 653f 34a8 703f f235 833f
00000050: 5f46 743f f8eb 7c3f 38cd 723f 84b2 6d3f
00000060: ffcf 733f d39b 833f f693 6d3f ddf3 863f
00000070: c5a3 703f ed34 843f 0d6f 803f f03c 843f
00000080: 7765 7f3f f552 883f 21b9 873f 7185 7d3f
00000090: 6ae9 803f 849a 723f 767d 823f fa93 863f
000000a0: c11d 843f 81dc 5f3f 74b3 7c3f 5d21 793f
000000b0: 01e6 6f3f 27b2 783f 27c2 713f b99c 7f3f
000000c0: 90bd 7c3f fdd0 873f b6c5 673f 28d8 7d3f
000000d0: b088 713f 7401 783f f513 8b3f 0720 7b3f
000000e0: 7a9c 703f 6cf3 683f 8663 813f dfb0 843f
000000f0: b97e 913f 94c6 783f 8441 803f 8d47 703f
00000100: 9912 9b3f 0958 793f 554b 743f 8da5 6e3f
00000110: 4f55 843f 7690 853f 3a89 703f 2142 893f
00000120: e24e 8b3f 2add 723f ea19 813f 779c 7c3f
00000130: 6bb3 853f a771 8f3f ad19 743f e010 873f
00000140: 3735 883f 176d 823f 9fba 823f c375 8b3f
00000150: 0ac2 7d3f 067b 833f b164 8f3f 9064 813f
00000160: 051b 703f ed1d 893f 9733 6b3f 2572 763f
00000170: d57a 6a3f bdf9 743f 7d9e 833f cd78 8b3f
00000180: d445 843f 12da 783f ceda 9c3f e015 7b3f
00000190: 58ae 663f 4306 823f fad2 903f 9516 7f3f
000001a0: 19f6 5f3f a607 7a3f 5123 843f ed54 843f
000001b0: cb06 8a3f 91d1 733f a0f0 703f dd6f 813f
000001c0: 50b7 7e3f 3f8c 983f c9af 743f 58ec 793f
000001d0: 4ac3 803f 2a6b 8a3f 03db 653f 9b68 7a3f
000001e0: d2e2 653f 9068 7d3f 5791 923f b217 823f
000001f0: b7af 723f 2502 883f 766b 703f b6cd 7b3f
00000200: 6f0e 7d3f 9954 663f d09d 743f fe71 803f
00000210: 058b 693f 8ee8 863f 7c18 8a3f 54bd 853f
00000220: 5d60 833f 2a90 633f 9438 6b3f 8c15 773f
00000230: 9051 633f 8016 793f aef3 813f df3d 6c3f
00000240: 68ea 5d3f 08c6 703f 1297 7e3f 91fc 973f
00000250: d220 843f 4938 743f a49f 833f 6a9d 8a3f
00000260: 63f2 893f deb1 883f a110 883f facc 843f
00000270: 2d2b 7b3f f64d 863f f734 6c3f e2fc 813f
00000280: a95d 7b3f a9bb 933f 3878 7c3f 295e 823f
00000290: 0900 833f eb8d 6e3f c72c 7e3f fdfc 7b3f
000002a0: 35ee 8b3f caf1 6e3f bb92 713f dfe0 653f
000002b0: f8c7 703f 1161 893f a42c 7d3f 55d3 693f
000002c0: a893 7a3f ac3c 7d3f 0ad3 803f 17e0 8b3f
000002d0: adba 873f 37cb 723f d817 853f 4e6f 733f
000002e0: 2a8f 6b3f aa49 7f3f ee0c 7d3f e927 733f
000002f0: bbce 6d3f 5ec3 863f a8b3 823f 056a 933f
00000300: 69c8 813f e168 7b3f 55d8 743f 4bbf 7e3f
00000310: d952 5e3f 2e29 8b3f d604 7b3f 93e6 673f
00000320: 307b 713f ef2e 643f 59ea 853f 31f7 733f
00000330: bb50 6b3f 7825 723f 4edc 8f3f 87ba 643f
00000340: 9336 823f 9a8c 6b3f e567 7a3f c7a0 643f
00000350: 06bd 8a3f 680b 733f 94fe 7c3f 9823 723f
00000360: 1726 973f a414 773f de75 6d3f a2b0 723f
00000370: 3449 6e3f 8c4e 803f f61f 973f 3275 6e3f
00000380: c71e 8a3f daf7 7c3f 53aa 693f 8e9c 673f
00000390: b0ae 853f 1388 763f b538 823f c7ce 7a3f
000003a0: f401 813f b99b 833f 9e3e 853f 426a 7f3f
000003b0: 583e 803f fc5e 8a3f 99ee 863f e1d0 653f
000003c0: ce76 803f ea17 753f e3a8 8d3f 60e6 753f
000003d0: f302 823f 2487 823f 9f3c 633f 98b3 833f
000003e0: 17c8 753f 2346 853f e9f7 8c3f 45ff 723f
000003f0: 49ac 763f 9892 863f 523c 813f 9d6e 843f
1.0337344 0.9742516 1.0776536 1.065099 1.0846493 1.0278994 0.9355339 0.9926131
0.97054946 0.99729043 1.089236 0.9852988 1.0652205 1.037988 0.9988649 0.9670665
0.9150267 0.8963444 0.9400666 1.0250838 0.9541988 0.9879756 0.9484439 0.9285052
0.9523925 1.0281929 0.92803895 1.0543171 0.9399989 1.0328652 1.003389 1.0331097
0.997642 1.0650316 1.0603372 0.9903174 1.0071232 0.9476702 1.0194538 1.0513909
1.032158 0.8744584 0.98711324 0.97316533 0.93710333 0.9714684 0.9443688 0.99848515
0.9872675 1.0610653 0.9053606 0.99157953 0.94349194 0.9687722 1.0865465 0.98095745
0.93988764 0.9099643 1.0108497 1.0366477 1.1366798 0.97178006 1.0019994 0.9385918
1.211505 0.97399956 0.9542745 0.9322136 1.0338534 1.0434711 0.9395939 1.0723306
1.0883448 0.9486872 1.0086033 0.98676246 1.0445379 1.1206559 0.9535168 1.0552025
1.064124 1.0189542 1.0213202 1.0895313 0.99124205 1.0271919 1.1202604 1.0108814
0.9379123 1.0712258 0.91875595 0.9626792 0.91593677 0.9569357 1.0282742 1.089624
1.033381 0.9720775 1.2254274 0.98080254 0.9010978 1.0158161 1.1314385 0.9964383
0.8748489 0.9766792 1.0323278 1.0338417 1.0783323 0.9524165 0.94117165 1.0112263
0.9949846 1.19178 0.95580727 0.97626257 1.0059597 1.0813954 0.8978731 0.97815865
0.89799225 0.98987675 1.1450604 1.0163481 0.9479937 1.0625654 0.9391397 0.98360765
0.9885015 0.89972836 0.955533 1.0034788 0.9122775 1.053972 1.0788722 1.0448403
1.0263783 0.8889185 0.91883206 0.9651725 0.8879633 0.9729996 1.015249 0.9228191
0.866858 0.9405217 0.99449265 1.1873952 1.0322516 0.95398384 1.0283093 1.0829289
1.0777096 1.0679281 1.0630075 1.0375054 0.98112756 1.0492542 0.9226832 1.0155299
0.9818979 1.1541644 0.9862094 1.0184985 1.0234386 0.931853 0.99287075 0.98432904
1.093207 0.9333769 0.9436452 0.8979625 0.9405513 1.0732747 0.9889624 0.9133809
0.97881556 0.989207 1.0064404 1.0927762 1.0603844 0.9484133 1.0397902 0.9509171
0.92015326 0.9972178 0.98847854 0.94982773 0.9289357 1.0528371 1.0211077 1.151673
1.0139285 0.9820691 0.95642596 0.9951064 0.86845165 1.0871942 0.98054254 0.90586203
0.94328594 0.89134115 1.0462142 0.9529906 0.9192006 0.9458842 1.1239107 0.8934712
1.0172905 0.92011416 0.9781478 0.89307827 1.0838935 0.9493928 0.98825955 0.9458556
1.1808499 0.9651587 0.92757976 0.9480077 0.9308045 1.0023971 1.1806629 0.93147576
1.0790642 0.9881569 0.9127552 0.9047326 1.0443935 0.9630138 1.0173556 0.9797177
1.0078721 1.0281898 1.0409734 0.9977151 1.0019026 1.0810237 1.0541564 0.8977185
1.0036256 0.95739615 1.1067165 0.9605465 1.015715 1.0197492 0.88764375 1.0289183
0.9600844 1.0412029 1.1013156 0.9492076 0.96356636 1.0513487 1.0096533 1.0346256

net.1.bias f4 [512]
00000000: bbe6 0abd 5256 573d 40bf 35bd dc22 5c3c
00000010: fa6f 9a3c 5283 6fbc 22db 86bd e363 743b
00000020: 702e 3ebc c98b 54bd 899f 643b 4387 cbbd
00000030: 79d5 e2bd 5261 44bc 7ca2 28bc b96d 8fbd
00000040: a151 1cbe 3684 cdbd 36a4 23bc 3852 1abc
00000050: 18df 48bd 08e1 c6bc 46e9 1cbd 3288 3c3d
00000060: fd39 a8bc aa0d 1ebd 206e 2cbe b71e 8bbd
00000070: b227 21be 3b29 523d 97d5 0dbd be1e d03d
00000080: b5c2 b63b 5215 253e 3c93 883d e876 dcbd
00000090: 472c c7bd 3e34 19bd 04d2 c43c b278 c9bc
000000a0: 7acb febd 915f eabd 32db 533b febc dbbc
000000b0: 0eac 243d 658d cbbd 6e1d c6bd 597b 70bd
000000c0: 4ea5 87bd 0d5b a2bd da39 bdbc 3f42 4cbd
000000d0: e680 b2bd fda7 1dbc d605 02be 3e96 12be
000000e0: 5fff 16bd a113 e2bb 6030 2cbc 675a 01be
000000f0: 2ddd 43bd a696 dbbd 032c de3d 5747 b8bd
00000100: 45b8 0b3d e05a 71bd ed2d 083d feab e4bd
00000110: 2368 283c 84dd c43d a7fb 34bd 387d 5abc
00000120: 6d3e f03d 688d 48bd 1502 173c 9cd6 9fbd
00000130: 1db1 b63d b959 0c3d f1d6 86bd f681 f6bb
00000140: 3bb6 09bc 0b03 db3c 74b3 c93b 5ad3 c53c
00000150: 09b2 88bb eda0 9a3d ce33 c73d c109 8abd
00000160: b4a7 b6bd 3cc3 1bbc 239c ffbd 3581 9bbd
00000170: 9e60 b2bd ac2c cabd 2d60 2a3d 5057 d4ba
00000180: f1d6 c23c 6ecc 54bd 4162 e23b 6028 19bd
00000190: dba3 d0bd fe41 9c3d b513 85bd 70b1 e9bc
000001a0: 8595 aebd 0296 14be 54e7 13bd b8ae c23d
000001b0: c6b7 f13d 98f7 86bd 115c 843b 08c7 bdbc
000001c0: 51d8 b6bd bfc5 d6bb 9dd1 13bd 7124 b7bd
000001d0: 62af ac3c 41c8 423b 2e0f 0fbe ae70 83bd
000001e0: c6bc 28be f32b 82bd a352 3c3e 6494 31bd
000001f0: 9d1f 9ebd 4cda 13bc 82ba 303d b757 8ebd
00000200: b73f d5bd bf11 eabd 4bd0 60bd 38e7 a9bd
00000210: d886 95bd 3bd7 323d e737 d53c 8223 e33c
00000220: 0254 c43d e9de 06be 810e 37bd 2e6a 08be
00000230: 20e5 57be cad3 ddbd 0830 0bbd 6fe1 fdbd
00000240: c3ef 0cbe bba4 86bd 3cc0 77bd 8eb4 fc39
00000250: 9d63 363d 7d9b d2bc 699c 2d3d f56a 7d3d
00000260: 42d5 823a a551 853d 3f76 3cbd 857c d1bd
00000270: fca7 6ebc 9250 9c3b fece f6bd b872 813c
00000280: 1066 253c 8209 143b 26f8 303d 64b3 373d
00000290: 08b2 d8bc f008 c9bc 2542 6cbc ff77 d1bd
000002a0: 0da4 be3c 4e66 b4bd beea 3cbd 7726 cfbd
000002b0: 1a7f 60bd f1ed c53b 4106 bbbd 51a4 43be
000002c0: 7194 2dbd a621 35bd 0409 2c3d eb89 87bd
000002d0: e0e5 fe3d 1a2b dabd 6808 db3c d0af 9ebc
000002e0: e12e 83bd 4272 00be 547d 2bbd 9d5a 94bd
000002f0: 3ed2 e5bd 79a1 90bd 0e6d 4d3c 6760 e9bc
00000300: 291f dd3c 2682 593d 3dac 5abd 1b3a e8ba
00000310: 633b 9fbd 4b2e 923d 3a8f cc3c b3ad 55bd
00000320: 347e a8bc ad26 6bbd f7a0 873c e14e 1ebd
00000330: 496d a3bd 8c45 0abd c095 86bc efcc 9cbd
00000340: a31e 1bbd b8fb e9bd 2047 8bba c7e8 41be
00000350: 0b0e d83d 84df 18be 1000 4fbd 74e3 1abe
00000360: e221 6a3e f9b3 0b3d 1555 07be 996c a8bd
00000370: 4045 b0bd 4ed4 8abd 5b52 23bc 643f 51bc
00000380: bf4c 4a3e 97f2 c9bd d062 76bd e47d f4bd
00000390: 675b 013d 3049 10be 20a6 1d3c 13f0 903c
000003a0: 44e7 d03b 7bf3 f0ba 12c8 eb3c 333b 29bd
000003b0: 5bf8 9abd 7b12 6a3d af5a 63ba affa dcbd
000003c0: 2b42 5cbd a6ae bbbd 9d86 253b e85d 23bd
000003d0: de2b 9bbc ac1c 253d d074 acbd fad8 fbbc
000003e0: 3844 c4bd 2ccd 5cbc 3a5a 113d ae6a ffbd
000003f0: 4479 21be 54ca 1b3d 7c7d b9bd dd67 013c
-0.033911448 0.052572556 -0.044371843 0.0134360455 0.018852223 -0.014618712 -0.06584765 0.0037290982
-0.011607751 -0.051891122 0.003488513 -0.099379085 -0.11075873 -0.011986094 -0.010292646 -0.0700335
-0.15265514 -0.10034983 -0.009987881 -0.009419017 -0.049040884 -0.024277225 -0.038308404 0.046028323
-0.020535463 -0.03858725 -0.16838884 -0.06792968 -0.15737799 0.05130885 -0.034627523 0.101621136
0.00557741 0.16121414 0.06668708 -0.10764867 -0.09725242 -0.037403338 0.024025925 -0.024593685
-0.12441154 -0.11444009 0.0032326696 -0.026823517 0.040203147 -0.09939078 -0.09673582 -0.058711383
-0.06623326 -0.07927523 -0.023098875 -0.049867865 -0.08715992 -0.009622571 -0.12697539 -0.14315125
-0.036864635 -0.0068993126 -0.01050958 -0.12632142 -0.04781835 -0.10722093 0.10848238 -0.08997982
0.03411128 -0.058924556 0.033246923 -0.111656174 0.010278734 0.09612563 -0.044185307 -0.013335519
0.11730657 -0.04896298 0.009216805 -0.07804605 0.089205004 0.034265254 -0.065839656 -0.007522817
-0.008405264 0.02673485 0.0061554257 0.024148632 -0.004171614 0.075502254 0.09726678 -0.06740142
-0.089187056 -0.009506997 -0.124809526 -0.07593004 -0.087098345 -0.09871802 0.041595627 -0.0016200338
0.023784133 -0.05195277 0.0069086854 -0.03739202 -0.10187503 0.076297745 -0.064978994 -0.028526992
-0.08524612 -0.14510348 -0.036109284 0.09505981 0.1180263 -0.065901935 0.0040392955 -0.023166195
-0.08927978 -0.006554335 -0.036088575 -0.089424975 0.021079723 0.0029721411 -0.13970634 -0.06417976
-0.16478261 -0.06356039 0.18390898 -0.043354407 -0.077208735 -0.009024214 0.043146618 -0.06950324
-0.10412543 -0.11429166 -0.054886144 -0.082960546 -0.0730111 0.04366229 0.026027633 0.027726892
0.09586336 -0.13170971 -0.044691566 -0.13321754 -0.21083498 -0.10831411 -0.033981353 -0.12396514
-0.13763337 -0.065743886 -0.060486063 0.0004819971 0.044528592 -0.025708908 0.042385492 0.06186958
0.0009981769 0.06509713 -0.046011206 -0.10228828 -0.014566418 0.004770347 -0.120511994 0.015801772
0.010095134 0.0022588675 0.043205403 0.044848815 -0.02645208 -0.024540395 -0.014420067 -0.102279656
0.023271585 -0.088085756 -0.046122305 -0.101147585 -0.054808713 0.0060403277 -0.09132052 -0.1910565
-0.042377893 -0.044221543 0.042000785 -0.06618103 0.12446189 -0.10652752 0.026737407 -0.019370943
-0.06405426 -0.12543586 -0.04186757 -0.072438456 -0.11221741 -0.070620485 0.012538208 -0.028488351
0.026992397 0.053102635 -0.053386915 -0.0017717512 -0.07774999 0.07137736 0.02497064 -0.052167606
-0.02056799 -0.05740993 0.016556246 -0.038649444 -0.07979829 -0.03375773 -0.016428828 -0.076562755
-0.037871014 -0.11424965 -0.0010626055 -0.18936454 0.105495535 -0.14929014 -0.05053717 -0.15125829
0.22864488 0.034107182 -0.1321605 -0.08223838 -0.086069584 -0.06778775 -0.009968366 -0.012771461
0.19755839 -0.098607235 -0.06015283 -0.11938074 0.03158131 -0.14090419 0.009622127 0.017692601
0.0063752253 -0.001838311 0.028781924 -0.041316222 -0.07566901 0.05714653 -0.00086728757 -0.107900016
-0.05377404 -0.09164171 0.0025257238 -0.039884478 -0.018941816 0.040310547 -0.08420718 -0.03074311
-0.09583324 -0.013476651 0.035486437 -0.124715194 -0.15768915 0.038034752 -0.09057137 0.007898298

net.1.running_mean f4 [512]
00000000: dbb7 b0be 2149 023e b2fa 49be de19 3bbe
00000010: f3d7 73be c13b 63be 6858 913e bf98 90be
00000020: 06a7 d2bd 7145 a0bd 70c4 57be fec9 9abb
00000030: 66c2 68ba 4ea3 243e 6711 8d3e 16be 05be
00000040: 9989 d43d fd8d b3bd 8fff 093e 02a2 4abd
00000050: 2a98 af3d b60a e7be 4e85 63be 8b01 42be
00000060: ad51 a13a 00f4 60b7 c24a 933e 9d36 c4bd
00000070: f8c8 03bd 0594 e03e 01bf 95be 15dc e23e
00000080: b36f 963d 4441 02bf 043a 203e d69a a4be
00000090: 2ddc b4be 8ec9 80bd a048 d0bd c751 973e
000000a0: c696 f83c c244 09bc 723b 1b3e a4b2 77be
000000b0: 0d5e b33e ce2a b8bb fce9 eb3d 61d9 013d
000000c0: e685 29be f332 eabe 4a68 5cbe 3385 643e
000000d0: 500a 84bd 811d a4be 3e6d c43e 967e 003f
000000e0: 12f4 08bc 63dd 08be 104e 233e 9d7e 49bd
000000f0: fc35 a03e f5b8 cb3e 1a5c f9bd 55a6 613d
00000100: 84b4 d9bd 8e99 983d 6ebb 843e 421c dbbe
00000110: 29e3 ab3e 7617 043f f681 db3e 8964 32be
00000120: 28e4 7d3e 006a 283e 382c 893c 7c8e afbd
00000130: 901a dc3e 44ef 893d 541e 473c 2b44 28be
00000140: a718 c83d 8eff 9c3d 6342 aabd edd2 e23e
00000150: bec4 783e 0bc1 cebd a8da 983d 40cc 03bf
00000160: b75e 64bd 4a29 b7bd dc8e 7cbe 2f78 30be
00000170: 38bb 8cbe 27df 2fbe f955 8dbe 213c 3ebf
00000180: 20a4 dabe 9805 073e 79f5 e03d 7787 213e
00000190: 814d e63d e6aa c4be c7cc c0be 2cdc 823b
000001a0: 656b 9fbe e51f b33c ade8 2dbe 88ec 93be
000001b0: 1e63 293d ea20 62bd a748 a8bd b296 bb3d
000001c0: b1e4 20be eb19 3abc 0406 413e f2ad 573e
000001d0: 4f28 a03d dd5e e33c 2f12 113c 435f b13e
000001e0: 8fc2 eebd b8cd ea3e 273f 333e 9959 4a3e
000001f0: c0a9 34be b229 76bd a6b1 613e 9ae0 e3be
00000200: 505e 06be 0529 d03d dc97 8f3d c0d1 b2bd
00000210: 6fd6 ef3d 540c 4cbd 7b41 a8be f81d 86be
00000220: eb37 a93e 0ec6 2fbd 8e32 0c3d 7888 32bc
00000230: 027d 43bd 21fc be3d a8d9 673e 6e1a e1be
00000240: 4bb6 ff3d 620c e63d b4a1 ddbd a021 8c3e
00000250: ebbd 563d d15a 78be 94ca 85be 133a e33c
00000260: 6cab d43d 6a50 703c 77ce e73c 3c73 843d
00000270: 4025 943e 9b44 423e dcb1 683c 5e0d 89bb
00000280: 62cf cfbe 9aa1 30be 4ee4 563e 4884 3d3e
00000290: d0f0 283d d79b 85bd b685 a3be cd01 8c3d
000002a0: 81f8 febd 3ce1 8bbd f05c 47be ccf8 93bd
000002b0: 988c b43d 18da ea3e a60a e1be ca49 9fbd
000002c0: efaf 743c 2d4a 893e 8e4e b1be 844b 3cbb
000002d0: 702a f13e 68d7 f93d cc0e 68bd 5570 80be
000002e0: 0a27 2a3e 78a0 a63d 1200 71be 5bf5 cb3e
000002f0: 4271 b83d 5325 533d d54d 22be 1c00 9c3e
00000300: 16f6 8cbd 6718 91be 42ba d13d 7f8d 84be
00000310: e866 9e3d 1ac4 94bd 1349 b1be 0524 193e
00000320: d0b0 2f3d 011c 96bc 411e 3d3e 8248 24be
00000330: c956 be3e f3d1 ddbd 7fe2 0bbf 9028 bd3d
00000340: 1d4b e43d e647 8abe f354 073e b275 b53d
00000350: 2d79 05bf bc3e 083e 1b58 e6bc 60c3 82be
00000360: a8bb aa3d 4d8d 3bbd 56a4 84bc 8ffd 443d
00000370: 16b6 a53e 9682 8abe f340 c83e 24eb 93be
00000380: 5f1c 373d 2b13 133e 0ea4 02bf e482 843e
00000390: e64b e6be f737 21be 7b57 1f3d 62fc 623e
000003a0: b061 b5be 5625 8d3d 4c6f 3a3e b4ee d73b
000003b0: de76 8fbe db32 a2be 4dc7 c4bd ea56 59be
000003c0: 64c0 563e c18c 2c3e 91ca 943e 0e7d 9dbe
000003d0: cb82 dabe c044 493e dff6 583e 39d8 673e
000003e0: 0d94 acbd b9e6 653e d65e febd 5fbb a7bc
000003f0: dae9 b1bd d7ce 9bbd cadc 083e d891 f3bd
-0.3451527 0.12723209 -0.19724539 -0.18271586 -0.23812847 -0.22190763 0.2838776 -0.28241536
-0.102857634 -0.07825745 -0.21071029 -0.0047237864 -0.0008879065 0.16077921 0.2755234 -0.13060793
0.10377807 -0.087673165 0.13476394 -0.04947091 0.08573945 -0.4512536 -0.2221882 -0.18945901
0.0012307666 -1.3408251e-05 0.28767973 -0.09580729 -0.03217408 0.4386293 -0.29247287 0.44308534
0.07345524 -0.5088084 0.15647131 -0.3214938 -0.3532423 -0.062884435 -0.10170102 0.2955458
0.030345332 -0.00837821 0.15159395 -0.2418924 0.35032693 -0.005620337 0.11519238 0.03170145
-0.16554984 -0.45741996 -0.21524158 0.22316436 -0.064472795 -0.3205376 0.38364595 0.50193155
-0.008358972 -0.13365702 0.15947747 -0.049193013 0.31291187 0.3978955 -0.1217577 0.055090267
-0.10630134 0.07451163 0.25924248 -0.42794997 0.33571747 0.515983 0.4287259 -0.17421164
0.24794066 0.16446686 0.016744718 -0.085720986 0.42989016 0.067350894 0.012153227 -0.16432254
0.09770327 0.07665931 -0.083134435 0.4430155 0.24293801 -0.10095414 0.0746358 -0.51483536
-0.05575439 -0.08943422 -0.24663872 -0.17233346 -0.27486587 -0.1717497 -0.27604654 -0.743105
-0.42703342 0.13185728 0.1098432 0.15774332 0.112452514 -0.38411635 -0.37656233 0.0039935317
-0.31136623 0.021865794 -0.1698329 -0.28891397 0.04135429 -0.05520717 -0.08216982 0.09159602
-0.15712239 -0.011358718 0.18849951 0.21062449 0.07820188 0.027755195 0.008854433 0.3464299
-0.11658203 0.45860076 0.1750456 0.19760741 -0.1764288 -0.060098357 0.22040424 -0.44507295
-0.13121915 0.10164074 0.07011387 -0.08731413 0.11710822 -0.049816445 -0.32862458 -0.2619474
0.33050475 -0.04291349 0.0342279 -0.0108967945 -0.04772664 0.093254335 0.22641623 -0.43965477
0.124859415 0.112328306 -0.10821858 0.27369404 0.052427214 -0.24253394 -0.26131117 0.027737653
0.10384259 0.01466761 0.028296692 0.06467292 0.2893467 0.18971483 0.014202561 -0.0041825017
-0.40587908 -0.17249146 0.20985529 0.18507493 0.04124528 -0.06523865 -0.3193795 0.06836281
-0.12449742 -0.068300694 -0.19469047 -0.072251886 0.08815879 0.45869517 -0.43953437 -0.07777746
0.014934524 0.26814404 -0.34630245 -0.0028731534 0.4710269 0.121992886 -0.056654736 -0.25085703
0.16616455 0.08136076 -0.23535183 0.3983563 0.09005977 0.051549267 -0.15850003 0.30468833
-0.06882875 -0.2833893 0.10240604 -0.25889203 0.077344716 -0.07263966 -0.34626064 0.14955147
0.04289323 -0.0183239 0.18468572 -0.16043285 0.37175587 -0.1083106 -0.5464248 0.09236252
0.11147139 -0.2700798 0.13216 0.08860339 -0.52138025 0.13305181 -0.028118184 -0.25539684
0.08336574 -0.04578905 -0.016191643 0.048093375 0.32365483 -0.27052754 0.39112052 -0.28890336
0.04470479 0.14362781 -0.5103158 0.25881112 -0.4497978 -0.15744005 0.038901787 0.22166589
-0.35426092 0.06891887 0.18206519 0.006589735 -0.28020376 -0.31679425 -0.09608326 -0.21224561
0.20971829 0.16850568 0.29060796 -0.30759472 -0.42677912 0.19655132 0.21187924 0.22641076
-0.08426676 0.22451295 -0.12420432 -0.020475088 -0.08687182 -0.07607811 0.13365474 -0.11893052

net.1.running_var f4 [512]
00000000: cae5 243e be06 273e ad8f 773e dea1 aa3e
00000010: 4fab e43d d9cc 523e 8f09 143e 01e7 2c3e
00000020: 745b 563e 4e32 703e 35c2 183e 048c 9c3d
00000030: f5de 673d d1b5 e83d 15b3 583e 908f 0a3e
00000040: b80d c53d e09c 003e e114 4b3e c244 8d3e
00000050: 38d5 d13d 4c2e 293e 3e68 133e 1f5f 1c3e
00000060: ffbc 1a3e 8605 d53d 2d1d 783e 8a10 6f3e
00000070: f48a 113e 3da7 683e 6e5c 053e 8016 1d3e
00000080: 3109 843e 044a 183e f777 093e e66d 693d
00000090: ca8a fb3d 3c06 943e 3285 f23d efb9 ec3e
000000a0: dd4e c43d 6be9 c13d 0294 cc3d bbfd 933d
000000b0: 7076 b43d 29bc 643e 1bdf e43d a10a 743e
000000c0: d808 ca3d 135b 443e 0187 923e 7209 8e3e
000000d0: 3789 193e 8399 113e 5e46 cb3d e34b c13e
000000e0: 7b80 f83d 420e 073e a578 d23d a84c 6d3d
000000f0: b8f5 953e d9da 1b3e e25e 653e ab1a 233e
00000100: 10ac 933e 5a09 c13d 8e48 b73e 053e 643e
00000110: c511 303e 2afe c83d b9bd a43d 4534 d43e
00000120: 7d0b 3a3e 72ec 493e 5324 173e f0f8 e13d
00000130: 6629 373e 4174 223e 49e8 e63d 1cdf 993d
00000140: 426f 1a3e 2ce3 013e db63 233e 28c9 033e
00000150: c1fb 173e 9385 293e 15c0 ec3d eb12 253e
00000160: 9086 2c3e 394c 043e 7545 173e 45a7 433e
00000170: ca09 013e a593 223e b89b 683e b550 5f3d
00000180: 0f68 aa3d 4479 f33d 3759 7c3e 9db7 4f3e
00000190: a4dd 043e dc45 4c3e 6706 a03e 5bb3 413e
000001a0: ca47 4d3e 7053 f63d 28cd 9c3d ec61 273e
000001b0: bafd e93d 2cc9 3e3e 8447 f83d 57b0 353e
000001c0: de3d c93d 4658 783e 08ad 693e 3dc5 9c3d
000001d0: f269 093e 587a 053e 589d 8d3d aafa 3e3e
000001e0: 25cd b73d 08ff 313e 661a 973e cc32 f93d
000001f0: 7a4c fb3d 2413 413e c4d2 093e 3fed 213e
00000200: 8b98 893e d534 423e 0d32 123e 8c11 a83e
00000210: 7ec3 0a3e cb74 cd3e f668 603e 1356 2c3e
00000220: 81f4 183e 2e1e 4a3e 2430 243e 897e 183e
00000230: b7db 153e 9450 a63e e694 3d3e 033f 103e
00000240: 13c4 1f3e ad2f eb3d 0b0d 4d3e bbc1 1b3e
00000250: 2b84 bf3d c40c ca3d c610 4f3e 82c1 d63d
00000260: 6012 673e 78d1 133e b6c0 bc3d 866f 203e
00000270: af74 173e e8e2 093e efca 903d 3219 f93d
00000280: 99cb 353e 5dff 6c3e 827a e03d 8fb0 f33d
00000290: 227b 1c3e 8c05 153e 1d6b 9a3d 3ef4 b53d
000002a0: 745f ea3d 3254 033e d190 4b3e 3cb3 363e
000002b0: f616 1a3e 8e82 ec3d d766 de3d 89b7 063e
000002c0: afb0 083e aa11 733e 61ae 713e 5ee3 e33d
000002d0: b8a0 6a3e e562 e03d d582 4a3e 9c70 863e
000002e0: a954 703e 43e7 1b3e 6b01 333e 27d8 593e
000002f0: 58c6 113e 59f0 e33d 1445 983d b3b8 6e3e
00000300: 1f77 843e 1742 eb3d 1030 ce3d 2c83 ba3e
00000310: 5275 643d bb40 af3d 9b43 eb3d fc05 1c3e
00000320: 3e54 393e f96c 9b3d 3439 243e 05e7 473e
00000330: d1c9 403e d369 aa3d 354d 6a3e 40b9 543d
00000340: 28cf 223e e262 043e b053 1c3e 913a 403e
00000350: 322e 2f3e 57fa 083e 304d 9c3d 8667 0b3e
00000360: fad7 2d3e af42 d83d 69ac 1e3e a23f 7e3e
00000370: 3d52 0b3e cc4e e63d 45d6 a03e 11b8 823e
00000380: e194 2d3e ef53 9d3d d71e 383e 3e99 663e
00000390: 7515 263e 5780 103e 4844 603e 7107 863e
000003a0: 888d 3b3e 27b0 533e 3bab 223e 99a3 e23d
000003b0: 35b5 c03d 874b bd3d 9875 e43d 6967 753e
000003c0: 20a7 fe3d 66ee ab3e a53d be3d 9e82 d03d
000003d0: 917d 623d 259b 123e 470c 263e 6666 0e3e
000003e0: d023 3f3e f471 333e 8d6a b33d d2ef 1a3e
000003f0: 9756 043e d363 b73e 1652 003e 77fd 1a3e
0.16103283 0.16311166 0.24175902 0.3332662 0.11165487 0.20585956 0.14456771 0.16884996
0.20933324 0.2345669 0.14917834 0.07643893 0.056609113 0.11362804 0.21162064 0.13531327
0.09621757 0.12559843 0.19832183 0.2759152 0.102457464 0.16521567 0.14395234 0.15270661
0.15111159 0.10401444 0.2422988 0.23346153 0.14213163 0.22720046 0.1302354 0.15340614
0.25788262 0.14871985 0.13424669 0.056989573 0.12282331 0.28911006 0.11841811 0.46235606
0.095853545 0.09468349 0.09989168 0.072261296 0.08811653 0.22337402 0.111753665 0.2383218
0.09864968 0.19175367 0.28618625 0.2774158 0.1499375 0.14218716 0.09925531 0.3775321
0.12133881 0.13189033 0.10276917 0.057934433 0.2928903 0.15220203 0.22399476 0.15928142
0.2884221 0.09425612 0.35797542 0.22289284 0.17194279 0.09814103 0.08043999 0.41446128
0.18168445 0.19719103 0.1475995 0.11033809 0.17886886 0.1586466 0.11274774 0.07513258
0.15081504 0.12684315 0.1595606 0.12869704 0.1484213 0.16554861 0.11560074 0.16120498
0.16848207 0.12919702 0.1477259 0.19106777 0.1260139 0.15876634 0.22715652 0.054520328
0.08320629 0.11888364 0.24643408 0.20284887 0.12975174 0.19948524 0.31254885 0.18916075
0.20046917 0.12027633 0.07656318 0.16345948 0.114253476 0.18631428 0.121230155 0.1774305
0.09826253 0.24252424 0.22819912 0.07654808 0.13419321 0.13034952 0.069147766 0.18650308
0.08974675 0.17382443 0.29512328 0.12167892 0.12270446 0.18854958 0.13459307 0.15813158
0.26874194 0.18965466 0.14276905 0.32825887 0.13551137 0.40128168 0.2191504 0.1682971
0.14937021 0.19738075 0.16033989 0.1489202 0.14634596 0.3248335 0.18513831 0.14086537
0.1560214 0.11483703 0.20024507 0.15210621 0.09351381 0.09865716 0.20221242 0.104861274
0.22565603 0.14435375 0.09216444 0.15667543 0.14790605 0.13465464 0.070699565 0.12163009
0.17753448 0.23144288 0.109608665 0.1189891 0.15281346 0.14552897 0.075399615 0.08884476
0.114439875 0.12825087 0.19879462 0.1784181 0.15047821 0.11548339 0.10859459 0.1315595
0.1334865 0.23737207 0.23601677 0.11127351 0.22912872 0.10956363 0.19776471 0.2625779
0.23469795 0.15224938 0.1748101 0.21273862 0.14235818 0.11129827 0.074350506 0.23312645
0.25872132 0.11487215 0.10067761 0.364282 0.055775948 0.08557268 0.11487504 0.15236658
0.18098542 0.07589144 0.16037446 0.1952172 0.18826987 0.083209656 0.22881015 0.05193448
0.15899336 0.12928346 0.15266299 0.18772341 0.17107466 0.13376747 0.0763191 0.1361371
0.1697692 0.10559594 0.15495457 0.24828961 0.1360559 0.11245498 0.31413475 0.25531057
0.16951324 0.07682025 0.17980514 0.22519395 0.16219123 0.14111458 0.21901047 0.26177552
0.18315709 0.20672666 0.15885632 0.1106636 0.094095625 0.09242921 0.11155242 0.23965229
0.1243422 0.3358032 0.092891015 0.10181163 0.05529553 0.14316995 0.16215621 0.1390625
0.18666005 0.17523938 0.08760557 0.15130547 0.12923656 0.35818347 0.12531313 0.15135752

net.4.weight f4 [256, 512]
00000000: 957e 06bc 761e e53c 567c cbbc 820d 243d
00000010: 8996 4c3d e058 12bd 6add ce3c d124 81bd
00000020: 1f5b 473c dec1 a93c 1560 2a3b 5382 513d
00000030: 2bdc 223d 68a9 e5bd 1c6a 2bbd 4428 bebc
00000040: 246f 5c3d bce3 cabc 7660 93bd e8ca 92bb
00000050: dc13 943d 010b 72bd f29b 53bd 7a3d 88bc
00000060: aff1 d3bb a95d ec3a d113 0bbd 2838 683d
00000070: a201 493d 62d1 68bb bd04 a03b fa21 d9bd
00000080: 0f7d bdbd 1211 9bbb 5c8d 4b3c b600 9e3d
00000090: 4ae1 6dbd 8cd6 93bc 5026 42bd 16cf 76bb
000000a0: 6d67 953c 9fbb 113d 3ad6 c63c 5a3a a2b8
000000b0: df05 b73c f8f7 04bd d5ff 10bc 01a9 22bc
000000c0: e813 c7bc a5e9 a1ba 2e98 5a3d f676 523b
000000d0: 76b4 113d dc9f a6ba 09f4 fc3b e2a0 e13c
000000e0: 62da 00bd 03ab a5bc aada b23b 4c86 923b
000000f0: 73d4 303d 9a38 21bd 86c0 b0bb 79bb 553a
00000100: 2089 fb3c 0cc5 0c3d 18b0 2d3d 321e f6bc
00000110: 8b52 97bd e6d5 b7bc fc5b 363c f324 69bb
00000120: 23b3 913d 1478 32bd 9a91 f13c a4ae 2bbc
00000130: 5707 0a3d 1aa8 e7bc 5681 2abd e375 4c3d
00000140: 2f32 d9bc 463a bb3c faff 80bd 9b57 6f3d
00000150: 03a5 35bb b5da e3bd 2103 c63c 015c a0bd
00000160: 140e b5bc 5a29 03bd 3525 573d d0e0 abb9
00000170: b961 69bd cb41 2abc 57b4 4f3b d287 36bd
00000180: 94e4 89bd 3805 673b 8207 023c 6214 adbc
00000190: beed 99bd 8789 643d 7785 053d dcf7 913c
000001a0: bc5c 483d 3c13 783b 7bb7 8abd 6296 4938
000001b0: 0869 28bc a383 e4bc d44a 0c3b 33b7 50bc
000001c0: 1824 903c 598b e73c 5457 133d 7559 95bc
000001d0: e31e 21bd 6372 3bbd c514 89bc cccd 313d
000001e0: 117d febb 4d66 b0bc 1435 c83b 5011 483d
000001f0: 0481 d1bc de1b 433d 4d2e 98bc ddc5 a13d
00000200: aec0 81bb 188d 42bd d48d 05bd 458a 203d
00000210: a88d 87bd c2d1 1abc 22c8 c83c f941 53bc
00000220: d12e 45bd ff53 623b d3e4 a9bb 7f8b 303c
00000230: 7693 71bd e67c 383d b907 c23c 1ed0 823c
00000240: 7d56 adbd 98fe 413d 5c75 b1bd 36b9 cc3d
00000250: 229d 62bd bdbf 863d 3a11 86bd a457 233d
00000260: 867f 1c3d 138e af3c 7cd4 f8bc 7dcd 9ebd
00000270: b59f e53d a78d 443d 6e32 18bc 6d6b 033c
00000280: 982e 623d f65e 463d 9087 15bc 4b9c 583d
00000290: 1b09 2b3d b6f0 0bbd 8636 0bbc 07aa dfbc
000002a0: 1cb9 70bc 11ec fdbb 4fb9 2fbd a09f 3cbd
000002b0: 109f 3dbd 5cec a63b 9c02 1c3d a9fe 2b3c
000002c0: 09e5 1cbd 18f0 e53b 5580 b43b fe2c 2a3d
000002d0: 0914 6f3c 044d 7dbc 07f4 e1bc 4e77 913c
000002e0: 72f1 893d 7ef4 c3bb 76a1 1c3b b813 a2bc
000002f0: 48ee 32bd 9de2 90bc 67b3 a6bd 7adf a3bc
00000300: 4fd1 183c 6bb4 d3bc deab 37bc 74ee 813c
00000310: 91e3 003d c87d 81bd c834 e83c 8402 0c3d
00000320: 0c00 073d 8b40 273c a057 893c d458 5bbd
00000330: 93d7 d8bc 6f72 12bd 5d67 af3b b943 33bd
00000340: 5cb5 0dbd 30ce 0d3d 8413 df3b 7b15 04bd
00000350: 19f0 793d 4cf3 92bc 21da 43bc dd17 6b3c
00000360: 3267 04be d779 073d d34f ddbc 5ef7 643c
00000370: 5d47 a0bc 1207 9c3b 3782 8a3c 1b7b 8f3c
00000380: f937 cf3c c961 19bc 7350 4cbd b5ed 2c3d
00000390: 9753 8dbb 340e b43d 87d6 53bd 0491 88bd
000003a0: d3d3 523d ae9a 8a3c 4b42 94bd 5ccf 27bc
000003b0: 81b6 01bd 35a7 d8bb 2c35 213d 72fc 70bc
000003c0: bce7 c83d 3b6c 39bd dc94 c83d ba82 b2bc
000003d0: bca3 3c3d 3e6d ae3c 0972 35bc eddc 083c
000003e0: 4983 823a 5b39 87bc 17d1 5d3c eb5c 94bc
000003f0: 0c84 abbc 63a9 1a3c 815a 053b 781f 353d
-0.00820889 0.027968626 -0.024839561 0.040051945 0.04994825 -0.03572929 0.025252063 -0.0630585
0.012167721 0.020722326 0.002599721 0.051149677 0.03976075 -0.11213952 -0.04184924 -0.02321256
0.05381693 -0.024766795 -0.07196133 -0.0044797547 0.072303504 -0.059092525 -0.051662393 -0.016630877
-0.00646802 0.0018033284 -0.033954445 0.05669418 0.049073823 -0.0035525193 0.0048833773 -0.10602184
-0.09252369 -0.0047322595 0.012423839 0.07714979 -0.05807618 -0.01804664 -0.04739982 -0.0037660054
0.018237794 0.03557932 0.024272073 -7.735631e-05 0.022341667 -0.032463044 -0.008850058 -0.009927989
-0.024301484 -0.0012352957 0.053367786 0.0032114363 0.03557249 -0.0012712437 0.007719521 0.027542535
-0.031458266 -0.020223146 0.0054581957 0.004471576 0.043171357 -0.03936062 -0.0053940443 0.0008153241
0.030705035 0.034367606 0.042404264 -0.030043695 -0.07388791 -0.022440862 0.011130329 -0.0035575002
0.07114246 -0.043571547 0.029488374 -0.010478649 0.033698406 -0.0282784 -0.04162725 0.049917113
-0.026513187 0.022854935 -0.06298824 0.058433156 -0.0027716763 -0.111256994 0.024171414 -0.07830048
-0.02210144 -0.032021858 0.052525718 -0.0003278316 -0.05697796 -0.010391663 0.0031693184 -0.044563122
-0.06733051 0.0035250913 0.00793636 -0.021127883 -0.07516049 0.05579522 0.032597985 0.017818384
0.048916563 0.0037853261 -0.06773277 4.806219e-05 -0.010278948 -0.0278948 0.0021406906 -0.012738991
0.017595336 0.028264688 0.035971954 -0.018231133 -0.039336096 -0.045763385 -0.016733536 0.043409154
-0.007766374 -0.021533156 0.006109843 0.048844635 -0.025574215 0.047633998 -0.018576765 0.078990676
-0.003959737 -0.04749784 -0.03260596 0.039194364 -0.06618816 -0.009449424 0.024509493 -0.012894147
-0.04814035 0.003453493 -0.0051847487 0.010775446 -0.05897852 0.045040987 0.023685323 0.015968379
-0.08463762 0.04736194 -0.08664963 0.09996264 -0.055325635 0.0657954 -0.065462545 0.039878502
0.038207553 0.021430051 -0.030374758 -0.077540375 0.11212102 0.047986653 -0.009289367 0.008021218
0.055220217 0.048430406 -0.009126559 0.052883428 0.04175673 -0.034165107 -0.008496886 -0.027302755
-0.014692571 -0.0077490886 -0.042901333 -0.046050668 -0.046294272 0.005094094 0.038088426 0.010497727
-0.038304362 0.007017147 0.0055084624 0.041546814 0.014592179 -0.0154602565 -0.027582182 0.017757084
0.06735505 -0.0059800735 0.002389995 -0.019784793 -0.043684274 -0.017686183 -0.08139687 -0.020004023
0.009327247 -0.025842866 -0.01121041 0.015860774 0.031467024 -0.06322819 0.02834548 0.034182087
0.03295903 0.010208259 0.016765416 -0.05355151 -0.026469981 -0.035753664 0.005352898 -0.043765757
-0.034596786 0.034620464 0.0068077464 -0.032247048 0.06101999 -0.017938279 -0.011953861 0.014348951
-0.12929991 0.03307518 -0.027015602 0.013974993 -0.019565279 0.004761585 0.016907794 0.017514756
0.025295245 -0.009361693 -0.04988141 0.042218883 -0.004312943 0.087917715 -0.05171826 -0.066682845
0.051471543 0.01691946 -0.07239207 -0.010242309 -0.03166819 -0.0066117295 0.03935735 -0.014708625
0.09809825 -0.045269232 0.09794018 -0.02179085 0.046054587 0.021292325 -0.011074551 0.008353454
0.0009957339 -0.016506841 0.01353862 -0.018110713 -0.020936988 0.009439799 0.0020348134 0.044219464

net.4.bias f4 [256]
00000000: c224 69bc 2174 9f3c fbc9 f9bc a88f 30bd
00000010: 2839 a53c a9a6 3e3b 7be1 9cbc ac76 e63c
00000020: 5369 12bc a51e 21bd 4af1 c2bc 870f 0cbb
00000030: a969 873c 60f7 0dbd 7cce 34bc e5b5 8cbb
00000040: 8969 15bb 9ce1 dd3c e757 423c 3711 6ebc
00000050: 0dbe d73c 952a c8bc a896 ac3c 6002 823c
00000060: d698 973d 2117 38bd 20ed 683d 0d8e e63c
00000070: 85f0 813a d14c 313d 0f65 13bd 9c2b 76bc
00000080: 3318 a7bc 608d 4e3c 3611 023d a021 85bd
00000090: e817 f43c 93b9 31bc bd8e d23b 4f84 27bd
000000a0: 7e39 8bbc bf23 42bc 1529 abbc a22a a9bc
000000b0: 16a1 bfbb 790f 46bd 4374 33bc d057 123b
000000c0: ef1b 84bc a50f e4bc 05cd 7cbd 72af bbbc
000000d0: 4022 103d b11e b53c f1cd 2f3d 03bb 083d
000000e0: e3c9 cd3c 8816 d63c 8e9f 00bc dd3f 15bd
000000f0: d648 23bc f2db 943c ed95 71bc 1a5d ae3d
00000100: ee29 e5bb eecb 4cbc 7d8d 1ebc 624c 2dbd
00000110: 280f a1bc 3f18 f9bb 9140 263d aa8c 24bc
00000120: 5244 0fbc 42a6 d5bc 155c 67bc c986 ba3c
00000130: 3a0b e6bc 18a4 6e3d ce70 99bc 2b9e 7d3b
00000140: 31f5 5ebd 2eab 0dba 2c0c 93bb 1946 563d
00000150: d424 27bd 9130 133d 95ab 5fbd 860e 903c
00000160: a007 31bc d977 093d c104 d6bc 0006 3cba
00000170: 34db aebc 3c2d c4bc c361 f23c 229d 87bb
00000180: ef2c fc3c e6d5 833c bd12 043c 0062 613c
00000190: c525 e63c 06fc 42bc f72e 06bc 99fd 623b
000001a0: 7734 23bd 011c a9bc 971f 73bc b4d7 683d
000001b0: ca99 c93c 3817 2dbb e66c 1cbd b1d8 86bc
000001c0: 637b 813c 7695 523d 0e72 1fbc 8a57 3fbd
000001d0: 03f5 3f3d 7050 06bc 3e9c 223d 3da0 84bc
000001e0: 8372 053d 2f8b 293d 5308 493b 098a 0bbd
000001f0: 9e01 393b 2a8b b2bc 8951 3abd e9f1 1e3d
00000200: 8e94 cbb9 1762 17bd 55ea 033d 05b7 b1bb
00000210: 773f 12bd c20d a83c f318 08bd 250e 823d
00000220: 9ef1 073d 179a 413d a614 f83c 3e46 b43c
00000230: 3f95 403d caed c9bc ac9c cb3c 084a 03bb
00000240: 5947 df3c e8b5 b0bc ca82 dcbc 5482 033d
00000250: 77b5 62ba bb10 83bd ed9b eb3b 8eb2 033c
00000260: 8854 eebc 2e84 9dbc 6218 3e3d 49f2 a6bc
00000270: d8cb 303d cdfe 99bc 6d9d 143c 59b0 b0bc
00000280: f9e9 1d3d 0845 2ebc 57a1 483d 455d a43c
00000290: e2b5 683c c313 80bb 7b85 a8bc f24d c43c
000002a0: c065 71bb e11b 873d 1f49 a8ba a145 903c
000002b0: 3584 17bd 2a62 1abc df37 773d bc11 353c
000002c0: 2913 c7bc 164f 4dbd 4741 43bc d4bd 463d
000002d0: d8ab 803c c307 f6bc 611a 64bc 9801 54bd
000002e0: 9586 053d 2f0d 59bc 2a77 463d d308 b6bb
000002f0: c434 07bd 9f7d 00bc 8768 b13c a00f 88bc
00000300: bae0 c7bc 4dc9 c0bc 34f3 533c 505d 3e3d
00000310: e588 67bd e452 963b 4e41 9fbc 689d c5bc
00000320: a64a 72bd e2c9 1e39 31f5 e0bc 0967 9bbc
00000330: 76a6 a63c 0ccf 7bbc 9df9 ad3c c779 05bd
00000340: dc8c 8d3c ed8d fdbc 0ad4 913a 206b 113d
00000350: d498 7abc dd47 f93c aa05 35bd 8cb7 043d
00000360: 955c 46bc 8cff 12bd d91e 0dbc cddb 703c
00000370: 82d5 1e3d 5796 873c 37bf afbc 1891 92bc
00000380: f850 3dbd 3cd3 8fbc 8dcd 86ba f3aa 6e3b
00000390: e915 283c 8f8c ec3c 6681 ef3b db03 b33c
000003a0: 5336 af3b b4e6 1bbd 980a ffbc 2382 75bc
000003b0: 4492 9abc 184e dcbc 7587 bd3c 4c2c 10bd
000003c0: 535f 76bc a976 b0bc 7bfe 0cbd 332f 07bd
000003d0: 798d 36bd a665 993c 5aad 75bb 4167 14bd
000003e0: 3543 e7bc 3287 cd3c 469c 8e3d f9f5 163d
000003f0: a11d 623d a305 843d 0b70 503c f712 193b
-0.014229955 0.019464554 -0.03049182 -0.04310575 0.020168856 0.0029091036 -0.019150486 0.028132759
-0.008936244 -0.039335866 -0.023796696 -0.002137156 0.016529875 -0.034659743 -0.011035558 -0.0042941445
-0.00227985 0.027085118 0.011861778 -0.0145304715 0.02633574 -0.024434367 0.021067932 0.015870273
0.07402198 -0.044943932 0.056866765 0.028143907 0.0009913599 0.04328615 -0.03598505 -0.015025046
-0.020397281 0.012606949 0.031754695 -0.06500554 0.029796556 -0.010847467 0.006425707 -0.040897664
-0.016995188 -0.011849343 -0.020893613 -0.020650212 -0.0058480604 -0.0483546 -0.010953012 0.0022330172
-0.016126601 -0.027839491 -0.06171896 -0.022910807 0.035188913 0.022109361 0.04292101 0.033381473
0.025120681 0.02613379 -0.007850541 -0.036437858 -0.009966096 0.018171284 -0.014745218 0.085138515
-0.006993524 -0.0124997925 -0.009677288 -0.042309172 -0.019660547 -0.0076017673 0.04058892 -0.010043303
-0.008744316 -0.026080254 -0.014121075 0.022769349 -0.028081525 0.05826196 -0.018730547 0.0038699012
-0.05443305 -0.0005404231 -0.004487535 0.052312944 -0.040806606 0.03593499 -0.054606993 0.01758505
-0.010805041 0.03356156 -0.026125314 -0.0007172525 -0.021344759 -0.02394735 0.029587632 -0.0041386047
0.030783145 0.016093206 0.008061108 0.013756275 0.028094182 -0.011900907 -0.008189908 0.003463602
-0.039844956 -0.020643236 -0.014839075 0.056846336 0.024609465 -0.0026411545 -0.03818979 -0.016460748
0.015805906 0.05141207 -0.009731783 -0.046714343 0.04686452 -0.008197889 0.039699785 -0.016189689
0.03257991 0.0413925 0.0030675128 -0.034067187 0.0028229724 -0.021794874 -0.045487914 0.038804922
-0.0003882986 -0.03695878 0.0322059 -0.005423429 -0.035705056 0.020514373 -0.03322692 0.06350354
0.03318941 0.047266092 0.030283283 0.02200615 0.047017332 -0.02464952 0.02485498 -0.002003314
0.0272557 -0.021571115 -0.026917834 0.032106712 -0.0008648256 -0.063996755 0.0071902187 0.008038176
-0.029093042 -0.019228067 0.046409972 -0.020379202 0.04316315 -0.018798256 0.009070736 -0.021568464
0.03855321 -0.0106365755 0.04898199 0.020064006 0.0142035205 -0.003908606 -0.020571461 0.023962948
-0.003683433 0.06597114 -0.0012839175 0.017611327 -0.036991317 -0.009422818 0.060356017 0.0110515915
-0.024301128 -0.05012425 -0.011917419 0.048520878 0.015706941 -0.030032998 -0.013922305 -0.051759332
0.03259905 -0.013247772 0.048453487 -0.005555251 -0.033009306 -0.00784245 0.021656288 -0.016609013
-0.02439915 -0.023533488 0.012936402 0.04647571 -0.056527037 0.004587518 -0.01944032 -0.024122909
-0.05915322 0.00015143261 -0.027460666 -0.01897003 0.020343047 -0.015369188 0.021237189 -0.03258684
0.017279081 -0.030951465 0.0011125815 0.035502553 -0.015295226 0.030429775 -0.044194855 0.032401606
-0.012107034 -0.03588824 -0.008613312 0.014700842 0.038777836 0.01655118 -0.021453483 -0.017891452
-0.046219796 -0.01755678 -0.0010284648 0.0036417812 0.01025913 0.028875617 0.0073091267 0.021852424
0.005347052 -0.038061813 -0.031132981 -0.01498464 -0.018868573 -0.026892707 0.02313588 -0.035198495
-0.0150373755 -0.021540957 -0.03442238 -0.033003997 -0.044568513 0.018725228 -0.0037487359 -0.036231283
-0.028230289 0.02508888 0.069634005 0.03685567 0.055204038 0.064463876 0.012722026 0.0023357251
