app/models/monthly_salary.pt (torch, 728549 bytes, 9 tensors)

net.0.weight f4 [512, 16]
-0.07875533 0.04284426 -0.07120704 -0.11512112 0.03470153 0.33941638 0.20501654 -0.0875892
0.00959662 0.13866295 0.014403499 -0.1461153 -0.09408046 0.18553843 -0.2569185 0.18534799
0.11792709 -0.29184836 0.27276918 -0.02186777 0.050374933 0.22421552 0.071820065 -0.21273978
0.008608052 -0.0043410473 -0.02327865 0.23950024 -0.054374542 0.060342517 0.07381088 0.08059251
-0.09843764 0.06813656 0.032030325 -0.20064288 -0.00091860484 0.01081908 0.35317618 0.123747855
-0.16213043 -0.105685 0.06461748 -0.06391247 0.23534541 0.34601524 0.33531237 -0.29286942
0.02387018 0.13092561 0.30865955 0.23577072 0.26957282 0.38960412 -0.053885788 0.13264564
0.20051937 0.25269857 0.019380167 0.13025744 -0.10109129 -0.061346892 0.18704315 -0.03582143
0.00071778276 0.23472156 0.19507387 0.22212803 0.30059603 0.26358193 0.12213377 -0.13874593
0.18373701 0.21226054 0.17519264 0.23767422 0.21351825 0.22984026 -0.004824536 0.21414621
0.14318724 0.11337873 0.24108228 -0.0623362 0.094294295 0.15558681 0.2402515 0.008579758
-0.09883107 0.032795835 0.015063832 0.13697702 0.109791584 0.055995647 0.16015023 0.05377895
0.0653539 0.18792458 0.39230412 -0.09929287 0.16691446 0.2671746 0.034559306 -0.29667568
0.009372101 0.22791144 -0.13970673 0.017746313 -0.048020873 0.07430161 0.15147503 0.032078117
0.030370876 -0.15900645 0.36270958 -0.0074293884 0.22758637 0.094364814 -0.0390831 0.11670022
0.16654463 0.20668729 0.2620129 0.24221075 -0.070994645 0.14434193 -0.061524794 0.13301794
-0.02176328 0.2230056 0.2798771 0.14474797 0.45190665 0.10699152 -0.08171661 0.03870972
0.33205205 0.3317358 -0.04451054 0.2138169 0.093520895 0.028805926 -0.008061564 -0.1655364
-0.107354894 0.121783376 0.20296623 0.3250789 0.06885254 0.13619912 -0.23243196 -0.24648507
0.2721284 -0.1223724 -0.13797964 -0.053559627 -0.11563741 -0.06724296 0.059332095 0.010796625
0.0062748715 0.23695797 0.284107 0.28748348 0.17213424 0.0642469 0.0022136236 -0.21374002
0.067906365 0.029880807 0.15782507 0.26952288 -0.05007391 -0.053853046 0.18154444 -0.051973037
0.32961074 0.12077121 0.34132516 0.04211133 0.0450904 0.24040376 0.024123957 0.16941895
0.33045864 0.13329442 -0.08050628 0.11430135 -0.10601053 -0.08997767 0.1829477 0.058494296
-0.08195708 -0.40164685 -0.029705307 0.20642814 0.4687249 0.34635645 -0.34664634 -0.13381474
-0.03789569 0.29682502 0.17516828 0.16820276 0.056045696 -0.011946573 0.1558128 0.04260715
0.2774167 -0.038546015 0.15427338 0.30445862 0.18207411 0.09246976 -0.02282273 -0.22586721
0.08509961 0.06498289 0.101806104 0.36038178 -0.008402379 0.0029894724 0.041373886 -0.15492243
-0.010736581 0.24854755 0.40472928 -0.012513978 0.41151533 0.17381074 0.2603023 0.0027003305
-0.054929096 0.059812814 0.24820751 0.049948167 0.07662028 -0.08502345 0.053064518 0.14610235
-0.06771341 -0.051406823 0.21236223 0.11119559 0.3371829 0.45270318 0.13677506 -0.09802296
0.16308463 -0.0368959 0.1356559 0.09183875 -0.016664524 -0.013176618 -0.036860403 -0.032664396
00000000: 794a a1bd 767d 2f3d ffd4 91bd 9fc4 ebbd
00000010: 3123 0e3d fcc7 ad3e dbef 513e f761 b3bd
00000020: 243b 1d3c a9fd 0d3e a7fc 6b3c 409f 15be
00000030: 42ad c0bd c9fd 3d3e d28a 83be ddcb 3d3e
00000040: c283 f13d 266d 95be 67a8 8b3e 0a24 b3bc
00000050: f255 4e3d c198 653e 6616 933d 75d8 59be
00000060: c908 0d3c 583f 8ebb deb2 bebc 8d3f 753e
00000070: d7b7 5ebd b729 773d 292a 973d b00d a53d
00000080: ac99 c9bd 2e8b 8b3d 3b32 033d 5475 4dbe
00000090: 87ce 70ba 8342 313c 82d3 b43e 846f fd3d
000000a0: 8505 26be 6171 d8bd 2b56 843d 8be4 82bd
000000b0: 63fe 703e e928 b13e 10ae ab3e fbf2 95be
000000c0: 658b c33c 5d11 063e a008 9e3e e16d 713e
000000d0: 7305 8a3e 317a c73e 58b7 5cbd 42d4 073e
000000e0: f354 4d3e b561 813e 28c3 9e3c 3562 053e
000000f0: f308 cfbd e146 7bbd 3d88 3f3e 7eb9 12bd
00000100: 9629 3c3a d95a 703e 72c1 473e 8875 633e
00000110: b9e7 993e 36f4 863e 4521 fa3d 6a13 0ebe
00000120: 8e25 3c3e d45a 593e b365 333e df60 733e
00000130: 87a4 5a3e 3f5b 6b3e 2417 9ebb 2549 5b3e
00000140: ad9f 123e 1c33 e83d 46de 763e 3e54 7fbd
00000150: 5e1d c13d 2652 1f3e 7d04 763e 1d92 0c3c
00000160: f267 cabd ed54 063d 4ace 763c b443 0c3e
00000170: 69da e03d b15b 653d 6cfe 233e 5147 5c3d
00000180: 44d8 853d 4d6f 403e 16dc c83e 0f5a cbbd
00000190: a0eb 2a3e 1ccb 883e 0f8e 0d3d e0e5 97be
000001a0: 718d 193c 9e61 693e 480f 0fbe b760 913c
000001b0: 89b1 44bd 712b 983d 451c 1b3e 5864 033d
000001c0: 58cc f83c 96d2 22be 12b5 b93e 3a72 f3bb
000001d0: 670c 693e 5742 c13d 9a15 20bd 8600 ef3d
000001e0: ad8a 2a3e d5a5 533e 8e26 863e 1806 783e
000001f0: a465 91bd 5fce 133e 6c01 7cbd db35 083e
00000200: e848 b2bc 945b 643e 0d4c 8f3e d038 143e
00000210: 4f60 e73e 5f1e db3d 0a5b a7bd 158e 1e3d
00000220: ba02 aa3e 46d9 a93e af50 36bd d1f2 5a3e
00000230: e287 bf3d 68fa eb3c a614 04bc 6082 29be
00000240: e2dc dbbd 9069 f93d 61d6 4f3e be70 a63e
00000250: 8f02 8d3d c877 0b3e a502 6ebe 9566 7cbe
00000260: 6a54 8b3e 619e fabd 894a 0dbe 5761 5bbd
00000270: 4ed3 ecbd adb6 89bd 3606 733d 54e4 303c
00000280: 709d cd3b 1ca5 723e 7976 913e 0931 933e
00000290: f543 303e e193 833d 7112 113b aade 5abe
000002a0: 7e12 8b3d 98c8 f43c e59c 213e e7fe 893e
000002b0: 4d1a 4dbd 0395 5cbd c9e6 393e aee1 54bd
000002c0: bdc2 a83e e556 f73d 2cc2 ae3e ee7c 2c3d
000002d0: b6b0 383d 672c 763e 9b9f c53c 297c 2d3e
000002e0: e031 a93e 557e 083e 7ae0 a4bd d416 ea3d
000002f0: 0c1c d9bd 3646 b8bd a456 3b3e b797 6f3d
00000300: 1dd9 a7bd a8a4 cdbe 8b58 f3bc e661 533e
00000310: b6fc ef3e a255 b13e a17b b1be bb06 09be
00000320: 8338 1bbd 73f9 973e 505f 333e 583d 2c3e
00000330: 2c90 653d 8fbb 43bc 648d 1f3e d684 2e3d
00000340: 9009 8e3e 6de2 1dbd d7f9 1d3e 00e2 9b3e
00000350: a371 3a3e c960 bd3d bcf6 babc bc49 67be
00000360: b448 ae3d c015 853d b87f d03d f683 b83e
00000370: 22aa 09bc 06eb 433b aa77 293d fca3 1ebe
00000380: 7ce8 2fbc 4083 7e3e ad38 cf3e 6e07 4dbc
00000390: 23b2 d23e 71fb 313e 5846 853e 07f8 303b
000003a0: 55fd 60bd 48fe 743d 1c2a 7e3e 7396 4c3d
000003b0: 18eb 9c3d c620 aebd 2e5a 593d db9b 153e
000003c0: 54ad 8abd f68f 52bd 7c75 593e 83ba e33d
000003d0: 3da3 ac3e b6c8 e73e c30e 0c3e 43c0 c8bd
000003e0: a8ff 263e 2820 17bd 61e9 0a3e f415 bc3d
000003f0: 0a84 88bc bee2 57bc effa 16bd 1acb 05bd

net.0.bias f4 [512]
-0.051118672 0.16113059 -0.0789978 0.24409242 -0.08231206 0.05812182 0.036398116 0.26476696
0.21102323 0.3106344 0.30610538 -0.06319326 -0.07151264 0.10941686 0.17262931 0.3130024
-0.0016642231 0.2858359 0.07194007 -0.15563603 -0.105743244 0.15679927 0.18414223 -0.00944101
-0.15394846 -0.08452189 -0.16013797 -0.096239604 0.25449806 0.27023384 0.04770942 0.160145
0.13573095 -0.12580326 0.1572533 0.37828434 0.1275468 0.10077687 -0.016602857 0.3197557
-0.0019461171 0.24180561 0.20220554 0.2474142 0.0060866517 -0.062070847 0.1943909 0.31885073
-0.10052623 -0.07545097 0.1767837 0.18161018 0.023348821 -0.15731794 0.25754088 -0.111072145
0.083087415 -0.108659245 -0.0024236396 0.37393534 0.15422507 0.31665727 0.23679364 0.13676228
0.05222125 0.16079645 0.11888618 0.08859043 -0.02936222 0.36973608 0.036193814 0.053203944
-0.12680988 0.27180615 0.1948667 -0.06340933 0.24570428 0.2385945 0.016467689 -0.045449797
0.050691567 0.2347328 -0.070412725 0.05915398 0.3438599 0.011259292 0.27019393 0.27918515
0.18899901 -0.1216132 -0.021967037 0.34195825 0.07400752 0.32650322 0.14423987 0.21553448
0.07584286 0.21926437 0.21657361 0.36117887 0.1485932 -0.066920504 0.35269764 0.038610805
0.095180735 0.20691511 0.16757567 0.32925734 0.16703102 0.053295013 -0.06031422 0.2971527
0.10187824 0.03819573 0.07013239 -0.046642166 -0.082708366 -0.08395543 -0.13572852 0.053315468
0.2137027 0.15143932 0.19604485 -0.08108537 -0.060460288 0.3286086 0.06508085 0.100115836
0.08253971 -0.13902459 0.19239116 -0.0144036235 0.34182408 -0.09640891 0.318945 0.23628068
-0.15316999 -0.09056436 0.06647054 -0.08627079 0.3316993 0.075600356 0.2803202 0.2568218
0.08406664 0.2502449 0.3028942 0.122232914 -0.048265565 0.041930433 0.28042006 -0.099299274
0.31636474 -0.11229094 0.021765688 -0.0058163255 0.03232782 -0.13312525 -0.09454043 -0.12789366
0.12526791 0.014926233 0.17717217 -0.021465203 0.28847036 -0.0105316285 0.25547603 0.33638856
0.13692825 0.07051224 0.05189674 0.21295762 -0.05553489 -0.011552397 0.094214976 0.29631275
0.22841644 -0.1539635 -0.09054424 -0.09577808 0.008415407 0.051578265 0.27215186 -0.038274534
0.2924058 0.13190682 -0.008916401 0.12258152 0.17707546 0.1258373 0.22918668 0.18992187
0.18174705 0.08429254 0.054942966 -0.071425974 0.28145808 0.15750694 -0.0010803336 -0.07117259
0.13403079 -0.10948818 -0.10208277 -0.058091056 0.043897152 -0.11872081 0.30821183 0.25422883
0.23816408 -0.019060995 0.2542604 0.2226901 0.328696 0.095053285 0.09458962 0.003309916
0.06885423 -0.13449782 -0.07768467 -0.13066307 0.36535963 0.25927714 0.3508998 0.33477166
0.21867588 0.22060381 0.07992505 0.36185092 0.28562006 0.2691752 0.27112517 0.07096622
-0.021314416 0.14103197 -0.124230005 0.3413935 0.08054289 0.15410043 -0.05887882 -0.069487184
0.25233388 -0.05208938 -0.16077057 0.24389122 0.3149338 0.105838224 -0.16051555 -0.12943037
0.347066 0.08917466 0.25911468 0.13740683 0.24546 0.113023296 0.03067489 0.3340052
00000000: d061 51bd 6bff 243e 99c9 a1bd 5df3 793e
00000010: 3a93 a8bd 2511 6e3d 3116 153d 898f 873e
00000020: 7916 583e 790b 9f3e d8b9 9c3e 786b 81bd
00000030: 3875 92bd f215 e03d bdc5 303e da41 a03e
00000040: 1022 daba 1559 923e 5155 933d 0d5f 1fbe
00000050: ea8f d8bd fd8f 203e c88f 3c3e 77ae 1abc
00000060: aaa4 1dbe d019 adbd 35fb 23be 4519 c5bd
00000070: 924d 823e 175c 8a3e f46a 433d 0dfd 233e
00000080: 0efd 0a3e 92d2 00be 0207 213e 7cae c13e
00000090: a19b 023e 1b64 ce3d b702 88bc 05b7 a33e
000000a0: db14 ffba e49b 773e f80e 4f3e 265a 7d3e
000000b0: 8972 c73b 003e 7ebd 680e 473e 6740 a33e
000000c0: b2e0 cdbd 0a86 9abd c906 353e 05f8 393e
000000d0: 0746 bf3c f417 21be 66dc 833e cb79 e3bd
000000e0: bc29 aa3d bd88 debd edd5 1ebb 7474 bf3e
000000f0: 2ded 1d3e e720 a23e 087a 723e 690b 0c3e
00000100: f3e5 553d d3a7 243e 997a f33d e66e b53d
00000110: 0a89 f0bc 0c4e bd3e f73f 143d 61ec 593d
00000120: 73da 01be 2d2a 8b3e 238b 473e c0dc 81bd
00000130: e799 7b3e 1e52 743e 3fe7 863c 9129 3abd
00000140: f6a1 4f3d cc5d 703e 8c34 90bd 724b 723d
00000150: 680e b03e e578 383c dc56 8a3e 5bf1 8e3e
00000160: f588 413e 5710 f9bd 37f4 b3bc 2715 af3e
00000170: 4191 973d 6e2b a73e 9eb3 133e 12b5 5c3e
00000180: 8053 9b3d d786 603e 79c5 5d3e 70ec b83e
00000190: d128 183e 9e0d 89bd c994 b43e 5d26 1e3d
000001a0: 1eee c23d 8ee1 533e f598 2b3e 6b94 a83e
000001b0: 2e0a 2b3e df4b 5a3d 0b0c 77bd 6624 983e
000001c0: 8aa5 d03d 2073 1c3d 92a1 8f3d db0b 3fbd
000001d0: 0163 a9bd d3f0 abbd 6bfc 0abe 5261 5a3d
000001e0: e1d4 5a3e e912 1b3e fbbf 483e 1610 a6bd
000001f0: 35a5 77bd 633f a83e 1c49 853d 8809 cd3d
00000200: 940a a93d 765c 0ebe 3002 453e 2dfd 6bbc
00000210: 9103 af3e 0972 c5bd c24c a33e 90f3 713e
00000220: 98d8 1cbe cf79 b9bd b521 883d bdae b0bd
00000230: 7ed4 a93e 5cd4 9a3d 2186 8f3e 267e 833e
00000240: 212b ac3d 1920 803e f314 9b3e 4055 fa3d
00000250: 1db2 45bd 3fbf 2b3d 3893 8f3e 6b5d cbbd
00000260: 8ffa a13e cbf8 e5bd f54d b23c e096 bebb
00000270: 2d6a 043d fc51 08be 6a9e c1bd 8ef6 02be
00000280: 3b46 003e 298d 743c 9f6c 353e cbd7 afbc
00000290: 63b2 933e da8c 2cbc c1cd 823e 1f3b ac3e
000002a0: eb36 0c3e b968 903d ad91 543d 9011 5a3e
000002b0: 8e78 63bd 4446 3dbc c8f3 c03d 4eb6 973e
000002c0: 00e6 693e 9ca8 1dbe 426f b9bd 4c27 c4bd
000002d0: c6e0 093c bb43 533d 7d57 8b3e c2c5 1cbd
000002e0: 37b6 953e 9512 073e 1916 12bc 050c fb3d
000002f0: 4553 353e 7edb 003e eaaf 6a3e e17a 423e
00000300: e61b 3a3e 91a1 ac3d e00b 613d c847 92bd
00000310: 461b 903e 8049 213e fb99 8dba efc2 91bd
00000320: 5e3f 093e 573b e0bd c510 d1bd e3f0 6dbd
00000330: 80cd 333d e523 f3bd f1cd 9d3e 482a 823e
00000340: 49e1 733e ce25 9cbc 6b2e 823e e008 643e
00000350: d84a a83e 4cab c23d 34b8 c13d 2deb 583b
00000360: 7203 8d3d ccb9 09be 2419 9fbd 8acc 05be
00000370: 6b10 bb3e f9bf 843e 23a9 b33e 3167 ab3e
00000380: 92ec 5f3e f7e5 613e bfaf a33d 8644 b93e
00000390: cb3c 923e 55d1 893e ebd0 8a3e bd56 913d
000003a0: 929b aebc af6a 103e 4d6c febd 21cb ae3e
000003b0: acf3 a43d 81cc 1d3e eb2a 71bd 4c4f 8ebd
000003c0: e831 813e ac5b 55bd 0aa1 24be 9fbe 793e
000003d0: 013f a13e b6c1 d83d 305e 24be 6589 04be
000003e0: a2b2 b13e 34a1 b63d aeaa 843e 60b4 0c3e
000003f0: de59 7b3e c278 e73d e849 fb3c bb02 ab3e

net.2.weight f4 [256, 512]
-0.11029504 0.09938951 -0.1689273 0.033383492 0.004942498 -0.0038365612 0.07804899 0.044999015
0.044639617 0.047275014 0.057614256 0.07066957 0.08092615 0.108504735 0.022326903 0.076974586
0.05807827 0.05210775 0.107757635 -0.07161767 -0.031728584 0.10516581 0.07102075 0.05139429
-0.08547265 0.09981048 -0.008023058 0.0033140955 0.043731023 0.08019476 0.07256707 0.073316135
0.04958879 0.029139446 0.08988476 0.036979374 0.12565626 0.087464765 0.00974183 0.081220396
0.005868722 0.00417872 0.0818164 0.07622178 -0.0031882294 0.08385335 0.024689866 0.082298875
0.15351117 -0.013515372 0.048600905 0.08586976 0.055022243 -0.057422478 0.07388003 0.09643651
0.056503937 0.078793526 -0.043951232 0.0037172465 0.08229151 0.056653235 -0.08971993 0.07793507
0.027072012 -0.006878158 0.0844632 -0.08525375 0.007577046 0.11341508 0.05506166 0.024118861
0.008232644 0.0688119 0.09073602 0.07345033 0.07671024 0.012475412 0.14879526 0.028495392
-0.06663837 0.11617749 0.13506179 -0.059531234 0.052927688 0.008663339 0.018698046 0.09696365
0.05250991 -0.004355234 0.0671964 0.03433513 0.062130805 0.08123513 -0.008249726 0.07456774
0.048994698 0.09894422 0.06823523 0.110299796 0.039736237 0.058649715 0.10405942 0.013166146
0.040652785 0.101597816 0.089189164 0.058556773 0.09510863 -0.01845426 0.057823922 0.08214979
0.051871363 0.118260086 -0.0046268646 -0.042037394 -0.048082188 0.0007057365 -0.15971579 0.10029662
0.08053864 0.058443047 0.09911568 -0.008480016 0.03875373 0.048230764 0.047872797 0.021769242
0.011967504 0.095839925 0.0808867 0.039328463 0.07032288 0.057307236 0.05354383 0.04409313
0.11601812 -0.08923983 0.07610162 0.02765808 0.06080605 0.07621938 0.09390013 0.025309611
0.08335073 0.11258742 0.047580402 0.099669196 0.053362068 -0.020534227 0.056027517 0.104991235
0.11477134 -0.06572814 -0.043601654 0.08095067 0.09555585 0.059331 0.04125129 -0.0018538106
0.054847457 0.04275967 0.041600347 0.06946394 0.045334823 0.050986372 0.09537967 0.04877082
0.114003636 0.04823367 0.06006219 0.005520688 0.08432644 0.022126036 0.01465299 0.07287082
0.09799246 -0.054413244 0.12483956 -0.074313164 0.05294557 0.09736224 0.081191294 0.043563347
0.0242959 -0.013477353 0.049575195 -0.09867979 0.05888514 0.033747304 0.06809198 0.08255063
0.0482957 0.03347652 0.099243835 0.007722137 0.12073189 0.013196249 0.08125751 -0.06326376
0.0896297 -0.035239626 0.119854264 0.08016194 0.0814038 0.025956491 0.0116286725 0.08238297
0.070054844 0.03835497 0.028820438 0.1048613 0.023569513 0.115906104 0.014186229 0.07448038
0.045188885 0.02782209 -0.112052895 0.1465183 0.076757886 0.13732989 0.084785156 0.08064451
0.08953894 0.095178984 0.0575218 0.05487259 0.043960154 0.054182325 0.12330694 0.041663837
0.044816364 0.10858349 0.11910111 0.078089096 0.0756962 0.097006455 0.1220044 0.032526106
0.09883788 0.12487939 0.0047721663 0.06715886 0.09617543 0.037803337 -0.0068278336 0.09861117
0.08040619 0.076029174 0.094461955 0.10932717 0.07982501 0.07247054 0.072296806 0.08617183
00000000: 5ee2 e1bd ba8c cb3d 47fb 2cbe 21bd 083d
00000010: aef4 a13b d16e 7bbb 26d8 9f3d e350 383d
00000020: 08d8 363d 72a3 413d edfc 6b3d 35bb 903d
00000030: 9cbc a53d bb37 de3d e9e6 b63c daa4 9d3d
00000040: 7be3 6d3d f06e 553d 09b0 dc3d 49ac 92bd
00000050: d5f5 01bd 2c61 d73d 5473 913d d282 523d
00000060: 490c afbd 7069 cc3d 2573 03bc 4c31 593b
00000070: 4d1f 333d 263d a43d 0b9e 943d c526 963d
00000080: 9d1d 4b3d d9b5 ee3c 8015 b83d af77 173d
00000090: 09ac 003e ba20 b33d 329c 1f3c e156 a63d
000000a0: 694e c03b a5ed 883b 5b8f a73d 2a1a 9c3d
000000b0: 9df1 50bb 4ebb ab3d 6742 ca3c 508c a83d
000000c0: 0832 1d3e 946f 5dbc be11 473d 7cdc af3d
000000d0: 015f 613d d533 6bbd 6a4e 973d 8180 c53d
000000e0: ac70 673d 805e a13d 3506 34bd 0c9d 733b
000000f0: 7488 a83d 390d 683d 15bf b7bd 6c9c 9f3d
00000100: 20c6 dd3c 2c62 e1bb 0bfb ac3d 8599 aebd
00000110: de48 f83b 2a46 e83d 5688 613d eb94 c53c
00000120: 36e2 063c 41ed 8c3d ced3 b93d 206d 963d
00000130: 421a 9d3d ac65 4c3c c95d 183e 2b6f e93c
00000140: b379 88bd 77ee ed3d a34d 0a3e 06d7 73bd
00000150: b4ca 583d adf0 0d3c a52c 993c e194 c63d
00000160: a214 573d 5ab6 8ebb 449e 893d fea2 0c3d
00000170: df7c 7e3d 9b5e a63d dc29 07bc f9b6 983d
00000180: aaae 483d 44a3 ca3d eabe 8b3d dce4 e13d
00000190: 77c2 223d af3a 703d 1b1d d53d d2b6 573c
000001a0: 8983 263d 8412 d03d cfa8 b63d 3ad9 6f3d
000001b0: 50c8 c23d 632d 97bc c7d8 6c3d 263e a83d
000001c0: 1177 543d 5832 f23d f49c 97bb 672f 2cbd
000001d0: d4f1 44bd 2d01 393a 898c 23be 5068 cd3d
000001e0: 71f1 a43d fa61 6f3d 29fd ca3d c4ef 0abc
000001f0: 3bbc 1e3d 9f8d 453d 4416 443d 6955 b23c
00000200: 5a13 443c b947 c43d eda7 a53d e216 213d
00000210: 7105 903d feba 6a3d c650 5b3d ff9a 343d
00000220: e89a ed3d 5fc3 b6bd 2bdb 9b3d 3393 e23c
00000230: c40f 793d e818 9c3d b64e c03d 1a56 cf3c
00000240: cab3 aa3d 3c94 e63d abe3 423d 5d1f cc3d
00000250: 2f92 5a3d 6537 a8bc 1c7d 653d a505 d73d
00000260: 3c0d eb3d 7a9c 86bd a697 32bd 77c9 a53d
00000270: c9b2 c33d 1005 733d 1df7 283d 90fb f2ba
00000280: baa7 603d c424 2f3d 2065 2a3d 1c43 8e3d
00000290: 02b1 393d 16d7 503d 6b56 c33d e9c3 473d
000002a0: bd7a e93d ab90 453d c503 763d e3e6 b43b
000002b0: 57b3 ac3d a941 b53c 1813 703c 4c3d 953d
000002c0: 45b0 c83d 6ce0 5ebd e2ab ff3d 8031 98bd
000002d0: 74dd 583d db65 c73d 9f47 a63d 7b6f 323d
000002e0: 3208 c73c 1ed0 5cbc 5c0f 4b3d a118 cabd
000002f0: 8b31 713d 9d3a 0a3d cf73 8b3d 4e10 a93d
00000300: b6d1 453d ad1e 093d 5a40 cb3d fb09 fd3b
00000310: 4842 f73d 1435 583c 566a a63d 6e90 81bd
00000320: c78f b73d 6d57 10bd 2776 f53d f12b a43d
00000330: 09b7 a63d b5a2 d43c 3086 3e3c 67b8 a83d
00000340: ea78 8f3d 1a1a 1d3d d718 ec3c 85c1 d63d
00000350: da14 c13c 2e60 ed3d 5b6d 683c 2b89 983d
00000360: fb17 393d 27eb e33c fd7b e5bd e508 163e
00000370: 3d33 9d3d 35a0 0c3e d7a3 ad3d f328 a53d
00000380: 3160 b73d 33ed c23d fb9b 6b3d 15c2 603d
00000390: 900f 343d 49ee 5d3d 5988 fc3d b3a7 2a3d
000003a0: 5d91 373d 0561 de3d 48eb f33d 2ded 9f3d
000003b0: 9c06 9b3d 52ab c63d 71dd f93d 183a 053d
000003c0: 846b ca3d c4c0 ff3d d55f 9c3b 968a 893d
000003d0: a0f7 c43d acd7 1a3d 05bc dfbb a7f4 c93d
000003e0: 00ac a43d 2fb5 9b3d 4575 c13d ece6 df3d
000003f0: 4b7b a33d 6f6b 943d 5910 943d db7a b03d

net.2.bias f4 [256]
0.10891025 0.098319694 0.11301293 0.015328136 -0.005796627 0.10974117 0.1359654 0.12157751
0.08081672 0.00085846195 -0.042401217 -0.043569125 0.09242824 0.0022994985 0.057688665 0.115260914
-0.016449463 0.07887561 0.12276127 0.13189133 -0.023985473 0.0860484 0.09813877 -0.0043677525
0.05586808 -0.015717594 0.06353314 0.0014684553 0.08063531 0.05739212 0.061582297 0.029293234
0.06276236 -0.04746876 0.11899956 0.120741695 0.055829145 0.03115513 0.029242061 -0.013592516
0.1092771 0.06503955 0.08174564 0.057554625 -0.048391934 0.12748812 0.051412404 0.033848446
-0.03890508 0.11122963 -0.005644726 0.13005291 -0.030715413 0.13160889 -0.005062429 0.11463838
0.09940114 0.12564158 0.0884908 0.06920857 0.08236504 0.08086997 0.09563443 0.00094080163
0.06504908 0.08651083 0.059531763 0.026147567 0.11059884 0.0027093077 -0.042974453 0.06097652
-0.008505656 -0.0032189195 0.06001561 0.10113984 0.052253705 0.10178857 0.090802856 0.072760046
0.0060874866 0.08933992 0.058121953 0.07600643 0.126479 0.11389911 0.08756757 -0.03735019
0.033672575 0.11246545 -0.006145562 0.06169273 0.021279821 0.06434626 -0.044025596 0.0018192946
0.10320202 0.07485136 0.0043069143 0.071014814 0.06584268 0.1096283 0.063514866 0.0822057
0.1279791 0.07750253 -0.0017030657 0.018523319 -0.009726251 0.10392221 0.13117108 -0.012803433
0.119445056 0.10738869 0.10353463 0.10932148 -0.052322462 0.050426614 0.030399678 0.053966504
-0.027699191 0.11989592 -0.010316302 0.07042844 0.012192322 0.065854356 -0.040373903 0.09773018
0.005185983 -0.038692787 0.114687145 0.12808357 0.13919367 0.06032184 -0.031298093 0.013152146
0.059695862 -0.019690054 0.10766875 -0.019284165 0.0738879 0.022809755 0.13767727 0.08655868
0.10775219 0.06858804 0.08160634 0.07819267 0.05769084 -0.023310214 0.06397976 0.09687251
0.11635127 0.07868279 -0.04347259 0.051969722 -0.03926744 -0.020861547 0.1209665 0.12782247
0.089529194 0.013653896 0.12473084 -0.024506096 0.12139164 0.08109795 -0.030294959 0.014794092
0.063615866 0.08434548 -0.011466529 0.08898125 0.06868348 0.05748818 -0.0022023756 -0.02203939
0.0928803 0.08389233 0.06530368 0.12423743 0.00022361669 -0.04203553 0.12512077 0.13092731
0.077927895 -0.026203029 0.11166462 0.106159 -0.013420909 0.13146278 0.03749248 -0.01907025
0.110845976 0.051189587 0.079878576 -0.0010337404 0.018897679 0.077182464 -0.00084239367 0.08317328
0.07972102 0.009414934 -0.015955849 0.13898708 0.13540787 -0.025545169 0.024743106 -0.05255886
0.03307968 0.04984858 0.12165313 0.028495708 0.13230859 0.09548101 0.08223747 -0.009192645
-0.027524566 -0.03830486 0.06984451 -0.015307495 0.12275821 0.10378896 0.074476406 0.06941331
0.011859829 0.119631685 0.13511813 0.010830832 0.05120918 0.0995537 0.12531313 -0.044237103
0.11421352 0.11114766 0.0518888 0.06833187 0.07631156 0.11771051 0.129963 0.10003208
0.0728585 0.10406865 0.09142797 0.02579572 -0.017245423 0.023764146 0.036368676 0.075216845
-0.036730878 -0.0024417122 -0.013470913 -0.022978665 -0.031749573 0.059222236 0.121802896 0.042803578
00000000: 560c df3d d65b c93d 5373 e73d dd22 7b3c
00000010: a2f1 bdbb fbbf e03d 843a 0b3e a1fd f83d
00000020: 3d83 a53d 680a 613a e6ac 2dbd 8a75 32bd
00000030: 044b bd3d 2fb3 163b f34a 6c3d ea0d ec3d
00000040: 06c1 86bc 8989 a13d 436a fb3d 850e 073e
00000050: 2f7d c4bc 253a b03d fbfc c83d 5d1f 8fbb
00000060: eed5 643d 2fc2 80bc aa1d 823d 2f79 c03a
00000070: 2024 a53d 0014 6b3d b83d 7c3d 5df8 ef3c
00000080: 8d89 803d 9a6e 42bd 0bb6 f33d 6c47 f73d
00000090: 1aad 643d 0b39 ff3c 0c8d ef3c 25b3 5ebc
000000a0: accc df3d 7533 853d 426a a73d 66be 6b3d
000000b0: 9f36 46bd 3f8c 023e d095 523d aba4 0a3d
000000c0: ef5a 1fbd 5ccc e33d 65f7 b8bb 972c 053e
000000d0: e49e fbbc 7bc4 063e bbe2 a5bb 87c7 ea3d
000000e0: d392 cb3d 30a8 003e aa3a b53d 39bd 8d3d
000000f0: 01af a83d 289f a53d fcdb c33d 21a0 763a
00000100: 7438 853d 972c b13d 94d7 733d 6c33 d63c
00000110: a581 e23d a48e 313b fb05 30bd 84c2 793d
00000120: 4f5b 0bbc 82f4 52bb eed2 753d 6822 cf3d
00000130: fb07 563d 8776 d03d d9f6 b93d 3803 953d
00000140: 8a79 c73b d9f7 b63d 4911 6e3d 42a9 9b3d
00000150: b683 013e f043 e93d a056 b33d 83fc 18bd
00000160: 41ec 093d 4954 e63d b660 c9bb 84b1 7c3d
00000170: 0553 ae3c f9c7 833d 2f54 34bd 6675 ee3a
00000180: 955b d33d ab4b 993d 0421 8d3b 3770 913d
00000190: 87d8 863d cd84 e03d 1514 823d 765b a83d
000001a0: f40c 033e a5b9 9e3d 6739 dfba 37be 973c
000001b0: da5a 1fbc 2bd5 d43d b651 063e 7ec5 51bc
000001c0: 9c9f f43d 9aee db3d f709 d43d f1e3 df3d
000001d0: 1450 56bd 238c 4e3d bf08 f93c fb0b 5d3d
000001e0: 6ae9 e2bc fe8b f53d b505 29bc c93c 903d
000001f0: 4ec2 473c a6de 863d 1b5f 25bd c326 c83d
00000200: 2eef a93b 547c 1ebd 18e1 ea3d 5728 033e
00000210: c988 0e3e 0914 773d 6e32 00bd 197c 573c
00000220: a683 743d 094d a1bc 6f81 dc3d d3f9 9dbc
00000230: 8a52 973d 86db ba3c 45fb 0c3e ad45 b13d
00000240: 2ead dc3d e377 8c3d 3a21 a73d 7b23 a03d
00000250: 3b4d 6c3d 10f5 bebc d207 833d 1865 c63d
00000260: 9349 ee3d 7124 a13d 5110 32bd 34de 543d
00000270: e5d6 20bd d6e5 aabc 49bd f73d e5e3 023e
00000280: 155b b73d 97b4 5f3c e272 ff3d 02c1 c8bc
00000290: 2e9c f83d af16 a63d 222d f8bc eb62 723c
000002a0: 0949 823d 53bd ac3d 1cde 3bbc cd3b b63d
000002b0: eda9 8c3d ba78 6b3d bb55 10bb f38b b4bc
000002c0: 0738 be3d becf ab3d f0bd 853d 3270 fe3d
000002d0: a67a 6a39 732d 2cbd a91f 003e cf11 063e
000002e0: a998 9f3d bca7 d6bc 6cb0 e43d e469 d93d
000002f0: 5fe3 5bbc 2e9e 063e b791 193d 3739 9cbc
00000300: 3703 e33d 2cac 513d 6197 a33d 927e 87ba
00000310: 4ecf 9a3c d711 9e3d 15d4 5cba c156 aa3d
00000320: c644 a33d 1841 1a3c d7b5 82bc a152 0e3e
00000330: 5ca8 0a3e 1a44 d1bc 0eb2 ca3c f647 57bd
00000340: 8f7e 073d 062e 4c3d 4725 f93d d56f e93c
00000350: e77b 073e 8c8b c33d 1e6c a83d bf9c 16bc
00000360: 337b e1bc 8fe5 1cbd a30a 8f3d 4acc 7abc
00000370: a868 fb3d 4e8f d43d 1687 983d 9128 8e3d
00000380: ba4f 423c 7501 f53d 685c 0a3e cd73 313c
00000390: b8c0 513d cfe2 cb3d 1652 003e f731 35bd
000003a0: c7e8 e93d 62a1 e33d 5a89 543d 94f1 8b3d
000003b0: 3c49 9c3d 3512 f13d 0515 053e 9fdd cc3d
000003c0: d636 953d f221 d53d 963e bb3d 8c51 d33c
000003d0: 4646 8dbc 07ad c23c 52f7 143d 4a0b 9a3d
000003e0: 1e73 16bd 2205 20bb 1bb5 5cbc c13d bcbc
000003f0: d70b 02bd 0493 723d cc73 f93d ce52 2f3d

net.4.weight f4 [128, 256]
0.12088337 0.06934413 0.12156972 -0.053658642 -0.04657489 0.111411974 0.13467279 0.086635955
0.14610526 -0.049837228 0.051370602 -0.013320811 0.04119684 0.018454108 0.11633065 0.12931739
-0.022105299 0.0640214 0.0999457 0.08454776 0.00072360307 0.032521263 0.07125605 0.027530165
0.066157304 0.024744753 0.13273723 0.0012076511 0.14553685 0.12258042 0.13954684 -0.009731522
0.115397796 -0.03728314 0.1320409 0.06416254 0.112995565 -0.035020925 0.065347895 0.07176762
0.061270867 0.06571456 0.055431414 0.02089489 0.023239221 0.044921678 0.023297848 -0.05232811
0.0018693698 0.11972121 0.032085698 0.107470095 -0.013250568 0.11031586 0.019826714 0.14366327
0.03162933 0.08958808 0.1033798 0.07226605 0.06849195 0.107972294 0.053764187 0.008946349
0.055178188 0.024722768 0.022316767 -0.044227656 0.08193896 -0.009419165 -0.0310943 0.11629409
-0.00946266 0.047557503 0.052786663 0.06483253 0.08643765 0.0226896 0.14232534 0.08535344
0.06461296 0.08751968 0.108534165 0.044408567 0.1305614 0.049351264 0.10492802 -0.014304052
-0.00077564927 0.116751745 0.027818166 0.13519008 -0.036319055 0.06342372 0.0067471927 0.031156821
0.097547926 0.07056386 0.06312415 0.022198645 0.051550318 0.081538126 0.101451024 0.12941982
0.10233596 0.143857 -0.022543868 -0.027990848 -0.028501235 0.07794579 0.05988322 -0.04131421
0.060729448 0.053581573 0.07185167 0.06275729 -0.045696843 0.06927721 0.0045617074 0.10724381
-0.04076935 0.12408586 0.0036332428 0.12825407 -0.04482574 0.08167967 0.056088015 0.1303615
0.049898356 -0.049232997 0.042137697 0.10663091 0.064564966 0.029087212 0.03891156 -0.04254554
0.12282107 0.0022111733 0.14463276 -0.0542969 0.08465162 -0.028351963 0.06719723 0.13268577
0.085805826 0.13758364 0.08809884 0.08534427 0.11082124 0.030323155 0.06442769 0.13852859
0.021870675 0.12478666 0.04367612 0.10146593 0.024673205 -0.008757587 0.12549537 0.028716814
0.09995414 0.046307508 0.06253783 -0.0011404285 0.07377025 0.045027915 0.02501776 0.0025944181
0.06340471 0.061901044 0.04548369 0.09069434 0.07221076 0.13473053 -0.042359054 0.009816226
0.10260898 0.07528014 0.13082585 0.027575143 0.037064847 0.036668114 0.10121669 0.030632678
0.08900018 0.042835295 0.113723524 0.08931359 -0.051320408 0.12517919 -0.0057738423 0.044725258
0.10425806 0.13827968 0.14342225 -0.037284553 -0.04488911 0.06302805 -0.027036784 0.14224675
0.12695284 0.0321524 0.050655037 0.031637702 0.13337393 0.06264874 0.053370886 0.04976583
0.07631769 0.12654585 0.043252792 -0.0003992647 0.14687586 0.08142168 0.0664079 -0.02819397
0.007352189 0.060405113 0.08129848 0.01772179 0.12802936 0.1417456 0.055529736 0.044042062
-0.035087526 0.021364333 0.041992236 -0.047948364 0.10714983 0.027796494 0.060471278 0.0030987419
0.12873207 0.072165735 0.14153476 0.042303413 0.10568507 0.08501726 0.08131007 0.06641515
0.052924518 0.1358289 0.071444474 -0.048860688 0.019728525 0.0076769167 0.03207262 0.052225452
0.03064148 -0.030137945 0.042630326 -0.029026961 0.060663626 0.027045546 0.02752174 0.0631029
00000000: b391 f73d 4c04 8e3d 8cf9 f83d 2ac9 5bbd
00000010: 50c5 3ebd f62b e43d aae7 093e 316e b13d
00000020: 9e9c 153e 1f22 4cbd fb69 523d 883f 5abc
00000030: 05be 283d 122d 973c c43e ee3d c76b 043e
00000040: 2c16 b5bc a71d 833d 55b0 cc3d 6027 ad3d
00000050: 2eb0 3d3a 0435 053d b1ee 913d f186 e13c
00000060: 7b7d 873d 82b5 ca3c 45ec 073e 0c4a 9e3a
00000070: 9d07 153e 710b fb3d 5ee5 0e3e f670 1fbc
00000080: ae55 ec3d 35b6 18bd bb35 073e a667 833d
00000090: 386a e73d 1a72 0fbd 1ed5 853d e7fa 923d
000000a0: 29f7 7a3d 5b95 863d 0d0c 633d c32b ab3c
000000b0: 2e60 be3c cbff 373d 21db be3c 0056 56bd
000000c0: a405 f53a 6530 f53d 4b6c 033d 4819 dc3d
000000d0: e918 59bc 48ed e13d a26b a23c 771c 133e
000000e0: c28d 013d f579 b73d cab8 d33d 3900 943d
000000f0: 8245 8c3d 9420 dd3d d637 5c3d b593 123c
00000100: 8602 623d 6787 ca3c a7d1 b63c 0f28 35bd
00000110: 9dcf a73d d752 1abc 79b9 febc 992b ee3d
00000120: 4609 1bbc a8cb 423d d436 583d ebc6 843d
00000130: 3906 b13d 8adf b93c bcbd 113e c9cd ae3d
00000140: cd53 843d 853d b33d 2947 de3d c2e5 353d
00000150: e3b1 053e 8d24 4a3d 80e4 d63d 8b5b 6abc
00000160: f154 4bba 8a1b ef3d ece2 e33c 456f 0a3e
00000170: 4ac3 14bd 4ce4 813d 8e17 dd3b 973c ff3c
00000180: 35c7 c73d c983 903d 3c47 813d efd9 b53c
00000190: 6d26 533d 76fd a63d 8ec5 cf3d a186 043e
000001a0: 8495 d13d 404f 133e ebad b8bc 104d e5bc
000001b0: 6c7b e9bc 0ba2 9f3d 1b48 753d 1739 29bd
000001c0: 71bf 783d 5a78 5b3d f826 933d e586 803d
000001d0: 9d2c 3bbd 36e1 8d3d 607a 953b a5a2 db3d
000001e0: c3fd 26bd ba20 fe3d b31b 6e3b 0955 033e
000001f0: 329b 37bd ac47 a73d 8cbc 653d 7c7d 053e
00000200: 3862 4c3d 8aa8 49bd 9498 2c3d 4e61 da3d
00000210: a33a 843d 4e48 ee3c ba61 1f3d 3b44 2ebd
00000220: 9d89 fb3d 55e9 103b 9c1a 143e 6d66 5ebd
00000230: d45d ad3d 6042 e8bc b49e 893d c7de 073e
00000240: f7ba af3d bae2 0c3e 2a6d b43d fac8 ae3d
00000250: 3ff6 e23d 4468 f83c aaf2 833d 70da 0d3e
00000260: 212a b33c 2690 ff3d bbe5 323d 5fcd cf3d
00000270: 761f ca3c fb7b 0fbc dc81 003e 863f eb3c
00000280: c2b4 cc3d f1ac 3d3d d513 803d 6e7a 95ba
00000290: db14 973d 316f 383d 0cf2 cc3c 1d07 2a3b
000002a0: 54da 813d f38b 7d3d 1b4d 3a3d f4bd b93d
000002b0: 3ce3 933d cdf6 093e b080 2dbd 3cd4 203c
000002c0: a824 d23d 792c 9a3d 36f7 053e 44e5 e13c
000002d0: 4fd1 173d 4e31 163d b24a cf3d 62f1 fa3c
000002e0: ba45 b63d 1074 2f3d e1e7 e83d 0bea b63d
000002f0: 5935 52bd f92e 003e 8032 bdbb d531 373d
00000300: 4085 d53d 3099 0d3e 48dd 123e b0b7 18bd
00000310: a5dd 37bd da14 813d 3f7c ddbc 22a9 113e
00000320: edff 013e 3cb2 033d a87b 4f3d 8996 013d
00000330: 2d93 083e fc4d 803d 6e9b 5a3d 41d7 4b3d
00000340: 734c 9c3d 3c95 013e d729 313d 6754 d1b9
00000350: a066 163e 69c0 a63d dd00 883d 0af7 e6bc
00000360: a2ea f03b 5a6b 773d d17f a63d 4a2d 913c
00000370: 211a 033e c225 113e 2673 633d 7365 343d
00000380: f0b7 0fbd 4104 af3c 0d00 2c3d 8165 44bd
00000390: 5f71 db3d 79b5 e33c bbb0 773d 4314 4b3b
000003a0: 57d2 033e a1cb 933d 7dee 103e 5846 2d3d
000003b0: 6a71 d83d 871d ae3d e585 a63d ab04 883d
000003c0: 61c7 583d bb16 0b3e 7b51 923d 2522 48bd
000003d0: b79d a13c a58e fb3b 945e 033d 5bea 553d
000003e0: d703 fb3c dae3 f6bc 239d 2e3d f3c9 edbc
000003f0: 6c7a 783d 9f8e dd3c 4675 e13c 183c 813d

net.4.bias f4 [128]
0.10584523 -0.07058555 0.096725516 -0.012251814 0.08545269 0.060329612 -0.029296368 0.11627102
0.11655887 -0.05548417 0.053937398 -0.02314503 -0.013924757 -0.04209297 -0.013492358 0.032067694
0.0068367445 -0.04725385 0.07220112 -0.0010989762 -0.029670747 0.05012306 0.029973308 -0.020328803
0.0955192 0.035889044 0.010619147 0.07691131 0.14030416 -0.04336729 -0.051059306 -0.038803045
0.05240362 0.066746995 0.021779168 0.047944687 0.085969366 0.03250846 0.1129983 0.14379422
0.10608201 0.13078593 -0.056806747 0.03231888 0.124011226 0.14775406 0.08623025 0.010417855
-0.00874459 -0.037360508 0.13570301 -0.062343396 0.12271404 0.046886478 0.027395418 0.008730165
-0.054715224 0.11764823 0.0167117 -0.030464433 -0.048570625 0.1457548 0.13197762 0.031248065
-0.050930176 -0.02449141 0.072195746 0.07834016 0.110933214 0.07887044 0.120165326 0.13495946
0.14920254 0.06832541 0.041786503 0.119025685 0.047832623 0.050153572 0.04664807 0.03809535
0.121234834 0.0910456 -0.051572636 0.048333537 -0.062052485 0.10177981 0.0712609 0.02844083
0.07140435 0.08259808 0.01414664 0.05148745 0.08057553 -0.024742346 0.0059350054 0.1319084
0.07625976 0.049787626 0.09191771 -0.041771345 0.12399368 0.12048466 0.031620834 0.13363615
0.043484017 0.062454864 0.09353064 0.015947182 0.03417923 -0.054043055 -0.052212827 0.15031314
0.09949286 0.049380574 -0.029238572 0.051222876 -0.0471968 0.13757113 0.08670976 -0.05844316
-0.0281751 0.05572361 -0.048743717 0.10719536 -0.008954033 0.037961166 -0.05598229 0.0020508952
00000000: 62c5 d83d 288f 90bd 0718 c63d d5bb 48bc
00000010: d201 af3d 2f1c 773d f0fe efbc 801f ee3d
00000020: 6bb6 ee3d 5e43 63bd 76ed 5c3d a59a bdbc
00000030: aa24 64bc ae69 2cbd 0d0f 5dbc 6a59 033d
00000040: c506 e03b 418d 41bd 2ede 933d 860b 90ba
00000050: 1110 f3bc d64d 4d3d 958a f53c 9788 a6bc
00000060: 929f c33d 6400 133d eefb 2d3c ad83 9d3d
00000070: e5ab 0f3e e6a1 31bd 9023 51bd f1ef 1ebd
00000080: 2ea5 563d a6b2 883d 3a6a b23c a661 443d
00000090: b510 b03d 9727 053d a76b e73d cb3e 133e
000000a0: 8641 d93d bfec 053e 31ae 68bd cd60 043d
000000b0: 99f9 fd3d d74c 173e 7c99 b03d a7af 2a3c
000000c0: 7845 0fbc 5507 19bd bbf5 0a3e ca5b 7fbd
000000d0: 8051 fb3d 090c 403d 5b6c e03c f708 0f3c
000000e0: 121d 60bd 8ef1 f03d fae6 883c 8c90 f9bc
000000f0: fef1 46bd bf40 153e 2425 073e f1fb ff3c
00000100: 299c 50bd 36a2 c8bc 5ddb 933d ce70 a03d
00000110: f430 e33d d386 a13d 3d19 f63d d032 0a3e
00000120: 8dc8 183e 31ee 8b3d 5328 2b3d bdc3 f33d
00000130: 24ec 433d d56d 4d3d 0c12 3f3d df09 1c3d
00000140: f849 f83d 1e76 ba3d d43d 53bd 63f9 453d
00000150: bf2a 7ebd ef71 d03d 3cf1 913d befc e83c
00000160: 723c 923d 2f29 a93d 4fc7 673c 81e4 523d
00000170: c904 a53d 76b0 cabc 6f7a c23b ff12 073e
00000180: 142e 9c3d 1cee 4b3d 5a3f bc3d 6e18 2bbd
00000190: 66f0 fd3d a9c0 f63d d984 013d ead7 083e
000001a0: 4c1c 323d acd0 7f3d fe8c bf3d aaa3 823c
000001b0: 85ff 0b3d 405c 5dbd 1edd 55bd b0eb 193e
000001c0: eac2 cb3d 4943 4a3d bb85 efbc 14cf 513d
000001d0: 6f51 41bd 72df 0c3e e394 b13d 1862 6fbd
000001e0: 78cf e6bc 713e 643d 7ea7 47bd 3e89 db3d
000001f0: f0b3 12bc 2b7d 1b3d b04d 65bd 5068 063b

net.6.weight f4 [64, 128]
0.01764975 -0.055910088 0.030110085 0.0956082 0.11079783 0.052172486 -0.03269622 0.13976744
0.079755396 0.019311193 0.08421774 -0.06725969 -0.07179709 0.054326996 0.09246287 0.018733295
0.043548986 0.012932526 0.1568373 -0.01699603 0.030699925 0.024448045 0.0026430401 0.034651663
0.122134745 -0.015026246 0.030601552 0.10954141 0.047557667 -0.07584735 0.026313936 0.060186647
0.09078299 0.1571261 0.031811565 0.06092828 0.1679461 0.0345996 0.113861375 0.028224196
0.15547176 0.13756147 0.03363615 0.12141764 0.10963678 0.06372899 0.09528698 0.075896904
0.049602147 0.09059424 0.09234286 0.04590083 0.11122341 0.14322774 0.059233688 0.09387353
0.06900147 0.12116391 0.12011451 0.02592388 0.04982634 0.07850086 0.07295619 0.13654774
-0.058904435 0.054608464 0.10527573 0.15500087 0.102979325 0.05000782 0.06731872 0.043645002
0.12152318 0.028227944 -0.054958507 0.14534098 -0.041669846 -0.0032963597 0.036313843 -0.064384796
0.15902585 0.15433353 0.060997695 0.1338 0.02256157 0.08171631 0.039614517 -0.06774374
0.060010433 0.04027247 0.024636973 0.14035201 0.04521618 -0.054820474 -0.06356121 0.047517978
0.075734444 0.11955822 0.15097894 0.01930327 0.1761922 0.16936591 -0.009237499 0.1417013
0.05096895 0.044639315 0.13013661 0.0038540543 0.06422234 0.08292564 0.0025375863 0.07041819
0.038423453 0.13026303 -0.06659307 0.0036703967 0.091847956 0.026204 0.1748261 -0.01601401
0.07094119 0.07344635 -0.0259499 0.060230713 0.021182008 0.13382855 0.045873325 -0.035774127
-0.029859386 0.039415233 -0.058801383 0.053770848 0.05055558 0.06639034 -0.063787095 0.0683557
-0.08532034 -0.055432968 -0.07540506 -0.08659843 -0.008126132 0.07409365 0.069587804 -0.023484364
-0.047430545 -0.07335387 -0.07838051 0.054953717 -0.026180338 0.060956158 -0.022480026 0.018234842
0.075621344 0.029340424 -0.06528233 0.039126255 -0.0034307241 -0.072788015 -0.060368523 -0.075241104
-0.054077186 0.033345997 -0.014599718 -0.003288731 -0.06261665 -0.05276385 0.0013127774 -0.012852922
-0.07979962 0.04029908 0.062385 -0.03098885 -0.054903656 0.0013842285 0.03513284 0.027357593
-0.049465943 0.045718156 -0.01307492 0.08635006 -0.017545387 -0.008444689 0.08392257 -0.0086368695
0.05523073 -0.0559772 -0.032688696 0.013361648 -0.029837891 -0.014974132 -0.026357278 0.047710575
0.05900494 -0.04918182 -0.08203928 -0.016369805 0.045232944 0.060493417 -0.0058260933 0.08102255
-0.053369775 -0.025316589 0.08713486 -0.032873265 0.042786293 0.039403446 0.0788837 -0.012545392
-0.07084407 -0.075753056 -0.020737417 -0.036218368 0.019200489 -0.037519462 -0.040709555 -0.055146866
0.07309749 -0.045863345 0.05152946 -0.032141693 0.005096227 0.06982181 -0.05402344 0.03859269
0.0039303824 -0.022496998 -0.018408835 0.08248898 -0.07928766 0.04968456 -0.061696865 -0.0743253
0.027226672 0.074339755 0.077459104 0.084811606 -0.0074354187 0.08807615 0.03132716 0.0854732
-0.008279413 0.033307128 -0.08341303 0.018501095 0.042225994 0.07926334 0.010496989 0.02898655
-0.030784741 -0.016479574 -0.006349325 0.06366039 -0.006319754 -0.022784851 0.011574186 -0.029035196
00000000: 3596 903c fa01 65bd 6da9 f63c 3bce c33d
00000010: f9e9 e23d d1b2 553d 79ec 05bd 321f 0f3e
00000020: cc56 a33d 8232 9e3c 5a7a ac3d 73bf 89bd
00000030: 5a0a 93bd fc85 5e3d 2c5d bd3d 9176 993c
00000040: 6c60 323d f2e2 533c f599 203e 423b 8bbc
00000050: 697e fb3c 4447 c83c db36 2d3b e7ee 0d3d
00000060: c821 fa3d a530 76bc 1bb0 fa3c 3f57 e03d
00000070: d4cb 423d db55 9bbd 5390 d73c 4686 763d
00000080: 6fec b93d aae5 203e d84c 023d ef8f 793d
00000090: 10fa 2b3e 4fb8 0d3d 2730 e93d 6e36 e73c
000000a0: fd33 1f3e eadc 0c3e 0fc6 093d d0a9 f83d
000000b0: 4089 e03d 5884 823d d225 c33d d66f 9b3d
000000c0: 9f2b 4b3d 7989 b93d 411e bd3d 8202 3c3d
000000d0: 19c9 e33d 4baa 123e 069f 723d c440 c03d
000000e0: a550 8d3d c924 f83d 99fe f53d 515e d43c
000000f0: b416 4c3d 0fc5 a03d 0e6a 953d 2cd3 0b3e
00000100: c745 71bd 20ad 5f3d cd9a d73d 8cb8 1e3e
00000110: d3e6 d23d 00d5 4c3d 66de 893d 1ac5 323d
00000120: 25e1 f83d 4a3e e73c 2c1c 61bd 44d4 143e
00000130: 00ae 2abd bd07 58bb d3bd 143d 2ddc 83bd
00000140: acd7 223e 9c09 1e3e b8d8 793d de02 093e
00000150: 0bd3 b83c e15a a73d d542 223d 3bbd 8abd
00000160: 80cd 753d bff4 243d 7ad3 c93c 70b8 0f3e
00000170: 9a34 393d 6f8b 60bd 612c 82bd 36a2 423d
00000180: a91a 9b3d f1da f43d 399a 1a3e e421 9e3c
00000190: ba6b 343e 426e 2d3e e158 17bc 251a 113e
000001a0: d1c4 503d b7d7 363d 8842 053e 4d94 7c3b
000001b0: 0187 833d ebd4 a93d a24d 263b 6937 903d
000001c0: e961 1d3d ac63 053e f361 88bd 0a8b 703b
000001d0: c81a bc3d c5a9 d63c 9d05 333e d02f 83bc
000001e0: 9d49 913d 0a6b 963d e294 d4bc 7bb4 763d
000001f0: e485 ad3c 5a0a 093e abe5 3b3d e487 12bd
00000200: ac9b f4bc de71 213d b8d9 70bd d23e 5c3d
00000210: 5e13 4f3d a9f7 873d cfa2 82bd 13fe 8b3d
00000220: 6ebc aebd ae0d 63bd f86d 9abd 855a b1bd
00000230: 7823 05bc 69be 973d 0d84 8e3d 4862 c0bc
00000240: 8846 42bd 8e3a 96bd f685 a0bd 2617 613d
00000250: 2678 d6bc 2aad 793d 0828 b8bc 3c61 953c
00000260: 5ddf 9a3d 545b f03c beb2 85bd da42 203d
00000270: 00d6 60bb e211 95bd fc44 77bd 0218 9abd
00000280: 0a80 5dbd d095 083d a833 6fbc c087 57bb
00000290: 283d 80bd e81e 58bd 8011 ac3a 1095 52bc
000002a0: fc6d a3bd a610 253d 6a87 7f3d 54dc fdbc
000002b0: a8e2 60bd 006f b53a 74e7 0f3d 081d e03c
000002c0: cd9c 4abd f642 3b3d 3038 56bc 4dd8 b03d
000002d0: 58bb 8fbc 985b 0abc 99df ab3d a881 0dbc
000002e0: 9e39 623d 5948 65bd 95e4 05bd d0ea 5a3c
000002f0: 986e f4bc 1056 75bc 38eb d7bc 2a6c 433d
00000300: 2aaf 713d e072 49bd 3604 a8bd f819 86bc
00000310: 2e46 393d f2c7 773d d0e8 bebb 27ef a53d
00000320: 449a 5abd bc64 cfbc c373 b23d 1ea6 06bd
00000330: ae40 2f3d 8265 213d c78d a13d 308b 4dbc
00000340: b216 91bd 6b24 9bbd 84e1 a9bc b659 14bd
00000350: 584a 9d3c 02ae 19bd 10bf 26bd aee1 61bd
00000360: 23b4 953d 34db 3bbd 8e10 533d 02a7 03bd
00000370: 40fe a63b bdfe 8e3d af47 5dbd 5e13 1e3d
00000380: 70ca 803b a04b b8bc 20ce 96bc fbef a83d
00000390: 9261 a2bd 0a82 4b3d dab5 7cbd dd37 98bd
000003a0: 780a df3c 713f 983d e1a2 9e3d b5b1 ad3d
000003b0: d0a4 f3bb 4561 b43d e850 003d 930c af3d
000003c0: 60a6 07bc 0e6d 083d 73d4 aabd 9c8f 973c
000003d0: 2af5 2c3d d154 a23d 90fb 2b3c 3475 ed3c
000003e0: 4830 fcbc 2c00 87bc 000e d0bb 6160 823d
000003f0: f015 cfbb 4ca7 babc a8a1 3d3c 38db edbc

net.6.bias f4 [64]
0.12256918 -0.081871144 0.06097643 0.008122552 -0.010899758 0.14196539 -0.04772148 -0.038526446
-0.030193947 0.074608244 0.05603553 0.04242356 0.034500815 0.0008363212 0.011909127 -0.012049003
-0.09181191 -0.0554931 -0.033894822 -0.07771029 0.0021267105 0.14590135 0.019059956 0.14726295
-0.08468767 0.046240143 0.1253654 -0.07074708 -0.013245759 0.15420938 -0.0714378 0.018470274
-0.06770989 0.05593932 0.16456681 0.15467465 0.1324458 -0.06755112 -0.04245362 -0.002797477
-0.026711447 0.12410541 0.1176912 0.08081136 -0.023982923 -0.013099253 -0.068494506 -0.04390218
0.007755256 0.025744835 0.0030763093 0.052617777 0.06300545 0.17198977 0.010137013 -0.009947532
0.05160399 0.07557711 -0.09571944 -0.029737934 0.10124612 0.012652946 -0.06953804 0.022816408
00000000: 8d05 fb3d 0fac a7bd 6cc2 793d 7414 053c
00000010: e694 32bc 605f 113e 9977 43bd e8cd 1dbd
00000020: 4c59 f7bc 35cc 983d 8385 653d 54c4 2d3d
00000030: ba50 0d3d 913c 5b3a 801e 433c 2e69 45bc
00000040: e207 bcbd bc4c 63bd 4cd5 0abd 9326 9fbd
00000050: 4860 0b3b 2a67 153e a023 9c3c 19cc 163e
00000060: bb70 adbd 4e66 3d3d ca5f 003e d8e3 90bd
00000070: bd04 59bc 10e9 1d3e fb4d 92bd f94e 973c
00000080: 7cab 8abd a120 653d 3484 283e 0863 1e3e
00000090: df9f 073e 3e58 8abd d9e3 2dbd e055 37bb
000000a0: f7d1 dabc fa2a fe3d 1508 f13d 6d80 a53d
000000b0: d677 c4bc 409e 56bc d946 8cbd c6d2 33bd
000000c0: cd1f fe3b d5e6 d23c e89b 493b bd85 573d
000000d0: 0009 813d 161e 303e b715 263c f9fa 22bc
000000e0: b55e 533d 2cc8 9a3d 8e08 c4bd f89c f3bc
000000f0: 205a cf3d 4d4e 4f3c f669 8ebd 7ae9 ba3c

net.8.weight f4 [1, 64]
0.090020716 0.08797611 0.007853532 0.18564567 0.08769005 0.15147357 -0.11101484 -0.063436106
-0.07370667 -0.076566 -0.11482395 0.20942491 0.12148501 -0.112140246 -0.11321028 0.18902284
-0.042549007 0.07693687 -0.045012534 -0.1177942 -0.06422374 0.116498746 0.10947867 0.20867799
-0.031848922 -0.0010860822 0.20503783 0.10925318 -0.067636564 0.20711178 -0.024824262 -0.08400088
-0.057004284 0.19148625 0.106412284 0.08778371 0.12154424 -0.017084405 -0.08737364 -0.022649964
-0.035183627 0.1393236 0.13218014 0.18301445 -0.08924035 -0.044649795 -0.100645274 -0.045603752
0.06563123 0.09052629 -0.0037672664 -0.08406909 0.100778416 0.09086848 0.19576688 -0.08864976
-0.028255444 -0.01596828 0.00946568 2.681337e-05 0.08627562 0.1048724 0.0960342 -0.08359447
00000000: c85c b83d d22c b43d 1aac 003c e619 3e3e
00000010: d796 b33d e31b 1b3e c05b e3bd caea 81bd
00000020: 86f3 96bd a3ce 9cbd d228 ebbd 7c73 563e
00000030: 22cd f83d c9a9 e5bd cbda e7bd 348f 413e
00000040: de47 2ebd 1491 9d3d 105f 38bd 163e f1bd
00000050: bc87 83bd e596 ee3d 5a36 e03d afaf 553e
00000060: 0474 02bd df5a 8eba 70f5 513e 22c0 df3d
00000070: 0a85 8abd 1c15 543e 405c cbbc a708 acbd
00000080: 537d 69bd f914 443e afee d93d f2c7 b33d
00000090: 30ec f83d 98f4 8bbc f3f0 b2bd 6b8c b9bc
000000a0: b51c 10bd d9aa 0e3e 3b5a 073e 2468 3b3e
000000b0: a5c3 b6bd b4e2 36bd 1c1f cebd 00cb 3abd
000000c0: ab69 863d d965 b93d 3ee4 76bb 6a2c acbd
000000d0: ea64 ce3d 4119 ba3d 1d77 483e 018e b5bd
000000e0: f677 e7bc e9cf 82bc f115 1b3c 46ed e037
000000f0: 46b1 b03d 57c7 d63d 94ad c43d 9433 abbd
