app/models/performance.pt (torch, 729573 bytes, 10 tensors)

net.0.weight f4 [512, 16]
00000000: 67db 7f3c 9c63 b7bd 2b56 1cbe fe55 4bbe
00000010: 80a2 96bc aa5d 20bb 4c69 793d 0aa8 0e3e
00000020: b1c9 50be 6f13 5a3e ebc0 433e d277 c83d
00000030: 7d87 3ebe ad29 43be 7a94 16bd 11cf 42be
00000040: 0821 c8bd 19b0 57be ddba 853d a0dc 083d
00000050: eb02 183c 311c 523e 7cf5 35be 78ae fdbd
00000060: 2d66 623e fce0 f2bd 99ba 28be 0b12 5abe
00000070: 4602 94be 7d44 12bd 3a2b 733d d64e 1c3d
00000080: e512 953d 06d6 69be f49e 3bbe d343 f5bd
00000090: e123 223e 7fb9 cbbd 9161 713d 7654 cabd
000000a0: e9b4 07be 73ce 093e 77ff 2d3e 6f22 ae3d
000000b0: 5400 413d 712f aabd f721 363e 5a67 ce3d
000000c0: a7b1 563e 2aca f2bd 7397 4fbe 54db b73d
000000d0: 1cb0 c73d a939 3dbd 0e0e 44be b4a9 15be
000000e0: ebed 1bbe 52de 39be 6b10 06bd 1939 343e
000000f0: 03bd 0abe 4d96 d5bd afd6 84be 176a b53d
00000100: ca70 fcbd 43ae 593e 9363 793e d6d1 cebd
00000110: b54a 8c3e 1f91 963e e129 2bbd 9617 013e
00000120: 131a 183e 35c1 b5bd 2ca1 0f3e 892f 3b3e
00000130: 485b b7bc bdf6 9d3c 5729 4ebe a208 593e
00000140: 197e d9bd 6975 45bd 516c 0abe c60b 143e
00000150: 65df 35bd 2346 793e 0dd0 34bd 2d82 2fbe
00000160: 3186 583e 1107 423d 9660 203e 4ca2 043e
00000170: d425 543d 0010 c6bd 5c1d 86be f9be e9bb
00000180: d66b be3d 1a6c 5ebe ca6c 9c3e 44fd 8c3e
00000190: 0cb5 1a3e 2c87 703d 385f 323e 22a3 62be
000001a0: 7266 373e 73d8 793e 1d54 3cbe 3061 9c3d
000001b0: 085d 4bbd 0c97 27be c089 91be de2a f3bd
000001c0: 3cb6 b13d 2638 95be 5475 873c bb16 b53d
000001d0: 199a 2e3e 7134 293e 0e54 88bc eaaf 023e
000001e0: 253a 45bd bea4 2ebd b5fb a93d e9f1 1bbc
000001f0: fdae 52bb 2cdc 60be d3a2 f8bc 619a 66be
00000200: 4bb7 01be cb03 913e 1433 34bd c686 1cbe
00000210: f979 aabe 1961 47be b562 893d ebb1 1d3e
00000220: 953e 423e 40aa 5e3e 6888 d03d 72ac a23e
00000230: 9c95 bb3d 538c 67be bb16 aebd 7c63 21bd
00000240: 7d91 60be ff11 243e c51e 85be 28f0 713e
00000250: e2d6 e5bd eac9 08be 4a72 04be a26d 803d
00000260: 38ff 0abe a0d5 31be bb71 5dbe 4e8b 50be
00000270: 3f2a 1cbe 97c7 32be a568 1e3e a1ee 95be
00000280: 126c c8bc 6801 6ebe 1435 0f3e 3f43 5ebe
00000290: da68 933e ca74 1a3e bf17 93bd 380b 0ebe
000002a0: 011f 923d c48c 643e 9afb 87be 74ed 883d
000002b0: 2274 353e c79d 66be c2b3 36be 2e36 3c3e
000002c0: a3ab 60be 6f1d a33d 5ae9 a43d 36a7 37be
000002d0: a71b 643e 6d25 863e db1c f0bd ceba 133d
000002e0: 14e7 62be 5440 4abe 4307 413e ead2 90be
000002f0: 7ee6 4f3e d430 03be e18a f9bc 9399 4fbe
00000300: 4e1d b8bd a4dd a33c 3159 6a3e 07ce 03be
00000310: 90a6 11be 7456 733d 5ff5 22be 5501 1dbe
00000320: c074 e1bd cc8b 5a3e 9acd 8b3d f688 963c
00000330: c1af a83d f438 d1bc 245b 2fbe 3460 d73c
00000340: 7975 cd3c bed2 6abe 835c 9e3e f10a 113b
00000350: 8f35 ec3d 58a4 14bd ccc3 07bd 30b3 193e
00000360: 792f 5ebe ae69 6e3e ef8e d7bd ef25 6b3e
00000370: 7ae5 f03d e99a 07be ba7c e0bc 9ecb 2f3d
00000380: a308 423e aebc bcbd 43fe 9e3d 1bfd 193d
00000390: b64d 2bbe 1969 adbd 077f 58be 99c8 99be
000003a0: 23ab 343e 537a 4a3e 7e4c 3f3e c2df a7bd
000003b0: 6e65 7b3d 491a 483e 7a2b 3dbe 9f2a 003e
000003c0: fb41 dcbd 2093 84bd 2e9e eabd a50b 303e
000003d0: 41b0 293e d637 b43d 530d 413e 0cd1 5abe
000003e0: 1f0e 10bd dd22 95bd f752 7ebe d57c 633e
000003f0: ca3b 83bc 49c8 e7bc d7d5 5f3e bcbb 46bd
0.015616274 -0.08954546 -0.15267245 -0.19857022 -0.018388033 -0.002446989 0.060891435 0.1393129
-0.20389439 0.21296476 0.19116561 0.09788479 -0.18606372 -0.19058867 -0.036762692 -0.19024302
-0.09771925 -0.2106327 0.06529782 0.03341353 0.009278039 0.20518567 -0.17769426 -0.12386793
0.2210929 -0.118593186 -0.16477431 -0.21295945 -0.28907984 -0.035709847 0.059367396 0.03816112
0.072789945 -0.2283555 -0.18322355 -0.11975827 0.15833999 -0.0994749 0.058930937 -0.09879391
-0.13252605 0.1345766 0.16991983 0.085026614 0.047119454 -0.0830983 0.17786394 0.100783065
0.20966206 -0.11854966 -0.20272617 0.089773804 0.09750387 -0.046197567 -0.19145986 -0.14615518
-0.15227477 -0.18151215 -0.0327305 0.17599906 -0.13548665 -0.10429058 -0.2594504 0.08858126
-0.123262 0.21257882 0.24354391 -0.10098617 0.27400747 0.29407594 -0.041787986 0.12606654
0.14853697 -0.08874742 0.14026326 0.18279852 -0.022382393 0.019282693 -0.20132957 0.211947
-0.10619754 -0.048207674 -0.13517882 0.14457616 -0.0444025 0.24343161 -0.044143725 -0.17139502
0.2114494 0.04737002 0.15661845 0.12952536 0.05179389 -0.096710205 -0.26194274 -0.0071333614
0.09297912 -0.21720925 0.3055175 0.27536976 0.15108126 0.05872266 0.17419136 -0.22132543
0.17910174 0.24398975 -0.18391462 0.076357245 -0.04964927 -0.16366214 -0.28425407 -0.11873411
0.086773366 -0.291444 0.016535439 0.08842226 0.17050971 0.16523911 -0.016641643 0.12762418
-0.048151154 -0.04263758 0.082999624 -0.009518125 -0.0032147758 -0.21958989 -0.030351078 -0.22519828
-0.12667577 0.28323206 -0.043994024 -0.15285787 -0.33296183 -0.19470634 0.0670828 0.15399902
0.18969186 0.21744633 0.101822674 0.3177219 0.09159395 -0.22612123 -0.08500429 -0.039401516
-0.219305 0.1602249 -0.26000038 0.23626769 -0.11222626 -0.13358274 -0.12934223 0.06270911
-0.1357392 -0.17366648 -0.21625416 -0.2036564 -0.1525049 -0.1745895 0.15469606 -0.29283622
-0.024465594 -0.23242724 0.13985091 -0.2170534 0.28790933 0.15083614 -0.071822636 -0.13871467
0.0713482 0.22319323 -0.26559144 0.066859156 0.17720082 -0.22521125 -0.1784201 0.18380043
-0.21940474 0.079645984 0.08052321 -0.1793488 0.22276174 0.2620043 -0.11724254 0.036066823
-0.22158462 -0.19751102 0.18850426 -0.28285915 0.2030277 -0.12811595 -0.03046173 -0.20273428
-0.089899644 0.020003147 0.22885586 -0.12871562 -0.14223695 0.05940862 -0.15913914 -0.1533254
-0.110085964 0.21342391 0.06826325 0.018375855 0.082366474 -0.025539853 -0.17124611 0.02629099
0.02508043 -0.22931954 0.30929956 0.0022131766 0.11533653 -0.036289543 -0.03314571 0.15009761
-0.21697797 0.23282501 -0.10525309 0.2296369 0.11762519 -0.13242687 -0.027403224 0.042918794
0.18948607 -0.09215675 0.0776334 0.037594896 -0.16728863 -0.084673114 -0.21142207 -0.30035856
0.17643408 0.19773225 0.18681523 -0.08196975 0.061376028 0.19541277 -0.18473616 0.12516259
-0.10754772 -0.06473374 -0.11455952 0.17191942 0.16571142 0.08799712 0.18852739 -0.21368808
-0.035169717 -0.0728204 -0.24836336 0.22215588 -0.01601972 -0.028293746 0.21858917 -0.04851888

net.0.bias f4 [512]
00000000: 4f38 743e 4615 8bbd afe6 e8bd 4bf8 023e
00000010: e419 3dbd 63cc c6bc 4f1e 7d3d 9155 c3bc
00000020: 3036 ebbc 1cd8 4dbe b018 a3bd 5d43 3f3e
00000030: 8ea3 753e 3591 663e ff52 70be d44e 17bd
00000040: 5af9 833e 2d98 5d3b ec6d 68be 9752 85bd
00000050: 03b1 773e 89ad 6a3e cf6b d93d d643 833e
00000060: 5f52 39be 7d0f 023e 6e8b 6d3d 89ad a8bd
00000070: 5513 223e d38f f33d a586 fabd f1cb 61be
00000080: 6023 443e 8f3c 00bd 9562 403e 80df 5cbe
00000090: 273e 453e f974 0cbe 8230 013d 6ea2 5fbe
000000a0: 37da 3dbe 61d6 f83c 8df9 43bd 1d0f a63d
000000b0: 3c5d 3c3e 64fd 55be 170f 0a3e 4855 2c3e
000000c0: 1b18 393e e3c3 283e 332c 093e 298b a53c
000000d0: 88f0 003e 9c05 1d3e 2fa6 ffbd 9868 a13d
000000e0: b5f2 12bd 46b8 cabc 3df1 dcbd 78cb a2bd
000000f0: 1815 073e e1e2 643e 2ffe 19bd f1ed 14be
00000100: b5be 7ebd 3ddb 753d ee8f bbbc f6dc 323e
00000110: 78c1 0abc 489f 783e b4ce 053d 9e6e ddbc
00000120: 7afb c53c 762b 5c3e 848d 68be aaea fb3d
00000130: 925e 583e 2a68 14be 69ce 0d3d bd9c 2cbe
00000140: 185e fd3d 1975 093d c2d3 e6bd c0ec 583b
00000150: 3dc7 60be 4e1f cbbd a155 59be f053 4c3b
00000160: 39df 66be d005 ccbd 9400 573d a75b f9bd
00000170: a8a7 6abd e24d 0f3e a4fd 263e 124a 563d
00000180: 22ae cabc 90ec 4a3c 85ec 41be 8466 1ebe
00000190: f509 d8bd 23e6 6c3e cd58 d93d 6159 363e
000001a0: 48b1 393d d46d e3bc 4361 363d e5ce 3cbe
000001b0: d986 483d 3e43 6fbd 2fb9 4e3d da39 1ebe
000001c0: ef60 45be 2ee1 5cbe ac7f 703e 8b62 733e
000001d0: 9828 2f3e ca0a 8e3e 95fc 4d3e b8b8 7c3e
000001e0: dfe5 5fbe 3770 53be dbdf f83b d4e1 763d
000001f0: f7ea 323e c674 f13d fd6a 0a3e 6c15 843e
00000200: ddc4 0b3e f2ef 533e 1430 ba3d d7a2 35be
00000210: 9ddd d4bb 906f 283e 83b0 05be 46b2 7cbe
00000220: 304b 3f3c 931a 573e 7356 343e 7041 783e
00000230: 3ed5 01be 2edf 9dbc d723 833e 8bf3 b73d
00000240: fd6a 4abe 162a 6a3e 37b9 413d 3f94 dfbc
00000250: c14c 85bc bfad c93d 3efe 953d ec3b 583e
00000260: 662a e53c 0f1e a53d 80f4 023e 1511 f3bd
00000270: 534c 2c3e c5fc 24be b85c 0a3e 5504 3bbe
00000280: b42f 9cbd 65e9 63be e03f de3c 1107 843e
00000290: 6813 8a3d 949a a7bc fa71 72bd 543a b7bd
000002a0: f67d dfbc 6120 64be dcfa 0a3e 49c7 abbc
000002b0: c2c6 9fbc 9e70 813d 7312 683d 63db 32be
000002c0: 4155 8d3e c37a 613e 69aa 5a3e 390c 313e
000002d0: 9599 323e 74e3 60bd ca4a df3d 6f9d cdbd
000002e0: 37c3 02be c31c 223e dca3 a43d 03b8 e1bd
000002f0: 2f58 c1bd d9c9 39be 9821 bdbd e01e 783e
00000300: 54d6 4a3c 80af b03d 6d62 213d 895f 773d
00000310: 7827 72be 6940 afbc 6f6f 2abd 4c98 883e
00000320: 7949 0c3e f48e 253e dfa8 763e 699f 01bd
00000330: 06e7 3fbe 0cf3 393e a65a 3cbe 6404 fc3d
00000340: f7f9 4cbe c3cd 923e 0e16 49be 5a6a 4bbb
00000350: 978f f0bd 9023 073e 0782 523e ed10 e2bd
00000360: 8b14 8abe b24f 713e e936 25be 3687 343e
00000370: 24e1 23be 4415 8abc 6102 35be 2ddb 2b3e
00000380: b1c2 6ebe 5538 32be 0c84 823e bad2 49be
00000390: c01e fdbd 057c d4bc 950b c73b 7079 86be
000003a0: 9703 2d3e 5110 ae3d e21d 6b3e 3f1a c03d
000003b0: b3d8 fa3d 4d53 8a3e ae25 cbbd b979 4c3d
000003c0: 2934 41be 46c5 2cbe ab42 ac3d 1be8 3d3e
000003d0: ea50 ce3d 48ed 1e3e 1bd0 6c3d 625d 5c3d
000003e0: 3dd0 fc3b 12ab bd3d 3ed1 553e c2c1 1dbe
000003f0: bb38 1d3e aaab 2bbd 2ef5 22bd 9717 df3d
0.23849605 -0.06791167 -0.113721244 0.12790029 -0.04616727 -0.024267381 0.061796483 -0.023844512
-0.028712362 -0.2010197 -0.07963693 0.18678041 0.23988172 0.2251633 -0.2346916 -0.03694041
0.25776178 0.0033812628 -0.22698182 -0.065098934 0.24188618 0.22917761 0.10616266 0.25637692
-0.18097828 0.12701221 0.0579943 -0.08236224 0.15827687 0.11892667 -0.12232713 -0.22050454
0.1915412 -0.031307753 0.18787606 -0.21569633 0.1926199 -0.13716497 0.0315404 -0.21839306
-0.18540274 0.030375661 -0.047845412 0.081083514 0.18394941 -0.20897442 0.13482319 0.16829407
0.18075602 0.16480975 0.13395767 0.020207958 0.12591755 0.15334171 -0.12482869 0.07881278
-0.035875995 -0.024746072 -0.107882 -0.07948965 0.1319164 0.22352172 -0.037595924 -0.14543892
-0.06219359 0.060023535 -0.02289578 0.17467102 -0.008468978 0.24279511 0.03266783 -0.027030285
0.024167765 0.21500954 -0.22710234 0.12300618 0.21129826 -0.1449286 0.034620676 -0.16856666
0.123714626 0.03355894 -0.11270858 0.0033100098 -0.21951003 -0.0991808 -0.21224071 0.003117796
-0.2254609 -0.09962046 0.052490786 -0.121756844 -0.057288796 0.13994554 0.16307694 0.052316733
-0.024741236 0.012385502 -0.18937881 -0.15468794 -0.10548774 0.23134665 0.106126405 0.17807533
0.045335084 -0.027762331 0.04452635 -0.18438299 0.048956726 -0.058413737 0.050469574 -0.15451756
-0.19275258 -0.21570274 0.23486203 0.2376806 0.17105329 0.27742606 0.20115884 0.2467984
-0.21865033 -0.20648275 0.007595045 0.06027396 0.17472444 0.11789851 0.13517375 0.25797594
0.13649316 0.20697 0.090912014 -0.177379 -0.006496145 0.16448808 -0.13055615 -0.24677381
0.011675641 0.21006231 0.17611103 0.24243712 -0.12679002 -0.01927146 0.2561328 0.08981999
-0.19767375 0.22867617 0.047295775 -0.027292369 -0.01627195 0.098475926 0.073238835 0.21116608
0.027974319 0.08062374 0.12788582 -0.118684925 0.1682599 -0.16112049 0.13511932 -0.18263371
-0.07626286 -0.22257002 0.027130067 0.2578664 0.06741983 -0.02045945 -0.059190728 -0.08946672
-0.027281743 -0.22277977 0.13572258 -0.02096905 -0.019503955 0.06320308 0.05665822 -0.17466502
0.27604106 0.22019486 0.21354069 0.17289819 0.174414 -0.054904416 0.10902937 -0.10039794
-0.12769781 0.15831284 0.08039066 -0.110214256 -0.09440648 -0.18143405 -0.09234923 0.24230528
0.012380201 0.08627224 0.039400507 0.060393844 -0.23647869 -0.021393018 -0.041610178 0.26678693
0.13699903 0.16167814 0.24087857 -0.031646166 -0.18740472 0.18159121 -0.18393955 0.12305525
-0.20017229 0.2867261 -0.1963732 -0.0031038732 -0.117461376 0.1319716 0.20557414 -0.110383846
-0.26968798 0.23565558 -0.16134228 0.17629704 -0.16003853 -0.016855843 -0.17676689 0.16782828
-0.23316456 -0.17404301 0.2549137 -0.19709292 -0.12359381 -0.025938043 0.0060743787 -0.26264524
0.168959 0.08499206 0.22960618 0.09380006 0.12248363 0.27016678 -0.09919296 0.04992077
-0.18867554 -0.16872129 0.084111534 0.18545572 0.10074027 0.15520203 0.057815652 0.053799994
0.0077152536 0.09261145 0.20880601 -0.15405944 0.15353672 -0.04191176 -0.039784603 0.10893171

net.2.weight f4 [256, 512]
00000000: f582 423d 3e9a f2ba da5a 113d 9147 5cbd
00000010: 1bdf 9ebc 7dc3 90bc e261 cbbc 6497 08bd
00000020: 9e98 603d 46db ad3d 060a 19bd 046c 31bd
00000030: 7660 da3a 1637 46bd 09e4 3cbd 6d95 713b
00000040: 106c 223b 8aa9 353c 9396 fd3b 32f7 e8bc
00000050: 5687 06bc 97c0 f4bc aad6 e2bc f328 0dbd
00000060: a819 473d 18b5 ff3b f583 623d 1cf7 773c
00000070: 2288 1b3c 2e4a 053d fcec e0bc de93 e33c
00000080: 25f8 713b b93e a43c c7ee 173c 8051 093d
00000090: 6d4a a03c 21f3 8abd 06bc b8b9 1c78 42bb
000000a0: 8a30 93bd ef5f 99bc 5d71 093d bfb9 7c3d
000000b0: d908 29bc 6d0a 6e3d 94db 533d 8543 743c
000000c0: e298 083d ef74 263c 2030 113d fac1 5f3d
000000d0: fefd a8bc 181f bb3c 6cc3 acbc 38ee 1c3d
000000e0: 2baf 33bc 5edd 87bc cd78 aabc d8f9 833c
000000f0: 3a03 073d 1933 50bd 7b95 6f3c 122c f6bc
00000100: afb4 6abc 5d4c 31bc 26cb e7ba eb28 2a3c
00000110: 2b14 773d 1df3 323c 8535 4b3c da20 9dbd
00000120: 324e 8dbd e6fa 0138 9dc2 b1bd 8ea0 27bc
00000130: f73d efbc b62f 773a de14 4c3d cd14 973d
00000140: 1495 733d f1a3 84bc 9cbc 6abc 666b 763d
00000150: c7a1 37bd 74f2 563c 1d26 953d e23f b63c
00000160: a7d0 913c 426e 5ebd 363c 2dbd 57ce b73d
00000170: b32e 6e3d abcc 5b3b 7d97 54bc 73ae edbc
00000180: 1961 c4bb 7032 31bd 9282 903d c7e6 203b
00000190: 5a26 58bd 57fd 7ebc 5431 263d 0a12 7ebd
000001a0: 2119 edbb 7e84 9f3c fd9c 91bc 7b2d 14bd
000001b0: 5a61 74bb 9ac7 a8bb c0cd 743d 5d0e dbbb
000001c0: bedb 9dbd 3da8 dc3c 4d2e 55bc 2281 213d
000001d0: 2e2c 833d d3e4 11bd 8f85 b9bc 6553 45bc
000001e0: 98e7 143b 8283 83bc bb78 ff3c 650b deba
000001f0: 964b 4d3d 84f0 73bc b19e c5bb 8c37 c4bb
00000200: 23b9 15bd 1ba5 86bd e384 3fbd 0896 6ebd
00000210: 3763 813b cba7 7e3d df8e 03bd bd1f 08bd
00000220: 4c2a 15bd ff81 3e3d f3f1 a0ba f2c2 e4bc
00000230: a4da 69bd f7b6 e03c aae9 2dbc 61a5 363c
00000240: 8b74 0e3d 4031 73bb 92b3 163d 16e4 a73c
00000250: e43f 193d 3b3d 433d 9ce5 9d3b c698 a33b
00000260: 6320 20bd 7ff3 873c c42e 1b3d f0c0 00bd
00000270: 37b2 31bd bf22 e2bc f01c 773b a986 4cbd
00000280: 0634 9c3c 001b 11bd 9673 913c b71c 973b
00000290: bd1e 7c3d 1aff 50bd 62d0 84bd 9939 e63c
000002a0: d9b7 103c fb84 5dbc bf21 1e3d 53dc 7c3c
000002b0: 0ae9 a9bc 8b06 a13c 083b 203c ea0a 06bc
000002c0: c075 d8bb 94a3 5e3d e22d 9ebd 5879 d53c
000002d0: e2ba 013c ebfe 3c3d 6d66 3b3d 9c0a 6f3d
000002e0: 4ef7 20bd dc51 33bd 73c0 2abd a3e8 5b3d
000002f0: 049b de3c 2b3b a63d c863 59bd 0370 3c3c
00000300: 03b5 0fbd 8552 03bc e8d0 32bd e4f8 36bd
00000310: 7068 1fbd 597c 0d3d 4be1 52bd f143 593c
00000320: 837e 2a3d d4ea 683d 4151 7cbd 80dc 933b
00000330: e17d ff3c 6ca5 913d a439 f63b ea1e 70bd
00000340: c6de cdbc c613 cb3c 1d1f 57bc 5dc0 ad3b
00000350: add0 eabc 2eec 65bd 9e23 193d 89c2 823c
00000360: 1969 84bd 97d0 393c 20e0 9abd be2f 8abd
00000370: 9f71 543d 0518 25bd e337 b53d b894 d13c
00000380: 3001 b0bc 1122 05bc b15a 153d 7227 d8bd
00000390: 5e61 34bd e263 f63c 9240 f43c 2a8d 4f3d
000003a0: 2ad5 a63d db85 043c dee5 553c 00da a1bd
000003b0: 5e3a 63bc cf74 cd3c fbbd 8ebd ae07 983b
000003c0: cc42 253d fc40 abbd 9666 303d a391 be3c
000003d0: 7fd0 83b9 e43d 153d 2cfe 353d e867 653d
000003e0: 6e8b 8cbd d874 33bc 80b5 243d 6e1f df3b
000003f0: 0b78 8a3d 1a4d b0bc 5f64 dbbb 238d 9d3c
0.04748817 -0.0018509103 0.035487033 -0.05377919 -0.019393494 -0.017671341 -0.024826948 -0.033347502
0.054833047 0.08489089 -0.037363075 -0.043315902 0.0016660828 -0.048392378 -0.04611591 0.0036862746
0.0024783649 0.011087785 0.007738897 -0.028438184 -0.008210978 -0.02987699 -0.02769025 -0.03446288
0.048608452 0.0078035705 0.055301625 0.015134599 0.009492906 0.032541446 -0.027456753 0.02778047
0.0036921587 0.02004944 0.009273238 0.03352499 0.019566739 -0.067846544 -0.00035235303 -0.0029673642
-0.071869925 -0.018722503 0.033555377 0.06170058 -0.010317051 0.05811541 0.051723078 0.014908676
0.033348925 0.010159715 0.035446286 0.05462835 -0.020628925 0.022841975 -0.021089278 0.03831312
-0.010967056 -0.016585048 -0.020809555 0.016110346 0.03296206 -0.05082998 0.014623041 -0.030050311
-0.014325305 -0.010821429 -0.0017684444 0.010385732 0.060321968 0.010922221 0.012402897 -0.076722816
-0.0689968 3.0989664e-05 -0.08679698 -0.01023115 -0.029204352 0.0009429412 0.049824588 0.07377014
0.059468344 -0.016191455 -0.014327195 0.060161017 -0.044832017 0.013119329 0.0728266 0.022247259
0.017799689 -0.05430437 -0.04229375 0.08974903 0.058150005 0.003353874 -0.012975571 -0.029013848
-0.0059930203 -0.04326099 0.07056154 0.0024551617 -0.05277095 -0.015563331 0.040574387 -0.062028922
-0.0072356616 0.019472357 -0.017775053 -0.036176186 -0.0037289471 -0.0051507475 0.05976653 -0.006685062
-0.07707928 0.026935691 -0.013011527 0.03942979 0.06404911 -0.035618614 -0.022646694 -0.012043809
0.0022721048 -0.016053919 0.031185498 -0.0016940652 0.050120912 -0.014888886 -0.0060308804 -0.005988067
-0.036553513 -0.0657446 -0.04675759 -0.05824855 0.003948595 0.06217174 -0.032118674 -0.033233393
-0.03641729 0.046510693 -0.0012279138 -0.027924988 -0.057093278 0.027430994 -0.010614792 0.011147828
0.034779113 -0.0037108213 0.036792345 0.020494502 0.037414446 0.047665816 0.0048186313 0.0049925772
-0.039093386 0.0165956 0.037886396 -0.031434 -0.04338285 -0.027604459 0.0037706457 -0.04993311
0.019067775 -0.03542614 0.017755311 0.0046115774 0.06155275 -0.051024534 -0.06485058 0.028103637
0.008832895 -0.013520475 0.0386064 0.015433389 -0.020741004 0.01965644 0.009779699 -0.008181313
-0.006605834 0.05435522 -0.07723595 0.026058838 0.0079180915 0.046141546 0.045751978 0.058359727
-0.039298348 -0.04377924 -0.04168744 0.053688657 0.027173527 0.08116754 -0.053073674 0.011501315
-0.035084736 -0.00801528 -0.04365626 -0.044670954 -0.03891796 0.034542415 -0.051484387 0.013260827
0.041624557 0.056864575 -0.061600927 0.0045123696 0.031187953 0.0711163 0.0075141955 -0.058623232
-0.02513064 0.024789702 -0.013129977 0.0053024725 -0.028663957 -0.05613344 0.037387483 0.015961902
-0.06465358 0.011341236 -0.0756228 -0.06747387 0.05186617 -0.04030611 0.0884855 0.02558361
-0.021484941 -0.008125798 0.036463443 -0.105543986 -0.04403817 0.030076925 0.029815946 0.050671734
0.081461266 0.008088554 0.013055293 -0.07902908 -0.013868896 0.025080113 -0.0696983 0.0046395874
0.040346906 -0.08362004 0.043066584 0.023262804 -0.0002514161 0.036435977 0.04443185 0.056007296
-0.068625316 -0.010953151 0.040212154 0.0068091666 0.06761178 -0.02152114 -0.006695315 0.019232338

net.2.bias f4 [256]
00000000: 1acb a73c 02d5 09bd 9c44 0e3c d072 08bd
00000010: 61f0 b93c e831 11bc 7152 603a 5640 2c3d
00000020: c06e 5a3c 571f 8ebc 59f6 0cbc 9fc9 933c
00000030: e2e1 9d3b c025 493d e2ee 373c b53b 1fbd
00000040: 2452 cbba 16c7 43bb f937 363d b008 3dbd
00000050: 647b 853b 6c39 d83b 2501 4a3c 7d62 8fbc
00000060: 0fb7 d0bc 12f8 91bb 6b61 e8bb 12a2 87bc
00000070: c907 1fbb 652e d63b afba d63c e934 9bbc
00000080: 8362 903c 3755 73bd 51f6 143d 9268 943b
00000090: d5c4 8bbc c8b8 e83c 02d4 0fbc 7781 453d
000000a0: 666f d9bb eb37 673d 0ec9 1c3d a75b 983c
000000b0: eb0f a23c 4451 e5bc ba0b 533d c28b 45bd
000000c0: b11d ed3c 066e 1e3a 1689 94bc b853 97bb
000000d0: 022e e83c ac0c 7d3c 880e 2dbc c37a eebc
000000e0: 89d7 86bc 331a ca3c bc7a f6bc d3ca 073d
000000f0: 8e6d 5fbb 9b8d 893a aa00 853c 0861 b63d
00000100: b175 8c3c bf0c d9bc d446 3f3d c000 763d
00000110: 34e2 94bb be20 23bd 00e9 293d 2008 03bc
00000120: ae58 1fbd ca79 cebb 923a 103d 9c87 88bb
00000130: 3f61 e63c c00f 883c adc9 7f3c 46f1 8c3c
00000140: c599 e2bc b130 a7bc cd26 c63b 9b08 e2bb
00000150: 247c c03c 840d 8bbb 9c79 2abc f704 94bc
00000160: cace 443d 278e a33d 24eb c93c de17 a93d
00000170: be85 cd3c 095a 483d c441 6a3d 43d9 2c3d
00000180: a503 a3bc 7472 d539 5185 00bd 63b7 3f3d
00000190: 446b 5dbc 4251 d33c 2f79 453d 1bbe 593d
000001a0: 508e 5d3d e17c dabc 05ee 64bc 4a71 233d
000001b0: c82a 173d fdd6 753d 2991 6ebc 05cb f83c
000001c0: c330 69ba 1c70 d13c 88c0 f33b 7dba 29bd
000001d0: 762b e03c ed4a ca3d eea8 9cbb ddd8 a3bc
000001e0: df48 683d b6db 32ba 7196 413b 03a5 e83b
000001f0: 01ed 05bc 0d52 4f3b bf23 9dbc c1de cf3b
00000200: 9463 393c 9cc6 a63c 1fb9 e23c cbb2 cebc
00000210: 06f7 e03b 1989 ba3c dca6 b53d 354d 243d
00000220: 3445 5f3d 015f 50bb 2111 653d 1c79 e1bb
00000230: 41b7 c8bc 6368 673c b9a2 3bbd 2b62 633d
00000240: 3524 ab3d 8bbf e33c 2255 d7bc 3968 9e3b
00000250: bb8d 083d ae2b a1bc ceb5 b9bc 969b 803c
00000260: 0488 813d ff62 fa3b 22f4 333b 4768 f4bb
00000270: dfbe e5bc 2247 933c 5146 363d 999d 213d
00000280: 0182 7d3d 4caa 73bc 6076 9c3c 5ae7 b7bc
00000290: 263a dd3c 0fe3 1dbc ac79 273c 67ad 0dbd
000002a0: 44e4 2bbd f3ff 12bc 2185 a83b 43bb 32bd
000002b0: 059d 523d c5de 90bc af8b 20bb b75c 8f3c
000002c0: d63f 43ba ad6e 4abd fbbd 353c c6d5 6bba
000002d0: 2c66 fa3b 81a4 80bc 6f2e aabc e735 213b
000002e0: c023 743d 547b e23c c413 43bd 7f66 543a
000002f0: c16a 32bd b084 56ba 99fb 2d3d 3757 083d
00000300: 0b49 973b c1a0 2e3c e5c5 3c3d ceaa ff3c
00000310: 191f 253d c1e0 c7bc 95ef 94bb 821f 7e3c
00000320: 3874 ac3c 7a9d 05bd 1336 e0bb 6ffd 203c
00000330: 2387 fe3c dbcb 063d cf4c db3d 52cf bd3d
00000340: 32b8 07bd 2441 86bb a28e dd3b c85c 533c
00000350: 0ec2 8b3c 9c15 9b3c 28b1 88bc 9551 2f3d
00000360: 4075 7b3d 5120 473d 14b3 8d3c e2c1 85bc
00000370: 0937 003b 98b4 24bd 419a 56bc dcec 8e3a
00000380: 3c7c bb3c 122f 263d 5876 b63c beb3 143d
00000390: 4b9b 203d 6616 1f3c 56e3 4b3d 8cc3 33bc
000003a0: 89da eebc 66ff 3fbb 616f 083d ca0a 283b
000003b0: 266f 02bd c752 2e3c 081f 0e3d 1525 223d
000003c0: 7080 31bd 056f ddbc b650 42bc 5bfb 95bb
000003d0: 7a6d cc3c 8825 37bc 83b6 283d 6d45 a43c
000003e0: 5740 f13c 13a5 bebc da51 d53c 592f 953d
000003f0: 1a73 bf3b 598a f1bc 2ca2 913d 4baf 78bc
0.020482589 -0.033650406 0.00868335 -0.03331262 0.02269763 -0.008861996 0.00085572066 0.042053543
0.013332069 -0.017348928 -0.008603656 0.018040476 0.004818187 0.049108267 0.011226388 -0.0388753
-0.0015512151 -0.0029873303 0.044486973 -0.046150863 0.004073547 0.006598642 0.012329374 -0.017503018
-0.025477914 -0.004454621 -0.0070916913 -0.016556773 -0.0024266115 0.0065362924 0.026212065 -0.018946128
0.017625099 -0.05940744 0.036367718 0.0045290673 -0.01706163 0.028408423 -0.008778574 0.04821917
-0.006635594 0.056449812 0.03827768 0.01859839 0.01978298 -0.027992852 0.051524855 -0.048228987
0.028944822 0.00060436164 -0.018131774 -0.0046181343 0.02834225 0.015444916 -0.010562547 -0.029111272
-0.016460197 0.024670696 -0.030087821 0.033152413 -0.00340924 0.0010494472 0.016235668 0.08905226
0.017145963 -0.026495336 0.046698406 0.06005931 -0.004543567 -0.039826147 0.04148197 -0.007997543
-0.03890293 -0.0063011395 0.035212107 -0.0041665565 0.028122542 0.016609073 0.015612048 0.017204892
-0.027661214 -0.02040896 0.006047106 -0.0068979985 0.023496695 -0.0042435545 -0.0104049705 -0.018068774
0.048048772 0.07986098 0.024648257 0.082565054 0.025088187 0.04891399 0.057191625 0.042199384
-0.019899199 0.000407118 -0.03137714 0.04680575 -0.013514344 0.025795583 0.048211273 0.053159814
0.054090798 -0.026670875 -0.013972764 0.039902963 0.036906034 0.060019482 -0.014560976 0.030370245
-0.00088955107 0.025566153 0.007438723 -0.041437615 0.027364474 0.09877572 -0.00478088 -0.02000087
0.05671012 -0.00068229006 0.0029539133 0.007099749 -0.008174182 0.00316346 -0.019182084 0.006343693
0.011315245 0.020358376 0.027676163 -0.02523174 0.006865385 0.022770451 0.088697165 0.040112693
0.054509357 -0.0031794908 0.05592454 -0.0068808924 -0.024501445 0.014124009 -0.04580948 0.055513542
0.08356515 0.027801296 -0.026285712 0.0048342017 0.03333829 -0.019674148 -0.022669699 0.01569919
0.06324771 0.007641196 0.0027458747 -0.00745872 -0.028045116 0.017978255 0.044500653 0.039456937
0.06189156 -0.014872145 0.019099414 -0.022449184 0.027005266 -0.0096366545 0.01022188 -0.034589197
-0.041965738 -0.008972156 0.0051428233 -0.043635618 0.051419277 -0.01768435 -0.002449732 0.017500265
-0.0007448172 -0.049421955 0.011092658 -0.00089963933 0.0076415744 -0.015703442 -0.020774094 0.0024598779
0.059604406 0.027646698 -0.04762627 0.00081024313 -0.04355884 -0.0008183224 0.04247627 0.0332863
0.0046168617 0.010658444 0.046087164 0.031209376 0.04031286 -0.024399163 -0.004545162 0.015510442
0.021051511 -0.032620884 -0.0068423836 0.009826048 0.031070298 0.032909255 0.107080095 0.09268059
-0.033134647 -0.004097121 0.006761388 0.012900539 0.017060306 0.018931203 -0.016686037 0.042802412
0.061391115 0.048614804 0.017297305 -0.016327802 0.0019564054 -0.04021129 -0.0130983 0.001090433
0.022886388 0.040572233 0.022273228 0.036304228 0.0392106 0.00970993 0.04977735 -0.010971915
-0.02915694 -0.0029296516 0.033309344 0.0025641196 -0.03184428 0.010639853 0.034697562 0.039586145
-0.04333538 -0.027030477 -0.011860063 -0.004577083 0.024954546 -0.011178382 0.04118968 0.020052636
0.029449625 -0.023272073 0.026040006 0.072844215 0.0058425786 -0.029484915 0.0711101 -0.015178512

net.4.weight f4 [128, 256]
00000000: 0d9c aabc 8a79 e63d 8165 3dbd 92e2 d3bd
00000010: fde6 a53d 4e29 bf3d add7 b43b d69e f53c
00000020: 65ea 563d 4e6b 70bd 31fe 63bd cb9c 1fbd
00000030: 834b ab3d c27a 463b 1d08 c2bd e24b 74bd
00000040: 8ffa cabc b177 ee3c 66da f9ba 540f b4bc
00000050: 77df c43d 7302 52bd ca86 503d e444 f2bc
00000060: 2a60 643c 6d86 893c da4a b93d b254 ab3d
00000070: f953 2fbd 845c e43b 1a65 abbb 70e9 a03d
00000080: b99d 39bb 6c3c 803c 8730 e33c 4d94 eebc
00000090: 1297 1bbb 6bec af3c b32f c8b9 f622 d2ba
000000a0: d474 8f3d 211a 14bd 98d4 56bd de4a c43d
000000b0: 3a30 623d c681 c23b b1aa 87bc 8aed 063c
000000c0: 8f2d 383d edfa be3d 3684 083d 7abe ab3d
000000d0: 159a 543d b040 72bc 2414 8ebc 4467 5cbd
000000e0: 20b6 e53b d0bd 8ebd 27f1 a73b cddf a6bc
000000f0: 9150 963c d69a aabd 6fb9 c8bd beeb a1bc
00000100: cfa5 d9bc 5fc1 aa3b dcb6 bebd 250e 2bbd
00000110: c5bf afbc 0957 fd38 473d 553d 7098 0c3d
00000120: 118a a9bd f8c7 5ebc a2e7 29bd d7c5 54bc
00000130: 402a 14bc 81c3 6b3c db62 e2bb 40eb c7ba
00000140: defa d03d 6d11 32bc c04b 06bd 584b 1fbd
00000150: ce78 1f3d 3f20 74bc 9d69 a93d ff83 933c
00000160: 2db6 a0bd 420c bc3c 4003 2e3a da2c 26bd
00000170: 6911 ebbc 8a05 e23b e777 be3d e270 00bb
00000180: d7a3 b83d f558 b1bc 9e8f cb3b a757 a83c
00000190: 86ee 37bd e4eb 0fbd 5582 ebbc d295 5e3d
000001a0: 1481 da3b e519 0c3d f37a 90bb 5018 9a3b
000001b0: c894 ec3b 14f1 d03c 5455 94bb a750 2dbd
000001c0: a909 9abc b912 e53c 2cf9 183d 4a46 053b
000001d0: 1f65 a4bc 3f83 9a3c 32f4 8bbd c2bd 2c3d
000001e0: 4919 ec3c 6c80 8abd a7c2 26bb 1f39 84bc
000001f0: da90 b53d 93ad 37bb a3f4 c7bd a970 3cbb
00000200: 5b08 19bd 7402 94bc 7dfa 0dbd 4b63 29bd
00000210: 6006 60bd 88bd 0fbc cd3b 243c 8f37 f53b
00000220: 6612 0a3d a017 5fbc b65c 853d 901a af3d
00000230: 8f3e d8bc 13cb ba3b 95f4 8cbd 862b 16bd
00000240: 6bd3 833b 8221 b53b 255a 6dbc 6562 59bd
00000250: b0a1 cbbc 529f a2bc 0caa bfbd 4820 38bd
00000260: e308 503d 9101 143d 7dca 19bd 5580 22bd
00000270: 2488 933d fcec 8b3d 8fbc 7ebd 93e3 b6bc
00000280: 0278 a33d 8a31 0d3d c6dc aabd a461 57bd
00000290: a5a2 8b3b d0df ae3d 284e 7c3c caf2 e03d
000002a0: 2093 17bd fdf1 bebd 4f1d 3abd 0d77 9a3c
000002b0: 579e 9e3d a55f 5a3b 230f e7bb 4ee0 7a39
000002c0: 081d c2ba c37e cebc dec8 a9bb b482 fa3c
000002d0: 160b 42bd 29a3 7dbb 6ba1 d13d d942 c7bb
000002e0: ef8e 2d3d 0a22 833d 58e3 19bd d930 06bc
000002f0: 5558 803c 707d 4e3d d136 82bc 4ce7 863c
00000300: a2fe b53c f4de a83d 52f3 49bd 476f 1cbc
00000310: 9e57 e2bc 41cb b53c fc21 8a3d 48d3 83bd
00000320: 4bdf d9b9 9297 a93a fb51 3f3d 3e7d 163c
00000330: 5e4c a63a f940 493c e0cf 663d 6d39 553c
00000340: 1863 a53b 929e 5e3c 6dc9 f3bc c5a1 38bd
00000350: 7460 043d c011 4bbb 7e69 a1bc 1488 55bd
00000360: d681 263c b80c f43c fdea a0bc ff97 473b
00000370: 8320 55bc 5801 053d 0459 4bbd 4721 87bd
00000380: bdfa 72bc 652d 3c3d 7535 9bbc 7613 a93b
00000390: 4dda bebc cbaf 4bbc cf76 f7bb ef5d 2dbd
000003a0: db67 243c c37a 7f3d efb9 f8bb aa08 3a3d
000003b0: 8e7b 803d cc23 90bd 6ab7 b7bc 698d 79bb
000003c0: 4cc4 023d 03cd c23c 4ebf e8bc eb86 3a3d
000003d0: 3adb 5cbd 4638 943d 0d60 4dba 35f8 b63d
000003e0: a77b ae3d 61d9 bfbc a215 63bc 180f 94bb
000003f0: a615 6ebd 182d a9bd 0f14 813d 8be8 b33d
-0.020826364 0.112536505 -0.04623938 -0.10345949 0.08100698 0.0933405 0.0055188746 0.029982965
0.05246963 -0.058696084 -0.055662338 -0.03896789 0.08364012 0.0030285572 -0.09474204 -0.05964268
-0.024777679 0.029109808 -0.001906228 -0.021979965 0.09612935 -0.051271867 0.050909795 -0.029573865
0.013938943 0.016787732 0.0904748 0.08365764 -0.042804692 0.0069690365 -0.005230558 0.07857025
-0.002832277 0.015653811 0.0277331 -0.02912345 -0.0023741168 0.021475038 -0.0003818251 -0.0016032148
0.07004705 -0.03615773 -0.05244884 0.09584592 0.055221774 0.0059358804 -0.016560884 0.008235345
0.044965323 0.09325204 0.03332921 0.0838594 0.051904757 -0.0147859305 -0.017343588 -0.05380942
0.0070102364 -0.069697976 0.005125183 -0.020370388 0.018348964 -0.08330314 -0.09800994 -0.019765731
-0.026568322 0.00521104 -0.093122214 -0.041761536 -0.021453748 0.00012080192 0.05206039 0.034325063
-0.08278287 -0.013597481 -0.041480668 -0.012986622 -0.009043276 0.0143898735 -0.006908757 -0.0015252605
0.10204099 -0.010868412 -0.032787085 -0.038890213 0.038933568 -0.014900266 0.08272097 0.018007277
-0.07847247 0.022955064 0.00066380575 -0.040570118 -0.028694825 0.006897633 0.09300213 -0.0019598533
0.09015625 -0.021648863 0.006212189 0.020549608 -0.044905208 -0.035137072 -0.02874867 0.0543421
0.0066682193 0.034204382 -0.004409188 0.0047026053 0.0072198845 0.02550558 -0.0045267735 -0.042313244
-0.018803434 0.02796303 0.037347004 0.0020336085 -0.02006775 0.018861411 -0.06833686 0.042173155
0.02882065 -0.06762776 -0.0025445612 -0.016140519 0.08865519 -0.0028027042 -0.097634576 -0.0028753674
-0.037361484 -0.018067576 -0.034662712 -0.04135446 -0.05469358 -0.008773215 0.010024023 0.0074834297
0.033708952 -0.0136164725 0.06511824 0.08549988 -0.026397018 0.005700478 -0.06882588 -0.0366626
0.0040230057 0.005527676 -0.014486824 -0.053072352 -0.024857372 -0.01985136 -0.09358606 -0.04495266
0.050789725 0.036134306 -0.037546623 -0.03967317 0.07203701 0.068323106 -0.062191542 -0.022325313
0.07981874 0.034471072 -0.083428904 -0.05258335 0.004261332 0.085387826 0.015399493 0.10983808
-0.037005544 -0.09323499 -0.045438107 0.018855596 0.07745045 0.0033321169 -0.007051365 0.00023925418
-0.0014809677 -0.02520693 -0.005181416 0.030579902 -0.047373854 -0.0038701987 0.10235866 -0.006080967
0.04237264 0.06402977 -0.037570328 -0.008190357 0.01566712 0.050412595 -0.01589528 0.016467713
0.022216145 0.0824565 -0.049304314 -0.009548015 -0.02762967 0.022191646 0.06744763 -0.06436783
-0.00041555832 0.0012938848 0.046709042 0.0091851335 0.0012687554 0.012283557 0.05635059 0.01301418
0.0050472133 0.013587611 -0.029759133 -0.04507615 0.032318547 -0.0030985922 -0.019703623 -0.052131727
0.010162791 0.029791221 -0.019643301 0.0030455587 -0.01300824 0.032471985 -0.04964544 -0.06598144
-0.0148302885 0.04594173 -0.018946389 0.0051597906 -0.023297453 -0.012432049 -0.007552005 -0.04232591
0.010034527 0.062372934 -0.0075905244 0.04541842 0.06273566 -0.07038078 -0.022426326 -0.0038078672
0.031925485 0.023779398 -0.028411534 0.045538824 -0.05392001 0.07237296 -0.0007834442 0.089340605
0.085196786 -0.023419084 -0.013860138 -0.004518401 -0.058126114 -0.08260554 0.06302654 0.087845884

net.4.bias f4 [128]
00000000: ab0c 823c 58b4 d93d 564d 09bd d946 893c
00000010: 2d54 4e3d 934b c7bc bbf5 b33c 0fcc 2d3d
00000020: eedd 7c3d 3a45 b5bc bf32 4f3c 7f7c 1cbd
00000030: bc7a 6d3d 02a5 2c3c b557 3e3d ae79 513d
00000040: 5dfd 83bd f797 75bd 6617 763b 91ab 433d
00000050: 1a54 4fbd 219d 603d a290 a93d 700c 823c
00000060: f236 d43c 04cf e43c bea6 7f3c ddb2 943d
00000070: df54 b2bc e952 4e3c 4944 6b3d e9b1 30bc
00000080: dfc1 06bc 7acf 323c 3a63 d33c 809c 0b3d
00000090: 15b2 49bc 5b21 7b3c 1461 473d ac6a b83c
000000a0: 9aef 0a3d 1032 773d 4e9e dfbc adfd 453d
000000b0: 3252 53bd ad8b 5a3d bdf8 e9bc 3a9c 803d
000000c0: 1146 483d 60fd 983c 41f0 393d 53c8 233c
000000d0: 5f8f 4cbd 034b 4bbb 0532 3a3b 9c04 073c
000000e0: a632 143d 3552 8f3d 749d bebc a9d4 dabc
000000f0: 3334 24bc 83da 6d3d 6746 3c3d 2883 e53c
00000100: c18d 823c 5707 6ebc e90a 903c 47f0 173d
00000110: 039d 163d bf7d fbbc d079 843d e4ec cfbc
00000120: 99ea 973d c21e 8e3d 0012 493d 8831 2bbd
00000130: 7f87 40bd 3a89 9a3d 207d cdbb 09a3 9f3d
00000140: 85db e4bc d782 1e3c 073a 92bb be17 313d
00000150: b705 0bbd f54a ed3c ce16 d53c c6f9 ec3c
00000160: f4d3 1d3c 1649 8f3d 3643 3fbd fa94 693c
00000170: 6138 6cbd cb8e 503d faaf c23c 2cd3 97bb
00000180: 430c a83c 0fab 4b3d 3696 60bd 7fd0 21bd
00000190: d5fb 88bb 9ad3 3c3d a721 1ebd c842 21bd
000001a0: 7c43 3bbc 4b9e ae3b 8cb6 ddbc e5f5 63bd
000001b0: ca0a 613b 16ac 163d 86d4 37bc 995f c03c
000001c0: d68f 093d 0179 a43c 92dd 59bd 463a e8bc
000001d0: de81 78bd 37a5 11bd 96df 1dbd 7070 923d
000001e0: 69b5 72bc a1e5 3abd 8a9e 8d3c 9507 803d
000001f0: 6e29 eabc ce62 4b3d 1264 6e3b 22f5 573d
0.015875181 0.10630101 -0.03352102 0.016757416 0.050373245 -0.024328029 0.02196776 0.042430934
0.061735086 -0.022127736 0.012646376 -0.038204666 0.057978377 0.010537388 0.046470363 0.051141433
-0.064448096 -0.059959378 0.0037550568 0.04777104 -0.050617315 0.05483735 0.0827954 0.015875071
0.025905106 0.027930744 0.015603719 0.07260678 -0.021768985 0.0125930095 0.05743817 -0.010784605
-0.008224933 0.010913724 0.02580415 0.034084797 -0.0123105245 0.015327777 0.048676565 0.022511803
0.033919908 0.060350478 -0.027297165 0.048337627 -0.05159206 0.05335586 -0.02856099 0.06279798
0.048894946 0.018675506 0.04539514 0.0099964915 -0.049941417 -0.0031020052 0.0028411162 0.008240845
0.036181115 0.069981016 -0.023268439 -0.026712732 -0.010022211 0.058069717 0.04596558 0.028016642
0.015936734 -0.014528117 0.017583327 0.03709438 0.03677083 -0.030699609 0.064685464 -0.025381513
0.07417793 0.0693946 0.04908943 -0.041795284 -0.04700422 0.07545705 -0.0062710196 0.07794768
-0.027936706 0.009674749 -0.004462484 0.043235533 -0.033940997 0.028966406 0.02601185 0.028927695
0.009633053 0.06996362 -0.046694957 0.01425671 -0.057670955 0.050917428 0.023765553 -0.004633328
0.02051366 0.04972368 -0.054830752 -0.039505478 -0.0041804113 0.046100236 -0.038606312 -0.03937033
-0.011429664 0.0053289286 -0.027064584 -0.055654425 0.0034338706 0.036785208 -0.011220103 0.023483085
0.03358444 0.02007723 -0.05318982 -0.0283481 -0.060670726 -0.03555795 -0.038543306 0.07150352
-0.014813759 -0.045629147 0.017287511 0.06251446 -0.028584208 0.049654774 0.0036375565 0.05272401

net.6.weight f4 [64, 128]
00000000: b3cf e4bc 60e3 56bd 4a24 36bd e4cf 3cbd
00000010: 6896 d238 30d2 92bd 8760 7a3d 4171 c03b
00000020: a630 a2bd a027 dbbb b466 a13d 5b71 7fbd
00000030: 4945 8b3d 038e b2bd eba8 1abd 8eca aa3b
00000040: bb6e 9e3d d815 303c 5fc4 55bd 4596 293d
00000050: c87e d53c 5a2b 79bd 0de1 0c3d 52ec 17bd
00000060: 2555 443d 7c93 b33c b86f 3cbd 5625 d93c
00000070: 07bb 1f3d 26b8 b3bb 4bab 66bd 7fd0 99bd
00000080: 8b5f 8fba fe3a dd3c e51d cb3b ead5 413d
00000090: 683b eb3c ece5 d73c 0d97 9b3d 2445 823d
000000a0: 4527 943c e003 aebc 0819 70bc 22ff 433d
000000b0: d803 673c d25c 49bb dfb4 b93c 3ec8 abbc
000000c0: 5069 0cbd f24e 47bd bfcc fcbb 4c0e 97bc
000000d0: bef9 163d 1344 69bd 9d75 e33c f421 06bd
000000e0: 2b13 423d 80ec 90bd 4c2e 89bd aadc 0cbd
000000f0: e46c 80bc fcb9 08bd 3b3c 89bd c249 efbc
00000100: 2c54 babd c3fb 783d 0894 263c 9506 aa3c
00000110: d47f 57bd a61e 13bc 3b3b b33c eebd 3f3d
00000120: 9e79 533d b019 8f3b 7001 73bd b6b7 a73d
00000130: 4484 c73c 1338 75bd 8428 a3bc cccb d2ba
00000140: a03b 9d3d 1b3a 863d 93b2 983d 40a7 883d
00000150: 9d7a e6bc f91b 833c 6606 51bc ecf9 f33c
00000160: a014 7d3d c6c9 b9bb 993e a43d e060 5cbc
00000170: 60fb 48bc b040 b0bc f8ea 9dbc 0877 c0bd
00000180: a72a c2bd d075 543d 16ec 72bd 822a 09bd
00000190: 6fba 0ebd eb0f 873d be0c 553d 679f b3bd
000001a0: 8112 b0bd db37 c33c bb50 9abd eaaa 353d
000001b0: ca2a 563d a926 c3bd b43a aebc da12 e1bc
000001c0: b01f c03c 8680 20bd 9dcc 353d f496 123d
000001d0: 2dfb 5bbd 1893 1fbd 3261 463d 253a 9bbd
000001e0: 0e2c 3b3d 5c20 c3bc b62f 743d a7e1 9f3d
000001f0: dad4 543b aefd b53c a2b7 5c3d 79e9 a6bd
00000200: 5b19 cc3c aa1c 39bc 8346 9fbd 0794 013e
00000210: 4403 eabd c503 ac3d 682c 073e 4612 f23b
00000220: 2e72 4dbd 0b77 aabd 47ec a1bd bdc2 373d
00000230: d3b6 d5bd 7666 533d 2bbe adbc d627 003e
00000240: 2337 37bd cc46 debb 7385 613d 1800 983d
00000250: 7eab 303d b9e0 6dbd 69cb 543d 85a2 b93d
00000260: dd65 a93d 0de7 cd3d 758e 9c3d e514 903c
00000270: 0f09 eb3c dcd4 ff3d d382 9c3d b71a c03c
00000280: 892e dfbc bb08 783c eb2d a13d 8a21 2a3d
00000290: 3694 4b3d 2052 6e3c 1c5c a73d e002 d3bd
000002a0: dcf9 8f3c 3af9 9ebd 248b 3cbd d333 36bd
000002b0: b6f2 a5bd 0afd de3d 7eb6 283c 156e b23d
000002c0: cfe3 083e 0ad9 fb3c fce6 b03d 35c1 fcbc
000002d0: 2ce9 9cbd 2fbe 043e bb6e 3bbd 976b 43bb
000002e0: 89ae 053d 6385 153e a597 babc c36f 8a3d
000002f0: 4463 8d3d cfda 0b3e 177e d6bc f566 cb3d
00000300: 36af 433d d79d bd3d d606 b3bd 2ef2 17bd
00000310: 1149 18bb 1466 42bb 585e ef3c 9a0a 233d
00000320: 8157 cbbd a25f 603d 7fdb 3e3d 91a6 2abd
00000330: 9b4f 7d3d 066b f83d e646 993c 67f1 f83c
00000340: 6741 9fb9 370d 6b3c f74e 173e e6bf 683d
00000350: a650 d93d cf56 ad3d 5d5c 0f3d 2b2d 193d
00000360: 0f33 773d 9f8f 77bc 2e8e 2f3b 8cf7 8dbd
00000370: 0220 95bc 8253 b13d 1421 4b3c c0a8 273d
00000380: 5706 95bc 73e0 b33c 0046 12bd 812e de3d
00000390: 5d3a 66bc bd35 ca3d 72ad 6cbd 1abc d9bc
000003a0: 715c 64bd 9f58 8dbd 4533 343d 1227 943d
000003b0: 722c a2bd 7719 413d 5114 5ebd 733e 2fbd
000003c0: 5945 b9bc 8a84 493d 0f37 f5bc 439a e6bc
000003d0: 8892 46bd a283 3ebd c4af 3e3d 3625 0b3e
000003e0: 80ea e43c 94ce 3fbd 89dc f8bc 662b f73c
000003f0: 3a52 c73d 7411 fe3d be2e 453d 6c36 abbc
-0.02793107 -0.052462935 -0.0444682 -0.046096697 0.00010041596 -0.07168996 0.061127212 0.005872876
-0.07919435 -0.0066880733 0.07880917 -0.062363964 0.068003245 -0.08718493 -0.03775875 0.0052121347
0.07735964 0.010747395 -0.052189227 0.041403074 0.02606143 -0.06083236 0.034394313 -0.037090607
0.047932763 0.021920912 -0.04600498 0.026507061 0.038996723 -0.0054845987 -0.0563157 -0.075104706
-0.0010938508 0.027005669 0.006198632 0.047323145 0.02871485 0.026354752 0.0759717 0.06360844
0.018085131 -0.021242082 -0.014654405 0.047850735 0.0141000375 -0.0030725491 0.022669254 -0.020969506
-0.03428012 -0.048659272 -0.0077148373 -0.018439434 0.036859266 -0.056949686 0.027766043 -0.032747224
0.04738156 -0.07076359 -0.066982836 -0.03439013 -0.015676923 -0.033380494 -0.06700941 -0.029209975
-0.09098086 0.060786974 0.010167129 0.020755092 -0.05261214 -0.008979475 0.02187883 0.04681199
0.051629655 0.004367076 -0.059327543 0.08189337 0.024355061 -0.05986793 -0.01991678 -0.0016082465
0.07677388 0.065540515 0.07455935 0.066725254 -0.028134638 0.01600455 -0.012757873 0.029782258
0.061787248 -0.005669805 0.08019752 -0.013450831 -0.012266964 -0.02151522 -0.01927708 -0.093977034
-0.094807915 0.051870167 -0.05930718 -0.033487804 -0.034845766 0.06594833 0.052014105 -0.08770638
-0.08597279 0.023830345 -0.07534929 0.04435245 0.0522869 -0.09528858 -0.021268226 -0.02747481
0.02345261 -0.03918507 0.044384588 0.03578849 -0.053706337 -0.03895864 0.048432536 -0.075794496
0.04569631 -0.023819141 0.059615813 0.07806712 0.0032475502 0.02221569 0.053886063 -0.0815
0.024914434 -0.011298338 -0.07777121 0.12654124 -0.11426404 0.083991565 0.13200533 0.0073874323
-0.05015772 -0.08323487 -0.079063945 0.04486345 -0.104352616 0.051611386 -0.021208843 0.12515196
-0.044730317 -0.006783342 0.055058908 0.07421893 0.043132298 -0.05807564 0.0519518 0.09064201
0.08271382 0.10053835 0.07644359 0.017588088 0.028690843 0.124917716 0.0764214 0.023450239
-0.02724387 0.0151388 0.07870086 0.04153589 0.04970189 0.014545947 0.08171865 -0.10303283
0.017575197 -0.0776238 -0.046031132 -0.044483017 -0.08102934 0.10888107 0.010297416 0.08712403
0.13368152 0.03074314 0.08637807 -0.030853847 -0.076616615 0.12963174 -0.045759898 -0.0029818767
0.032637153 0.14601664 -0.022777388 0.06759598 0.06903699 0.13657688 -0.026183171 0.09931747
0.047774516 0.09258621 -0.08741538 -0.037096195 -0.002323691 -0.0029662894 0.029219791 0.039805032
-0.099287994 0.054778703 0.046596047 -0.041662756 0.061843496 0.12129788 0.018710565 0.030388547
-0.00030375572 0.014346412 0.14776216 0.056823634 0.106110856 0.08463823 0.035000194 0.03739659
0.060351428 -0.0151099255 0.0026787627 -0.069319814 -0.01820374 0.08658506 0.012398023 0.040932417
-0.0181915 0.021957612 -0.03571129 0.10848714 -0.014052001 0.09873531 -0.057782598 -0.026578952
-0.05575222 -0.06901669 0.043994207 0.072340146 -0.079186335 0.047143426 -0.054218594 -0.042784166
-0.022616075 0.049198665 -0.02993348 -0.02814973 -0.048479587 -0.046512254 0.046554342 0.13588414
0.02794385 -0.046827868 -0.030378597 0.030172061 0.0973248 0.12405673 0.04814028 -0.020899974

net.6.bias f4 [64]
00000000: 0541 c1bd cb04 783d db60 623d 683f 1bbd
00000010: 8c96 c03d 8cc6 d83d 8dfc a2ba 4c2b a0bd
00000020: a7a8 bc3d 10cf d43d e746 8ebd c857 45bd
00000030: cd0b 453c a738 aa3d 394d a23d 34ec 99bd
00000040: 34cb 84bc c81a 7fbc 8507 73bc 0c2c 6238
00000050: 4ae0 9e3c b98f 8a3d 5df2 863d af18 d53d
00000060: 12e6 a93d 1674 bbbd da42 d5bc e694 833d
00000070: ea16 46bd 7aee 5f3c dd10 8b3d c58c fc3c
00000080: f051 323d bf3e 5dbd dc74 bb3c 7e84 763d
00000090: c82b 083d 097c b83d 2144 ab3d 217e b33d
000000a0: eb8a a23d b1d3 7d3d cada b1bb 3a32 d93d
000000b0: c071 b13d 6c8e 24bc 0e08 ab3d 1b2b 253d
000000c0: facb 95bc 57e9 a0bd 10af ad3d c6b1 9dbd
000000d0: 2eee 89bd 3548 a53d 3757 743d 8e30 e23d
000000e0: 63aa 27bd ad43 ac3d 0bfe a1bd 93f8 743d
000000f0: b401 8c3d 0fd5 bc3c cdfc cc3b 58ea a13d
-0.094362296 0.060551446 0.05526815 -0.037902266 0.094037145 0.10584745 -0.0012434885 -0.07820758
0.092118554 0.103910565 -0.06947117 -0.048179418 0.012026739 0.08311587 0.07924885 -0.07515755
-0.016210176 -0.01557035 -0.014833336 5.392362e-05 0.019394059 0.06765694 0.06589196 0.10405099
0.082958356 -0.09153001 -0.026032854 0.064248845 -0.048361696 0.013667697 0.06790326 0.030828843
0.043535173 -0.054014917 0.022882871 0.06018495 0.033244878 0.09008033 0.08362604 0.087642916
0.07936653 0.061969463 -0.005427693 0.10605283 0.08664274 -0.010043722 0.08351146 0.04032431
-0.01828574 -0.07857006 0.08480656 -0.07699923 -0.06734882 0.08070413 0.059653487 0.11044417
-0.040933978 0.08411346 -0.07909783 0.05980737 0.06836262 0.023050813 0.006255722 0.07906026

net.8.weight f4 [5, 64]
00000000: 764d 563d 9f3d 5cbe daf2 f63d 15da aa3d
00000010: 402d 19bd a347 213d e25c b3bc 8595 8d3c
00000020: ee12 143d 163f 113c d8e5 0bbd 08c5 e1bd
00000030: 72fb 013d 35ed 1c3e 733c 2ebe 4625 b93d
00000040: 0a78 80bd f523 1bbd e87e ee3d 7e82 183e
00000050: be60 59be b945 2fbc 068a 383e 6cc0 a7bc
00000060: a267 5cbe 3c01 17bd ed53 3fbd fac5 3c3d
00000070: 81c8 60be b34a fe3d 5ae2 843d 2076 5e3d
00000080: abd9 86bd d193 5a3d e98e 39be 9436 e73d
00000090: 5603 babd 34c4 0e3e d66d 3fbe bbe9 a23d
000000a0: 961a 0dbe 6058 49be b783 3c3c f9f7 58be
000000b0: 4455 38be 1204 99bd 803a 6cbe 61bf 133e
000000c0: d35f 03be ffd8 193e aafc 0f3e 79cf 64bc
000000d0: 6fba 0c3d fe3c 243d f1ae ca3d eabd 7abd
000000e0: 389c 56bd ea5c f23d c4eb d03c ff6d 853d
000000f0: 607e b13a 137b a0bd 78be f03d 1a0e 843c
00000100: 0b18 7b3d 2664 91bc 3752 57bd d10e e1bd
00000110: 763b 5dbd 9904 dc3d 114f e23d bf8c fdbc
00000120: 09d9 d43d ae7f c6bd a5ae 6c3d 01c3 99bc
00000130: 970a 353d 9f60 d03d 6508 cbbd 50c4 1b3d
00000140: cedd 84bd 90db 4fbe 5e84 63b9 57c1 34bc
00000150: 0367 5c3d 970c f2bd 0ee8 c0bd 0330 a03c
00000160: 8433 743d e40d 853d 46ba 4fbd f080 06be
00000170: b3a2 febd 9a6b b33d 5273 41bd b04f 713d
00000180: 58b8 97bd 0ffe aebd 6853 983d 5dbf 033e
00000190: fd52 00be dc40 663c a8ef 8cbd aba8 16bd
000001a0: 488b 8a3c 4297 5fbd 5d93 a53d cb6a d7bd
000001b0: 5dce 90bd 86e3 bbbc 2938 e7bc 13a9 c93d
000001c0: abf9 d9bd 9aee aebd 4c0a e93d 6cc6 5e3d
000001d0: f3bd 213c 202a 903d 101c 813d b4ba 163e
000001e0: 476b 0a3c 09bf f83d 5685 9b3c 9888 cd3d
000001f0: e78b 013e d199 4dbe 6a7c 3dbd 03eb c83c
00000200: d527 14bd f7d7 23bc 8dca edbd bbd4 883d
00000210: f8f0 e13d 64d6 0b3c 6bad 0e3d 890a 9cbc
00000220: 0fcf b23d 6132 673c bcf3 03bd 0b52 373c
00000230: 80c6 abbc 4bce 84bc aaa1 e93d c001 42bb
00000240: f8fe d9bd 107e 4fbd 4d66 9e3c a08b 92bc
00000250: 1d65 3f3d c527 e03d d0a1 06be cefc 063e
00000260: ce9c e63d fab1 783c bd4c 413c 99d0 4abd
00000270: cb37 bbbb c482 fb3d 1b1d 1dbe c217 ac3c
00000280: 6d44 393d 7676 923c 07c0 13bd e684 173d
00000290: 0d8a 993c 5f91 ae3d 34af 033d f0c8 613c
000002a0: d1f9 0e3d 522a 8e3d f877 3a3d 00a0 38bd
000002b0: b2f0 8abd e06a 16bd 66e1 263c 20d7 e8bd
000002c0: e702 debc 95ce 44be 4cc2 2cbd 988b 943d
000002d0: ff95 d63c 8557 37bd 57aa d53c 7c57 083d
000002e0: 057d 8a3b 51b8 27bd e069 243c 3840 013e
000002f0: f07e cebc ce6d c3bd b4b3 17bd 7f73 843d
00000300: 768e 823d 296f 813d 88eb c3bd 8770 daba
00000310: 43c9 85bd 232e 103d d653 a5bd 73cd a3bd
00000320: a11c fc3c b1e7 fa3d 5eab 7fbd c940 f43d
00000330: 4030 0bbe 6725 03be 4a70 f73d a0be 41bc
00000340: c010 c9bc 2584 8a3d 2e9d a1bd d884 31be
00000350: aac2 0d3c d05d febc 9e53 0cbe ec82 f8bd
00000360: 3c20 b83d 26bc 04bd c7c5 c8bc 8b87 d3bd
00000370: 10ee 8dbd 3d33 283d 0d31 ecbd 7419 c53c
00000380: 0611 e13d bae8 85bd 96ea 32bd db40 eabd
00000390: 91c1 d33d f0d0 a23d 9f5b a7bc 3049 27bd
000003a0: b66c e43d a2e5 773d 508f d6bc 789d 7b3c
000003b0: a11d c53c f22f 01bd 9361 903d a873 913a
000003c0: b707 f53d 45f8 983d a68a 51bd f216 feb9
000003d0: d41f bf3c 8108 993c ee73 07be 1d8f a63d
000003e0: 4c57 e8bd 9f8d 2dbd a754 02be 8a87 683d
000003f0: 1493 10be 42a0 4fbd 2e5b 94bd a32a 76bc
0.052319966 -0.21507882 0.12058039 0.08342377 -0.03739667 0.03937496 -0.021894876 0.01728321
0.036150865 0.0088651385 -0.034154743 -0.11023909 0.031733938 0.15324862 -0.17015247 0.090403125
-0.06272896 -0.03787609 0.11645299 0.14893529 -0.2122831 -0.0106977755 0.18021402 -0.020477496
-0.21523908 -0.03686641 -0.046710897 0.046087243 -0.21951486 0.124165915 0.06488486 0.05431187
-0.065844856 0.053363625 -0.18120922 0.11289707 -0.090826675 0.13942033 -0.18694243 0.07954737
-0.13779673 -0.19662619 0.011506013 -0.21188344 -0.18001276 -0.074714795 -0.23069191 0.14428474
-0.12829523 0.15024184 0.14061227 -0.013965481 0.034357484 0.04009723 0.09896649 -0.061216272
-0.052395076 0.11834128 0.025503047 0.06515121 0.0013541691 -0.078359745 0.11755079 0.016120005
0.061302226 -0.01774795 -0.05256864 -0.10989154 -0.054011784 0.107430644 0.11050237 -0.030950902
0.10392959 -0.09692322 0.05778374 -0.018769743 0.044199552 0.10174679 -0.099137105 0.038029015
-0.064876184 -0.202986 -0.00021697718 -0.011032424 0.053809177 -0.118188076 -0.09419261 0.019554144
0.05961944 0.0649679 -0.050714754 -0.13135123 -0.12433376 0.08760758 -0.04722912 0.058913887
-0.07408208 -0.085445516 0.074377835 0.12865968 -0.12531658 0.01405355 -0.06881648 -0.036781948
0.016912118 -0.05458761 0.08084748 -0.10518416 -0.07070611 -0.02293564 -0.028225021 0.098467015
-0.106433235 -0.085416034 0.11378917 0.05438845 0.009871948 0.07039285 0.063041806 0.14719659
0.0084484285 0.12145812 0.018984478 0.10035819 0.12651025 -0.20078208 -0.04626123 0.024526125
-0.0361708 -0.0100002205 -0.11610899 0.066812 0.11032289 0.008535001 0.034833353 -0.019047992
0.087308995 0.014111132 -0.032214865 0.011188994 -0.020968676 -0.01621165 0.11407788 -0.0029603094
-0.106443346 -0.050657332 0.01933589 -0.017888844 0.04672729 0.109450854 -0.13147664 0.13182375
0.11260377 0.015179152 0.011798081 -0.04951534 -0.005713438 0.12280801 -0.15343134 0.021007422
0.04523127 0.017878752 -0.036071803 0.036991976 0.018742586 0.08523821 0.03214951 0.013780817
0.034906212 0.06941666 0.045524567 -0.045074463 -0.0678419 -0.036723018 0.010185575 -0.11369157
-0.027100993 -0.1921943 -0.042177483 0.07253188 0.02619457 -0.0447612 0.0260822 0.033286557
0.0042263293 -0.040947262 0.010035008 0.12622154 -0.025207013 -0.09542428 -0.037036613 0.06467342
0.063748285 0.0632003 -0.095664084 -0.0016665616 -0.06532528 0.03520025 -0.08072631 -0.07998171
0.03077537 0.12251223 -0.062419288 0.11926419 -0.13592625 -0.12807237 0.12081964 -0.011825234
-0.02454412 0.06763486 -0.07891308 -0.17335832 0.008652369 -0.031050593 -0.13703772 -0.12134346
0.08990523 -0.032405995 -0.02450837 -0.10328587 -0.069301724 0.04106449 -0.11532793 0.024059989
0.10989575 -0.0653853 -0.04368075 -0.114381514 0.10339654 0.07950008 -0.02042943 -0.04084128
0.111535475 0.06052173 -0.026191384 0.015357368 0.02406198 -0.031539865 0.07049861 0.001109709
0.11964362 0.07469229 -0.051157616 -0.0004846375 0.023330607 0.018680813 -0.13227817 0.081327654
-0.113447756 -0.04237139 -0.12727605 0.056769885 -0.14118606 -0.050689943 -0.07243954 -0.015024814

net.8.bias f4 [5]
00000000: 0480 c83c 15f3 023d 43b9 ddbc cba6 e3bc
00000010: d92f 7cbd
0.024475105 0.031970102 -0.027065879 -0.027789494 -0.06156907
